model.pth (torch, 146716 bytes, 9 tensors)

lstm.weight_ih_l0 f4 [200, 25]
000000 7e f1 f3 3d 14 e5 3c 3d 83 03 00 be 60 17 be 3c
       0.11911295 0.046116903 -0.1250134 0.023204505
000010 d0 5f d9 3d 0f d9 06 3e f2 e1 4e bd 7a a8 3c bd
       0.10613978 0.13168739 -0.050508447 -0.04605911
000020 d9 cc 9a bd 3e 67 2a bd 60 2d 78 3c d0 27 13 bc
       -0.07558603 -0.041602366 0.015147537 -0.00898166
000030 63 2f 0f 3e ed 94 97 bd a8 88 b8 bd 30 a6 a9 3d
       0.1398292 -0.07401452 -0.0901044 0.08283651
000040 60 74 9e 3b 29 db 0b be 1e c1 a5 3d ac e8 ce bd
       0.0048356503 -0.13657822 0.08093475 -0.101029724
000050 a3 f5 03 3e 52 40 97 3d d0 99 2b 3c 70 06 dd 3c
       0.12886672 0.07385315 0.0104736835 0.026980609
000060 00 50 7e ba 2a 89 ff bd a2 26 b9 bd 80 11 e6 bb
       -0.0009701252 -0.12477334 -0.09040572 -0.007021129
000070 18 f2 be 3c a0 dc b6 3b 28 e6 9b 3c f4 68 ec bc
       0.023308799 0.0055805 0.019030645 -0.02885864
000080 28 75 b7 3d 9c f1 88 bc 43 c0 81 bd 70 93 71 3c
       0.08957893 -0.01671677 -0.06335499 0.0147446245
000090 04 01 a4 3d 06 a8 d4 3d 23 2d bd bd c6 08 66 bd
       0.08008006 0.103836104 -0.09237125 -0.05616071
0000a0 10 27 3f bc 92 32 9a 3d 00 fc 32 bc f6 0a cc bd
       -0.011667028 0.07529177 -0.010924339 -0.09963028
0000b0 a0 2d fe 3c 13 fe f7 bd 13 32 03 3e 60 6d 10 be
       0.031027615 -0.12109008 0.1281207 -0.14104223
0000c0 8c 0f b4 3d 40 29 23 3b e2 5f 07 be 02 0c 86 bd
       0.08792028 0.0024896413 -0.1322017 -0.06545259
0000d0 00 54 eb b9 e0 2b 0d bd 34 44 61 3d ef 0c 8a bd
       -0.00044885278 -0.03446567 0.054996684 -0.06740748
0000e0 8c ff d7 bc 30 45 5a 3d d6 c1 00 be 34 5e 8a 3d
       -0.026366971 0.05328864 -0.12573943 0.06756249
0000f0 5d 66 e3 bd 19 c9 0a be 70 9b 07 be 70 a9 be 3c
       -0.111035086 -0.13553275 -0.13242888 0.023274153
000100 0a c5 f9 3d 88 7b 9a 3d d2 50 8f 3d a0 1f c8 bc
       0.12195785 0.07543093 0.06997837 -0.024429142
000110 a2 4e 88 bd b0 00 52 3c 4a e9 a8 bd 3c 7f 0a bd
       -0.06655623 0.012817547 -0.08247621 -0.033812746
000120 80 8d c6 bd c8 af 78 3d 2d ca 10 3e 7e 1a e9 3d
       -0.09694958 0.060714513 0.14139624 0.11382006
000130 98 8b 17 3d ac b3 5f 3d 07 dc 01 3e e2 11 81 bd
       0.03699836 0.054614708 0.1268159 -0.06302239
000140 8e c7 20 bd e0 d8 c0 3c a0 4b c4 3b 9e 4f f4 3d
       -0.03925281 0.023540914 0.0059904605 0.11929248
000150 6c 5e 9a bd 3a bf 2f bd 20 a7 46 bd 28 7d 0e be
       -0.07537541 -0.042906977 -0.048499227 -0.13914931
000160 9a 84 12 bd d8 30 c5 bc 7b f0 05 be b4 ac ac bd
       -0.03577099 -0.024071142 -0.13080017 -0.08431378
000170 e0 82 24 3d 88 6b c7 3d 60 f3 dd 3b 20 d7 95 3d
       0.040163875 0.09737307 0.0067733973 0.073164225
000180 02 ab f8 3d de 96 a4 3d ea cd d9 3d 30 df c0 3c
       0.12141992 0.08036588 0.10634978 0.023543924
000190 4e 7a 89 bd 96 5d ac bd 58 ff 38 bd aa 04 86 3d
       -0.06712781 -0.084162876 -0.04516539 0.06543858
0001a0 60 ca b4 bb 30 05 32 bc 58 7c ba 3d b0 38 ba 3c
       -0.005517289 -0.010865495 0.09105748 0.022732109
0001b0 02 d4 e6 3d 22 1c 59 bd 9c 7a c5 3d bf 4c 84 bd
       0.11270906 -0.053005345 0.096425265 -0.06459951
0001c0 fe 74 c9 3d c3 e3 0c 3e fa 8b 91 bd 11 4f df bd
       0.098367676 0.13758759 -0.071067765 -0.109037526
0001d0 e8 d6 e7 3c ba af 94 3d 00 a6 92 3d b7 a0 fc bd
       0.028300717 0.0726008 0.07160568 -0.123353414
0001e0 00 6a 3b 3d 34 59 70 bd 5c 49 9a 3d 86 21 c8 bd
       0.045755386 -0.05867882 0.075335234 -0.09772019
0001f0 cb e0 09 3e 58 ae e7 3c 1c c8 c3 3d b0 c8 47 bc
       0.13464658 0.028281376 0.09559652 -0.012193844
000200 54 f6 6f 3d f0 cb e5 3c 08 89 fe bc f9 5e 01 3e
       0.058584526 0.028051347 -0.031071201 0.12633885
000210 58 d4 a1 bd 1c 43 08 3d 30 2e 05 be 0b 49 08 3e
       -0.079018295 0.033267125 -0.130059 0.13309114
000220 4e 89 f5 bd e0 ca ea 3b 6c da 60 3d 30 7f 1e bd
       -0.119890794 0.007165298 0.054895803 -0.038695514
000230 ac cc 77 3d 80 72 63 3c fd c9 01 3e 70 73 ac 3c
       0.060497925 0.013882279 0.12674709 0.021051139
000240 c1 b7 0e 3e 84 0c e1 bc 40 ce 63 bc 33 18 e6 bd
       0.13937284 -0.027471788 -0.013904154 -0.112350844
000250 b8 59 40 bd 88 be 04 be a0 17 b7 bd 00 cf 45 bb
       -0.046960562 -0.12963307 -0.08940053 -0.0030183196
000260 c8 31 a4 bc 99 ef b5 bd 96 e3 aa 3d e8 37 11 3d
       -0.020043269 -0.0888359 0.0834419 0.035453707
000270 a8 28 ba bd fc 77 87 3d a8 aa 21 3d 3a 9d a8 3d
       -0.09089786 0.06614682 0.03946939 0.082331136
000280 e0 a4 58 3c dc 4b 0c 3d 6a 4a e7 3d 44 c1 d6 3d
       0.013222903 0.034252033 0.1129349 0.10486081
000290 18 5a c3 bd 59 88 07 3e 8f 71 84 bd 9e ad d5 3d
       -0.095386684 0.13235606 -0.06466972 0.104335055
0002a0 00 28 7d 39 98 58 06 bd 40 a9 e1 bb 00 ac a0 bb
       0.00024142861 -0.032799333 -0.0068866313 -0.0049033165
0002b0 0e e5 ea 3d 9f 80 08 3e cc e1 81 3d 74 37 29 bd
       0.1146947 0.13330315 0.063418955 -0.04131265
0002c0 04 c0 ae 3d 0c f3 b2 bc 00 18 ca 3c b1 d5 9e bd
       0.08532718 -0.02184441 0.024669647 -0.07755602
0002d0 da b5 cd 3d c0 f5 27 3d f0 bc 6b 3d 60 f5 8d 3d
       0.10044451 0.04100585 0.05755323 0.06931567
0002e0 20 cb 8d bb bc 62 95 bc 66 e9 cb bd 2e 8d 90 3d
       -0.004327193 -0.018235557 -0.099566266 0.07058178
0002f0 72 78 36 bd 1a 3f e8 3d cc 56 16 3d 81 a6 9c bd
       -0.04454846 0.11340161 0.03670387 -0.076489456
000300 38 21 a0 3d e0 4a 13 3d 40 e8 0f bd ca 66 f4 bd
       0.07818836 0.03596008 -0.0351336 -0.11933668
000310 bc f4 57 3d a8 80 22 3d c8 07 ae 3d 1f 9e eb bd
       0.05272363 0.039673477 0.08497578 -0.115047686
000320 a4 83 db bd d0 f5 24 3c c2 42 bd 3d c2 1f fd 3d
       -0.10718468 0.010068372 0.09241249 0.12359573
000330 0a af 62 bd 68 53 5c 3d 27 c6 10 3e ec e5 ac 3d
       -0.05534271 0.05379048 0.14138089 0.084422916
000340 2e 11 fe bd a5 e4 82 bd 7c f0 d3 bc 3e f0 f5 3d
       -0.124056205 -0.06391267 -0.025871508 0.12008713
000350 1e ee 53 bd b1 cb 0b 3e 8c 64 05 3d 77 05 00 3e
       -0.051740758 0.13651921 0.032566592 0.12502085
000360 86 66 ed bd 15 a3 0c 3e 1c d4 57 3d 58 5b 91 3d
       -0.115918204 0.13734086 0.052692518 0.070975006
000370 80 b8 e2 3a 40 be bb 3d 18 26 b3 bc fa e1 5f bd
       0.0017297417 0.09167147 -0.02186875 -0.054658867
000380 bb f8 e6 bd 38 07 85 bd 2a 17 9b 3d 24 c0 96 3d
       -0.1127791 -0.064955175 0.075727776 0.07360867
000390 16 a7 df 3d 18 be 99 3c 0a 5e e1 bd de 5b d5 3d
       0.10920541 0.018767402 -0.11004265 0.10417913
0003a0 35 62 01 3e 4d c7 0d 3e 00 c9 3c 3a 58 94 8c 3d
       0.1263512 0.13845558 0.0007201582 0.06864232
0003b0 c0 2c b4 3c 60 77 1e 3d 1a 91 47 bd f4 3a 8d bd
       0.021993995 0.038688064 -0.048722364 -0.0689601
0003c0 9a d2 da bd d8 85 ae bd 59 43 08 3e 34 ac 83 3d
       -0.106847 -0.085216224 0.13306941 0.064293295
0003d0 37 56 03 be b4 54 76 3d aa 13 e2 3d a8 1c 4b 3d
       -0.12825857 0.060139373 0.11038907 0.049587876
0003e0 fa 2f ab 3d a6 e2 d4 bd 90 53 5f bc 90 7f 92 3c
       0.0835876 -0.10394792 -0.013630763 0.017883092
0003f0 1c 28 b1 3d 9c 23 96 bc e0 15 16 bc ab 51 07 3e
       0.086502284 -0.018327527 -0.009160489 0.13214748

lstm.weight_hh_l0 f4 [200, 50]
000000 a9 c2 93 bd 60 c2 26 3c 6c 62 89 3d e8 85 a3 3d
       -0.07214863 0.010178179 0.067082256 0.07984525
000010 4d 34 f6 bd 8a b6 ed bd b7 ff a5 bd f8 97 5b 3d
       -0.12021694 -0.11607082 -0.08105414 0.053611726
000020 84 72 f2 bc 1c e9 e2 bd 84 a5 63 3d ba 0c f9 bd
       -0.02959562 -0.11079618 0.05557777 -0.121606305
000030 28 9f dc bd ce ad ec 3d 40 c2 c4 3c 30 5f 0c bd
       -0.10772544 0.11556588 0.024018407 -0.034270465
000040 a4 63 30 3d e6 1d bf bd 9f 55 09 be f8 36 b4 3c
       0.043063775 -0.093318745 -0.13411568 0.021998867
000050 90 5a cd 3d 54 6a 32 bd 90 63 23 bc 6c b8 a3 3d
       0.10027039 -0.043558434 -0.009972468 0.0799416
000060 08 5d 05 3d 10 11 d1 bd 4a da d2 3d 88 ae 49 3d
       0.032559425 -0.102083325 0.102955416 0.04923871
000070 60 f9 88 bd 60 98 be 3d e8 9c c1 bc 70 95 72 bc
       -0.066881895 0.09306407 -0.023634389 -0.0148061365
000080 88 78 14 bd 40 33 90 bc 60 90 e8 bb 00 cc 6f 3b
       -0.03624776 -0.017602563 -0.007097289 0.00365901
000090 6e f5 53 bd 69 21 02 be 3e 93 f7 3d 4e 37 60 bd
       -0.051747732 -0.12708057 0.12088631 -0.054740243
0000a0 60 c2 9c 3b 60 58 9a bb 64 1e db bc 02 bf aa bd
       0.0047839135 -0.004710242 -0.02674789 -0.08337213
0000b0 f6 1c 77 bd f6 8a f2 3d 00 bd 1f 3a 76 6a 02 be
       -0.060330354 0.11842911 0.0006093532 -0.12735924
0000c0 0c 34 f2 bd b8 10 d8 3c 9e e5 94 3d f0 e1 13 3c
       -0.118263334 0.02637516 0.072703585 0.009026036
0000d0 60 cd 78 3c f4 de a2 3d a0 c0 e6 3c 80 bc d7 3d
       0.015185684 0.07952681 0.028168023 0.105340004
0000e0 a0 d4 88 bc 31 51 d0 bd 5e 9f c9 3d a8 7a 91 3c
       -0.01670295 -0.10171736 0.0984485 0.017758682
0000f0 7c a2 af bd 2d a8 e3 bd e0 84 5b 3d 11 bd a8 bd
       -0.08575913 -0.11116061 0.053593516 -0.082391866
000100 a6 23 24 bd 26 10 dd 3d 73 d5 0a 3e 2c 5a 06 3d
       -0.04007306 0.10794096 0.13557987 0.03280084
000110 f6 a4 b8 bd 5d ff 06 3e cc 3c 23 3d 12 09 25 bd
       -0.09015839 0.13183351 0.039852902 -0.040291853
000120 23 49 0e 3e 2a 54 5c bd bd c9 01 3e c0 e8 1e 3b
       0.13895087 -0.053791203 0.12674613 0.0024247617
000130 48 25 ce 3c 40 88 0e 3c 36 85 fa bd 7c 13 79 bd
       0.025164261 0.008699477 -0.12232439 -0.060809597
000140 20 45 30 3d ab c6 a6 bd eb 8d a0 bd 12 a4 b1 3d
       0.043034673 -0.08143362 -0.07839569 0.08673872
000150 f0 e0 5f bc d8 12 f6 bc 30 96 88 bc f4 01 c3 3d
       -0.013664469 -0.030038282 -0.016673177 0.09521857
000160 f8 7a c5 3c 16 41 ef 3d 70 67 ea 3c 00 3a 97 bd
       0.024106488 0.11682336 0.028613776 -0.073841095
000170 32 8a 05 bd e3 94 c8 bd 48 fa 95 3d aa 23 55 bd
       -0.032602496 -0.09794023 0.07323128 -0.052035965
000180 20 f0 fb bd 40 7c d6 bd 34 37 94 3d 20 cc 29 3c
       -0.123016596 -0.104729176 0.07237092 0.010363609
000190 fc 23 65 3d 5e 1e aa 3d fe d4 b5 3d 40 a8 cf 3c
       0.05594252 0.08306573 0.08878516 0.025348783
0001a0 88 2e 95 3d ea 9d c8 3d b6 77 85 3d 38 fe ca bd
       0.07284266 0.09795745 0.06516974 -0.0991177
0001b0 b0 6a b3 3d b2 70 ab 3d 20 14 c4 3b e8 cb 0b 3d
       0.087605834 0.08371104 0.0059838444 0.034130007
0001c0 35 b4 83 bd fe 8a fa 3d d8 b6 2c bd 86 8f 00 bd
       -0.06430856 0.12233542 -0.04216656 -0.031386875
0001d0 a3 22 c5 bd b0 37 6a 3d 3c a2 f1 bd 87 e0 04 be
       -0.09625747 0.057182014 -0.11798522 -0.12976275
0001e0 0b a5 08 3e 48 11 e8 bc 00 98 25 b9 ba 78 9c 3d
       0.13344209 -0.028328553 -0.0001579225 0.07640214
0001f0 4e 00 ee 3d 2a ee d3 bd 09 e6 b3 bd 1c f4 29 3d
       0.11621152 -0.103481606 -0.0878411 0.041492566
000200 00 fa 2a bb cc a6 c7 3d 34 69 50 3d 5f 21 9c bd
       -0.0026088953 0.09748611 0.05088158 -0.076235525
000210 38 0f 3f 3d 48 c6 01 be 48 4e 0e be 60 58 96 bb
       0.046645373 -0.12673295 -0.1389705 -0.004588172
000220 87 7e e4 bd 8a f2 c2 bd d4 b5 1a 3d e4 e6 37 bd
       -0.11156946 -0.09518917 0.03777106 -0.04489793
000230 88 c0 e4 3c d6 e1 c9 3d a4 8c 44 bd cc 98 03 3d
       0.027923837 0.09857528 -0.047985688 0.03212814
000240 c4 03 61 3d 20 07 39 bc 88 e9 e2 bc 09 e2 0f be
       0.05493523 -0.011293203 -0.027699247 -0.1405107
000250 ba ad ab 3d 29 26 9f bd b2 7a 0e be da 0f 2b bd
       0.08382745 -0.0777095 -0.13913992 -0.041763164
000260 7c 65 dc 3d 80 5c 64 3d b3 02 08 be 50 a1 75 3c
       0.10761544 0.055752277 -0.1328228 0.014992073
000270 15 ef 99 bd 5c 29 11 bd 03 a1 0f 3e d4 8c 8c 3d
       -0.075163044 -0.035439834 0.14026265 0.06862798
000280 e0 4d eb 3b 4c eb 28 3d 80 2f 65 3b 50 ad 6f 3c
       0.0071809143 0.04124002 0.003497094 0.014628723
000290 02 7d fb bd 6a ce 05 bd 1a ad b5 bd f0 72 17 3d
       -0.12279703 -0.032667555 -0.08870907 0.036974847
0002a0 a9 96 03 3e 62 dc 4c bd 9a 96 df 3d c5 94 06 3e
       0.12850441 -0.05001486 0.10917397 0.13142689
0002b0 5d d8 d1 bd d0 c1 68 3d fc 68 25 bd fd 60 ed bd
       -0.10246346 0.05682546 -0.040383324 -0.11590765
0002c0 d0 f6 09 be 02 c9 89 bd a8 8b 09 be a2 96 e4 bd
       -0.13473058 -0.06727792 -0.13432181 -0.111615434
0002d0 00 40 00 ba 08 24 2a bd ef 07 e6 bd ea 18 b3 3d
       -0.0004892349 -0.04153827 -0.11231982 0.08744986
0002e0 a0 d0 a4 3b c0 0c 35 3b 8c 1b 2e 3d 32 81 57 bd
       0.005029753 0.0027626008 0.04250674 -0.052613445
0002f0 b0 05 b3 bd d7 27 07 3e 04 af b3 bd 76 b2 8a 3d
       -0.08741319 0.13198791 -0.08773616 0.0677232
000300 67 7e 0f be 50 cb 5f bd b8 eb 3f 3d 90 4e 96 3d
       -0.14013062 -0.054637253 0.04685566 0.07339203
000310 c8 7a fb bc d4 f8 58 bd 00 79 2c 3c ca d1 a2 bd
       -0.030698195 -0.052971676 0.0105268955 -0.0795017
000320 60 be b5 3b c0 65 c1 3c da 1c 61 bd 34 fb 43 3d
       0.005546376 0.023608088 -0.054959156 0.047846988
000330 42 82 cb bd d1 66 0e be a0 63 76 3c 20 80 d8 3d
       -0.09936954 -0.13906409 0.015038401 0.10571313
000340 e3 05 f7 bd a8 16 f1 bc de 9f e9 3d b8 5d 29 bd
       -0.1206167 -0.029429749 0.11407445 -0.041349143
000350 80 0a cd 3b 8f 25 07 3e d7 f7 01 3e 58 a9 2f bd
       0.006257355 0.13197921 0.126922 -0.04288611
000360 72 ce 0a be e6 b5 fd bd 80 ee 18 3b e8 ac b6 3c
       -0.13555315 -0.1238821 0.0023335516 0.022299245
000370 a2 3f ae 3d 48 aa a1 3d 04 a2 da bd ec 6f 6a 3d
       0.08508231 0.07893807 -0.10675433 0.057235643
000380 ee ac b4 3d f0 30 55 bc 3e e8 59 bd 1d 04 00 3e
       0.08822046 -0.013012156 -0.0532 0.12501569
000390 c8 7c 70 3d 00 14 e5 bd 4a 3b ba 3d ad 61 d1 bd
       0.05871275 -0.11185455 0.0909334 -0.10223708
0003a0 40 8b 23 bc 80 3a 88 bd 98 20 a7 bc 4e 9b 03 bd
       -0.00998193 -0.06651783 -0.020401284 -0.032130532
0003b0 ae 21 ed 3d 94 f0 cd bc 0c 3c e9 bd 30 c1 0b 3d
       0.115786895 -0.02513913 -0.11388406 0.034119785
0003c0 80 9c cc 3d 9c 6d ac bc 78 bd 8a 3d 32 0e f1 3d
       0.099907875 -0.02104836 0.067744195 0.11770286
0003d0 cf 8f 02 3e 80 3a f6 3a 22 67 6a bd 12 56 04 bd
       0.12750171 0.0018785745 -0.05722726 -0.032308646
0003e0 82 26 fd 3d 50 32 c2 bd 4f d3 a5 bd d0 97 04 be
       0.123608604 -0.094822526 -0.080969445 -0.12948537
0003f0 d8 05 70 3d b9 ae 87 bd e0 20 f8 3b ee 75 f5 bd
       0.058599323 -0.066251226 0.0075722784 -0.11985384

lstm.bias_ih_l0 f4 [200]
000000 6c 92 ef bd 90 4a c2 3d 6f a6 c5 bd e8 e8 eb 3c
       -0.1169785 0.09486878 -0.09650885 0.028797582
000010 54 ab cc 3d e8 12 80 bd 30 c7 0f bc 9c f4 41 3d
       0.09993616 -0.06253606 -0.008775517 0.04735242
000020 b0 6f 49 3c c8 36 af bd 4d bb 03 3e f1 43 e7 bd
       0.012294695 -0.085553706 0.12864418 -0.11292256
000030 e0 b7 80 3c 2a 45 ab 3d 14 fd 4b 3d 5c a6 e7 bd
       0.015712678 0.083628014 0.0498019 -0.113110274
000040 00 fd d6 3a b8 1a be 3c 56 0e 8f 3d 20 af c3 3c
       0.0016402304 0.0232061 0.06985156 0.023887217
000050 b0 3b 46 bc 06 ad d2 bd 06 49 25 bd 88 16 df bd
       -0.012099192 -0.10286908 -0.040352844 -0.10892969
000060 e0 8b 32 3d 74 5b 5d bd 5c 7b bf bd 10 24 45 3d
       0.043590426 -0.054042295 -0.09349701 0.048130095
000070 04 f8 e8 bd 8a 7c ec 3d 8c fd 21 3d e2 4d f0 3d
       -0.1137543 0.115471914 0.03954844 0.11733605
000080 ac bb 84 3d a8 ac 6c 3d d4 06 de bd 2f 61 b8 bd
       0.06481108 0.057781845 -0.10841146 -0.09002911
000090 dc 7a d5 3d 28 33 70 bd 1e 62 87 3d 42 ac e3 3d
       0.10423824 -0.058642536 0.06610511 0.1111684
0000a0 08 47 fe bd 38 74 75 bd dc a4 68 3d 78 14 6c bd
       -0.12415892 -0.059925288 0.056797847 -0.057636708
0000b0 5e 25 c4 bd e7 08 b6 bd 00 72 50 ba e8 0e f4 bd
       -0.0957744 -0.08888417 -0.00079515576 -0.11916906
0000c0 58 3d 94 bd b0 64 1a 3d eb c2 a8 bd 00 ae c9 3b
       -0.07238263 0.03769368 -0.08240303 0.0061547756
0000d0 39 09 f5 bd fc b6 94 bc a2 27 a0 3d 28 c0 08 3d
       -0.1196465 -0.01815366 0.07820059 0.03338638
0000e0 f6 74 b4 bd 00 fd a5 bd 69 b7 a7 bd e8 30 1b bd
       -0.08811371 -0.081048965 -0.081892796 -0.037888438
0000f0 b8 00 33 3d 0c c0 b0 3d c7 35 a1 bd 00 2b e6 ba
       0.043701857 0.0863038 -0.07871585 -0.0017560422
000100 2e 18 9c 3d 0a 68 e6 3d ba c3 84 3d 18 8f 62 3d
       0.076217994 0.112503126 0.064826444 0.055312246
000110 64 19 a3 bc 00 69 6b ba 26 94 e5 bd cb 62 10 be
       -0.019909568 -0.0008980185 -0.11209898 -0.14100187
000120 3a 83 b5 bd 00 79 b5 3b be 3e d8 3d 66 6f 04 be
       -0.0886292 0.005538106 0.10558842 -0.1293312
000130 96 0b c9 3d 32 71 a9 3d eb bb 0f 3e d3 8b 03 3e
       0.09816663 0.082735434 0.14036529 0.12846307
000140 c4 8f 47 3d 6c 45 aa bd ae 88 70 bd c4 9f 74 3d
       0.04872109 -0.083140224 -0.058724098 0.059722677
000150 78 43 86 bc 40 ba e5 3b 00 98 5c 3c c6 8a 0b bd
       -0.016389593 0.007010728 0.013463974 -0.03406789
000160 28 7a 1d 3d 28 f7 f5 bd ad c1 07 3e 36 92 ab bd
       0.038446575 -0.12010032 0.13257475 -0.08377497
000170 d0 4d 83 bc 01 71 b9 bd ff 72 02 3e 4a d2 c8 3d
       -0.016028315 -0.09054757 0.1273918 0.098057345
000180 e8 6f 92 bc 40 c9 8b bb 98 ac 8d bd 22 07 da 3d
       -0.017875627 -0.004265934 -0.06917685 0.10645892
000190 7c 8f 10 3d 36 18 f4 3d 46 4f c7 bd 6e db 87 3d
       0.035293087 0.1191868 -0.09731917 0.0663365
0001a0 ca ee 70 bd b3 2f a8 bd d0 2b 99 3d 70 6e 2b 3d
       -0.058821477 -0.08212223 0.0747906 0.04185337
0001b0 e0 1c 03 bd d4 25 d8 bd 2d 9c ca bd 7f 52 09 3e
       -0.03200996 -0.1055409 -0.098930694 0.13410376
0001c0 39 37 d1 bd 40 1b 29 bd 12 70 ab bd 86 86 4f bd
       -0.10215611 -0.041285753 -0.08370985 -0.0506654
0001d0 cb 55 10 be 9c 38 75 bd 34 61 a9 3d 64 bb 5d 3d
       -0.14095227 -0.05986844 0.08270493 0.054133788
0001e0 68 05 91 bd 05 25 93 bd d2 7d dc 3d ce 59 c2 bd
       -0.07081109 -0.07184795 0.10766186 -0.09489785
0001f0 58 1a 90 3c 3c f7 a6 bc 48 30 bd 3c ca 32 d4 bd
       0.017590687 -0.020381562 0.023094311 -0.1036125
000200 e3 9a ca bd b3 90 a4 bd 88 a5 13 3d a0 ab b5 bc
       -0.098928235 -0.08035412 0.036046535 -0.022176564
000210 78 d4 fe 3c 40 8b 9d 3d d0 67 9c 3c 15 92 f7 bd
       0.031107172 0.076925755 0.01909247 -0.1208841
000220 f8 91 54 bd 62 88 ae bd 00 1f 9d 3d ea 5c 99 3d
       -0.05189702 -0.08522107 0.076719284 0.07488425
000230 a0 8e f2 bb 9e 17 8b bd 07 40 da bd 48 a9 ad bd
       -0.007402256 -0.06791614 -0.106567435 -0.084795535
000240 80 2f bb 3d 9f a8 d5 bd 8a b7 10 bd 90 45 76 3c
       0.09139919 -0.104325525 -0.035331286 0.015031233
000250 51 d2 0e 3e cf 79 04 3e 06 42 f0 3d db 4c 94 bd
       0.13947417 0.12937091 0.11731343 -0.072412215
000260 f4 19 a1 bd 24 8c 00 be 60 ea e0 bb 53 fd 08 3e
       -0.07866278 -0.1255346 -0.006863877 0.13377886
000270 12 ad 26 bd a9 20 01 3e ee 71 02 be cc 91 2d bd
       -0.040692396 0.12610115 -0.12738773 -0.04237537
000280 80 51 85 ba 4c eb a4 bd 5d 4c 89 bd 47 2e 85 bd
       -0.0010171384 -0.08052692 -0.06704018 -0.06502967
000290 9e 8b 40 bd 9f 97 06 be 59 82 0b 3e 91 31 03 be
       -0.04700815 -0.13143776 0.13623942 -0.12811877
0002a0 78 8d 92 3d 24 4b 15 bd 40 5c ec 3c a4 1f c4 3d
       0.07155889 -0.036448613 0.028852582 0.095763475
0002b0 00 2f eb bc 40 5a 4e 3b de 3c fe 3d c0 71 37 bc
       -0.028708935 0.0031486899 0.12413953 -0.011196554
0002c0 ce 66 b5 bd 96 61 04 be c0 e2 02 3b 7f 91 8e bd
       -0.08857499 -0.12927851 0.001997158 -0.06961345
0002d0 4e 45 c3 bd ee cb f8 3d 50 98 f3 bc 4a 07 f8 3d
       -0.09534703 0.121482715 -0.029735714 0.12110765
0002e0 a4 54 09 be 20 5d fe bb e0 02 2a 3c 30 fc 0f 3c
       -0.13411194 -0.007762566 0.010376662 0.0087881535
0002f0 f1 52 08 3e 3a 41 f9 3d 0e a1 ad 3d d4 cf 0a bd
       0.1331289 0.12170644 0.08477984 -0.033889607
000300 e2 77 a4 3d 9f 22 a3 bd f2 1b b3 bd cb 43 04 3e
       0.08030678 -0.07965588 -0.087455645 0.12916486
000310 2c d8 d5 bd 86 41 71 bd fc c6 da 3d 20 07 be bb
       -0.10441622 -0.05890038 0.106824845 -0.005799189

lstm.bias_hh_l0 f4 [200]
000000 88 41 c3 3c 10 8f 0b be 07 de 00 3e 9c f9 d6 3d
       0.023834959 -0.13628793 0.12584697 0.10496828
000010 be 9a 8b bd 40 db 8d 3b 40 61 b8 bb b0 d3 36 bc
       -0.06816624 0.004329115 -0.0056268275 -0.011158869
000020 ec 95 13 3d f8 95 d2 3c a4 42 f6 bc 28 ce a6 3d
       0.03603165 0.025706276 -0.030061074 0.0814479
000030 1a c5 e4 3d 78 29 89 3c 24 2d b9 3d f8 82 04 3d
       0.11170407 0.016743407 0.09041813 0.032351464
000040 40 a7 32 3c 09 40 02 3e 62 1f a4 bd de 3d 15 bd
       0.010904133 0.1271974 -0.08013798 -0.036435954
000050 74 fb 88 3d 80 78 c9 3d 5f f7 0d 3e 21 b2 03 3e
       0.06688586 0.09837437 0.13863896 0.1286092
000060 d0 18 09 bc b0 d0 d3 bd 1c 78 b5 bc 20 a5 0c 3c
       -0.008367732 -0.10342538 -0.022152 0.008584291
000070 b0 90 a7 3d 20 a6 74 3c d0 0b 35 bd 06 c8 da 3d
       0.08181894 0.014932185 -0.04420072 0.10682683
000080 0a 17 84 3d 1e 8c 9e bd 8e b5 ea bd 00 5d 8e ba
       0.06449707 -0.07741569 -0.1146041 -0.0010861456
000090 54 03 62 3d b4 1b ad bd 58 9d 86 3c d6 99 12 bd
       0.055178955 -0.084525496 0.01643245 -0.03579124
0000a0 a4 88 2d 3d 00 f4 ea 3c 06 11 c9 3d 60 0d 36 3d
       0.04236664 0.028680801 0.098177 0.04444635
0000b0 68 f2 84 3c 80 17 1b bd ee 49 bf 3d 22 b3 87 bd
       0.01622887 -0.03786421 0.09340273 -0.06625964
0000c0 c0 e2 1b 3c ac 12 9f bd 1e e0 09 be e4 4d ef bc
       0.009514511 -0.07767233 -0.134644 -0.029211946
0000d0 68 a8 b9 3d 6a 5c 9e bd 10 38 7e 3d 6c 03 6b bd
       0.09065324 -0.0773247 0.062065184 -0.05737631
0000e0 60 cf 09 be 89 8d 0f 3e 80 22 ac bd 8c c0 ec bd
       -0.13458014 0.14018835 -0.08405018 -0.11560163
0000f0 00 d2 8a 3b fe 8d d4 3d 48 92 f7 3c 62 3b cb bd
       0.0042364597 0.10378645 0.03022112 -0.09923436
000100 10 09 3e bc 8c ea 86 3d 08 ae bb 3d 06 a6 05 be
       -0.01159884 0.06587705 0.09164053 -0.13051614
000110 c0 70 24 bc 8e 49 a7 bd 56 f2 01 bd ec 97 d0 3d
       -0.010036647 -0.08168326 -0.03172525 0.10185227
000120 fc b0 99 3d d0 45 48 bc 80 5f 86 3a 88 fc 9a bd
       0.0750446 -0.012223676 0.001025185 -0.07567698
000130 52 e1 af bd f7 65 0e 3e e2 e3 9f 3d f0 30 0a be
       -0.08587898 0.13906084 0.07807137 -0.1349523
000140 7c 35 44 3d e4 4c a3 bd 9a 0e e2 3d b9 5b 00 be
       0.04790257 -0.0797365 0.11037941 -0.1253499
000150 30 56 b2 3c d7 4b 07 3e 60 dd d2 bb 33 76 fc bd
       0.021769613 0.13212524 -0.0064350814 -0.12327232
000160 3a c4 84 3d 41 00 d0 bd 26 20 c3 3d ef 32 9b bd
       0.0648274 -0.101562984 0.09527616 -0.07578074
000170 0c c2 46 bd f9 79 c7 bd da 34 99 3d a5 ed 00 3e
       -0.0485249 -0.09740061 0.07480784 0.12590654
000180 f2 0c 83 3d da f4 b1 3d e0 b5 0d bc f6 41 b1 bd
       0.063989535 0.0868928 -0.008649319 -0.08655159
000190 e2 a2 92 3d 9e c7 2a bd 7e b9 8e bd 40 c0 45 3c
       0.07159974 -0.041694276 -0.069689736 0.012069762
0001a0 80 f9 d5 bb 2c 7d 4a 3d 08 69 91 bc 5c 96 86 3d
       -0.006529987 0.04943578 -0.017750278 0.065716475
0001b0 ce 75 e8 3d 9c fe cf 3d d9 c1 03 be 96 ba 99 3d
       0.113505945 0.10155985 -0.12866916 0.075062916
0001c0 51 53 0d 3e e3 c6 88 bd 14 46 d8 3d 91 30 90 bd
       0.13801314 -0.0667856 0.10560241 -0.07040513
0001d0 94 83 4f 3d d8 34 30 3d 82 7b a1 bd 64 43 ff bd
       0.050662592 0.043019146 -0.07884885 -0.124640256
0001e0 46 ac ec 3d 26 1b f4 bd c5 53 b3 bd 08 36 91 3c
       0.11556296 -0.11919241 -0.08756212 0.01772596
0001f0 00 cc e4 39 79 fc ae bd a0 93 9d bb 9e f2 f3 3d
       0.0004363954 -0.08544249 -0.004808858 0.1191151
000200 c3 58 d5 bd 46 f5 b2 bd 18 35 f2 bd a8 83 1d 3d
       -0.104173206 -0.087381884 -0.11826533 0.038455635
000210 e6 a7 a6 3d 53 33 a5 bd e8 22 a1 3c d0 22 a9 bd
       0.08137493 -0.0806643 0.019669965 -0.08258593
000220 f4 e2 43 3d 17 92 8a bd 63 7a 90 bd 80 0d aa bb
       0.04782386 -0.06766146 -0.070545934 -0.0051895976
000230 d0 d1 18 3c 82 a9 f3 bd 30 cf 3d 3c 98 a3 ee 3c
       0.009327367 -0.118975654 0.011585042 0.029130742
000240 c0 15 1d 3b 34 fa 59 bd 82 67 33 bd 00 64 f4 39
       0.0023969263 -0.053217128 -0.043799885 0.00046613812
000250 10 58 58 bc 80 87 4b 3b b0 b6 99 3d ca 5d 1b bd
       -0.0132045895 0.0031056106 0.07505548 -0.03793124
000260 c0 05 b5 3b be 3c a2 bd 1a fd bf 3d a6 8a d4 3d
       0.005524367 -0.07921742 0.09374447 0.103780076
000270 ce f3 95 bd 7e 0f 99 bd 7c 37 ce 3d 80 95 e0 3b
       -0.07321893 -0.07473658 0.100691766 0.0068537593
000280 4a 36 1f bd 18 62 04 3d 70 c6 31 3c 80 c2 d5 3c
       -0.038870133 0.032320112 0.010850534 0.026093721
000290 36 c0 56 bd 2f a2 cd bd b2 7f c4 3d b8 75 5b 3d
       -0.0524294 -0.100407 0.095946684 0.053579062
0002a0 d5 92 05 be c6 a3 d0 bd 01 d9 0b be 10 cc 1e bc
       -0.13044293 -0.10187487 -0.13656999 -0.009692207
0002b0 ca ab f2 bd 4c 19 95 3d b0 01 c4 3d f1 72 0d be
       -0.118491724 0.072802156 0.09570634 -0.13813378
0002c0 c0 fe b2 bb ad b2 0f 3e 1b b3 88 bd 82 24 dd bd
       -0.0054624975 0.14033003 -0.06674787 -0.10797979
0002d0 70 19 97 3d 45 50 d3 bd 3d 8a 07 3e a0 72 a2 3d
       0.07377899 -0.103180446 0.13236327 0.07932019
0002e0 e0 0d 44 3c 68 03 d4 3d 0a 79 fc 3d 86 83 97 bd
       0.011966199 0.10352212 0.12327774 -0.07398133
0002f0 2a 15 1d bd 6f 1d 8d bd e2 ca 08 bd a0 eb 81 3d
       -0.03835026 -0.0689038 -0.03339661 0.0634377
000300 16 20 b4 3d 68 1e 96 bc b0 34 ab 3d e0 e1 bd bc
       0.087951824 -0.018325046 0.08359659 -0.023178995
000310 44 0a ea bd ee 8f d8 3d 60 b1 d1 3d 00 90 b7 3a
       -0.11427739 0.105743274 0.1023891 0.0014004707

lstm.weight_ih_l1 f4 [200, 50]
000000 05 6f 8a bd 38 c4 a8 bc ce de e4 3d 50 07 c5 3c
       -0.067594565 -0.020601377 0.11175309 0.024051338
000010 ca fa ef 3d 36 a9 0b be 17 94 0c be 74 b8 92 bc
       0.11717756 -0.13638768 -0.13728367 -0.01791022
000020 98 7c eb bd 58 bf 55 3d 06 75 f7 3d 0e f0 15 bd
       -0.11498374 0.052184433 0.12082867 -0.036605887
000030 a9 76 97 bd 2e 63 4a bd a8 db 0f 3d e8 25 50 bd
       -0.073956795 -0.04941099 0.03512159 -0.0508174
000040 a8 32 a2 bc 80 8e 51 3c 46 15 c5 bd 7c 99 1e 3d
       -0.019799545 0.012790322 -0.09623198 0.038720593
000050 2a 9c c2 bd b4 f4 e7 bc 0b 82 bc bd 1a fc d9 bd
       -0.09502442 -0.028314926 -0.09204491 -0.10643788
000060 c6 fd d6 3d 63 f4 05 be c2 4f 3f bd e8 f4 4a 3d
       0.10497622 -0.13081507 -0.046706922 0.049549967
000070 c0 af 04 bd a2 32 a7 bd 80 2e 7b 3b 80 c8 c2 3b
       -0.03239417 -0.08163954 0.0038327277 0.0059443116
000080 a8 8f c6 3c 34 25 03 bd e0 23 80 3b 06 d6 b7 3d
       0.024238423 -0.0320179 0.0039105266 0.089763686
000090 73 ea e3 bd 20 b2 85 bd 28 d9 68 bd f6 e8 be 3d
       -0.11128702 -0.06528115 -0.05684772 0.093217775
0000a0 a0 7d 64 3d 16 ee 66 bd 8d 8d a5 bd b4 29 2f 3d
       0.055783868 -0.0563794 -0.08083639 0.04276438
0000b0 cf 82 8b bd 4a 0d f1 3d ce fc f6 3d d8 95 01 3d
       -0.06812059 0.11770113 0.120599374 0.031637043
0000c0 42 57 16 bd 80 19 f6 ba 6e fb f5 3d d7 c4 08 3e
       -0.03670431 -0.001877591 0.12010847 0.13356338
0000d0 d0 de 7b 3d c0 8a 39 bc 11 f7 ca bd f5 19 07 3e
       0.061491787 -0.0113245845 -0.099104054 0.13193496
0000e0 c8 5f 96 3d 7c 5e db 3d c4 6b cb bd 62 c3 e2 3d
       0.073424876 0.10711381 -0.09932664 0.110724226
0000f0 9a 28 11 bd be 2a 05 be 40 19 a3 3d b8 32 fe bc
       -0.03543911 -0.13004586 0.079638004 -0.031030044
000100 c8 f3 c1 3c 5f 54 0e be 8e fd 05 bd a2 bc d2 bd
       0.023675814 -0.13899373 -0.03271251 -0.10289885
000110 b2 65 b4 bd 0c 0b cf bd 62 4f ea 3d 48 a1 7d 3d
       -0.08808459 -0.10109529 0.11440922 0.061921388
000120 cc 31 a1 3d b9 92 dc bd 33 36 0a 3e 5e cf f2 3d
       0.07870826 -0.107701726 0.13497238 0.118559584
000130 e2 a1 d0 bd bc 7a 93 3d 6c fe dd bc 9e 72 bd bd
       -0.10187127 0.07201144 -0.027098857 -0.09250377
000140 26 be a4 bd 2d 08 02 be 10 db af bd 72 e5 0c bd
       -0.080440804 -0.12698431 -0.08586705 -0.034398504
000150 64 93 fd bd 74 4d 28 bd 02 7d c3 3d 28 97 89 bd
       -0.12381628 -0.04108949 0.09545328 -0.06718284
000160 f0 90 a4 bd 47 9d 85 bd 4e d0 de 3d c0 05 52 bb
       -0.08035457 -0.06524139 0.10879575 -0.0032046884
000170 85 a9 0b 3e 40 1a 04 3b 0e c3 85 bd 40 7a cb 3d
       0.13638885 0.0020157248 -0.06531344 0.09935427
000180 9f e9 09 3e 90 f1 75 3c cc a3 b4 3d 8c 96 63 3d
       0.13468026 0.015011206 0.08820304 0.055563495
000190 40 c6 ec bc bd a0 10 3e 4a 35 52 bd cc 83 06 3d
       -0.028903127 0.14123817 -0.05132035 0.032840535
0001a0 cc 8f 34 3d e6 c7 fb 3d 40 8c 08 3c d0 43 17 bc
       0.044082448 0.12293987 0.008334219 -0.009232476
0001b0 70 c8 24 3d 7c 5f 0a be 0e 8c ff bd b0 c3 3a 3c
       0.040230215 -0.13512987 -0.12477885 0.011399195
0001c0 c9 e7 9f bd ab 4c 09 be b8 e6 cd 3c b6 bd fb 3d
       -0.078078814 -0.13408153 0.02513443 0.12292044
0001d0 f0 b0 48 3d f8 0f d4 3d aa 5e 97 bd 90 05 75 3c
       0.048996866 0.10354608 -0.073911026 0.0149549395
0001e0 50 37 b2 bc 05 3c 03 be fc ea ab 3d 6c b0 61 bd
       -0.02175489 -0.12815864 0.08394429 -0.05509989
0001f0 bf 9c 8f bd 86 81 4d bd 20 ad 83 bc 20 0c 9a bc
       -0.07012319 -0.05017235 -0.016073763 -0.01880461
000200 f4 08 5c 3d 04 b3 9c 3d df 01 0a 3e 18 65 94 3c
       0.053719476 0.07651332 0.13477276 0.018114612
000210 10 96 01 3c fc 49 da bc 20 79 5e bc b8 87 79 3d
       0.007909313 -0.026646607 -0.013578683 0.060920447
000220 da 5e 19 bd 98 44 f9 3c 98 8c 0d 3d 17 32 08 3e
       -0.037443973 0.030428216 0.03455791 0.13300358
000230 aa 46 c4 3d bf 19 ee bd 08 96 b8 3c 70 70 d0 bc
       0.095837906 -0.116260044 0.022532478 -0.02544424
000240 60 0c da bb 30 26 d2 3d 28 08 62 3d 52 f8 c1 bd
       -0.0066543072 0.1026119 0.05518356 -0.094711915
000250 08 38 92 3d 1c 77 d2 3d 0e 67 bf bd 60 bd 37 3c
       0.07139593 0.102766246 -0.09345828 0.011214584
000260 d8 27 b8 bd e8 d8 18 bd c4 7e bb 3d a4 26 09 be
       -0.089919746 -0.037316233 0.09155038 -0.13393646
000270 28 48 a4 3d 00 bd ef 3b 66 ae f1 3d b6 7c c0 bd
       0.08021575 0.0073162317 0.11800842 -0.09398787
000280 04 db 54 3d 54 c6 07 3d 9a 8a ba bd 58 6e 8c 3c
       0.051966682 0.033148125 -0.091084674 0.01714246
000290 9c e1 d6 3d d4 83 5f bd c8 96 7a bd b6 bd fd 3d
       0.1049225 -0.05456908 -0.061178952 0.123897
0002a0 40 8d d3 3b 96 c3 f8 3d fe af a3 bd 6c 2f ea bd
       0.0064560473 0.1214668 -0.07992552 -0.11434826
0002b0 38 2c ac 3c 90 54 5a 3d 12 c2 07 bd a8 85 fa 3c
       0.021017179 0.0533033 -0.033144064 0.03058131
0002c0 62 24 c8 bd a0 6d 6a bd 88 ba 53 3d 72 ff b7 bd
       -0.097725645 -0.057233453 0.051691562 -0.08984269
0002d0 48 4f a7 bd 65 9e 9f bd 02 e3 19 bd b6 7b 88 3d
       -0.081694186 -0.07793883 -0.037570007 0.06664221
0002e0 32 79 b0 bd e0 93 29 3d 40 28 b2 3d 7c 21 de 3d
       -0.08616866 0.04140079 0.08699083 0.108462304
0002f0 e1 33 95 bd 0e a4 7a bd 95 72 bd bd c8 dc b8 3c
       -0.07285286 -0.06119161 -0.092503704 0.022566214
000300 8a 43 ed 3d a2 ce 5e bd 90 83 30 3c e4 3a 71 bd
       0.11585148 -0.05439628 0.010773554 -0.058894053
000310 6a bd 90 bd 68 64 f6 bc 63 87 09 3e 16 9c cf bd
       -0.07067378 -0.030077174 0.13430552 -0.10137193
000320 98 bf b5 bc 4a 42 8d 3d 5f 5e e6 bd 24 cd 41 3d
       -0.022186086 0.06897409 -0.112484686 0.047314778
000330 d0 b6 11 3c 62 19 60 bd 10 67 a1 3d 80 62 c5 bd
       0.008893684 -0.054711707 0.07880986 -0.09637928
000340 ce 86 aa 3d ff 61 ee bd 73 d1 de bd a6 fc d7 3d
       0.08326493 -0.11639785 -0.10879793 0.10546236
000350 b4 83 5b bd 56 8b ef 3d 88 3a b7 3d b8 53 cc 3c
       -0.0535924 0.11696498 0.08946711 0.024942264
000360 00 9b c2 3c cf a6 97 bd c0 7d 6e bb 1a fe fd 3d
       0.02375555 -0.07404863 -0.003639087 0.12401982
000370 b6 0c 8a bd 84 00 20 3d 20 16 dd 3d 16 94 cf 3d
       -0.06740706 0.03906299 0.10795236 0.10135667
000380 3f b6 a5 bd a4 6d a5 bd 3a 10 db bd 70 e5 09 3d
       -0.08091401 -0.08077553 -0.10696454 0.033666074
000390 09 a4 0b 3e 4d 60 a1 bd 80 7e 3a 3b 6a be 38 bd
       0.13636793 -0.07879696 0.0028456748 -0.045103468
0003a0 bf b0 c7 bd 40 0a 70 bd 7c 9d 1e bd e0 ca eb 3c
       -0.097505085 -0.058603525 -0.038724408 0.028783262
0003b0 38 8d c4 3d 80 0c 74 3b d8 a3 fb bd 8a 08 02 bd
       0.09597248 0.0037238896 -0.1228711 -0.031746425
0003c0 34 f9 7b bd 8c 0a 5d 3d 75 2c d1 bd d4 f0 37 3d
       -0.061516955 0.053965136 -0.10213558 0.044907406
0003d0 51 61 0e 3e ae b2 ff bd 30 00 05 bc 20 66 28 bd
       0.13904311 -0.12485252 -0.0081177205 -0.04111302
0003e0 ac 6d 3b 3d 5f 21 0a 3e d0 91 99 bd 00 78 a7 b9
       0.045758888 0.13489293 -0.07498515 -0.0003194213
0003f0 fb b2 f6 bd bf 20 0e be 80 74 07 3b 29 74 06 3e
       -0.120458566 -0.13879679 0.0020668805 0.13130249

lstm.weight_hh_l1 f4 [200, 50]
000000 e8 62 9f 3d e6 0f be bd 90 e4 1c bc d9 47 00 be
       0.07782537 -0.09280376 -0.009575978 -0.12527408
000010 2b 75 81 bd a0 d7 06 3d c0 5e 07 be a4 01 2d 3d
       -0.06321176 0.03292048 -0.13219738 0.042237893
000020 50 bb 5c bd 68 3a 21 bd 00 de 5c 3b 70 8d ec bc
       -0.053889573 -0.03936234 0.0033701658 -0.028876036
000030 40 b6 92 3b b6 3f e1 3d b2 76 98 bd c0 7f ff bd
       0.0044772923 0.1099848 -0.07444514 -0.12475538
000040 00 d3 d0 3c c2 fe 3e bd 64 19 91 bd 5e fc c6 3d
       0.025491238 -0.046629675 -0.07084921 0.09716104
000050 b0 5b be 3d 31 ae be bd 68 32 01 bd 70 78 cc bc
       0.09294832 -0.09310568 -0.03154221 -0.024959773
000060 50 f4 9f 3c f8 32 bf 3c 2b 2d a0 bd 02 82 b3 3d
       0.019525677 0.023339733 -0.07821115 0.087650314
000070 6c 0a f2 bc b1 b3 07 3e 2c f6 94 bc 60 cc 67 bc
       -0.029545985 0.1325214 -0.01818379 -0.014147848
000080 2a 41 b6 bd ec 3f a1 3d 73 46 03 3e 09 96 c7 bd
       -0.08899148 0.0787352 0.12819843 -0.09745414
000090 54 3b 80 3d dc ff 7d bd 5c 5e bd bc d0 f3 32 bc
       0.06261316 -0.062011585 -0.023116283 -0.010922387
0000a0 3a 0c a1 3d 78 0c 64 bd 80 36 52 3c a0 a5 80 bb
       0.0786366 -0.055675954 0.012830377 -0.003925994
0000b0 00 75 01 ba 7a 11 96 bd d8 2b fd bd c8 59 3f bd
       -0.0004938394 -0.07327552 -0.12361878 -0.04671648
0000c0 10 79 2e bc ef 92 fb bd aa 5a b6 bd 18 a0 1e 3d
       -0.010648981 -0.12283885 -0.089040115 0.038726896
0000d0 00 30 cf bb b9 3f 9e bd 20 e4 a2 3b 26 46 b1 3d
       -0.0063228607 -0.07726998 0.0049710423 0.08655958
0000e0 1e bf 45 bd b0 db 7b 3c b0 34 82 3c ea 69 c2 bd
       -0.048277967 0.015372202 0.015894264 -0.09492858
0000f0 04 06 22 bd 69 0f 0b be 8c b5 d0 3d e0 c9 3c bc
       -0.03955652 -0.13580097 0.10190877 -0.01152274
000100 a6 53 b0 3d b6 75 04 bd 00 97 64 bb b0 1d 8c bc
       0.08609705 -0.03233882 -0.0034880042 -0.017104
000110 ca 02 ae 3d 00 71 6b ba 21 4f 05 be 78 d2 e1 bc
       0.08496626 -0.0008981377 -0.13018467 -0.02756618
000120 5c a8 89 bc a0 15 90 3b a4 da 9b 3d 5a 7e df 3d
       -0.016803913 0.004397109 0.07610062 0.109127715
000130 30 2c d9 bd bc 52 ad bd 28 fd d0 3c a8 2c 3a 3d
       -0.10604131 -0.08463046 0.02551134 0.045452744
000140 a4 de 7d 3d 60 71 c8 3b ae 3f 86 bd f8 51 99 3d
       0.061979905 0.006117031 -0.06555115 0.074863374
000150 2e 7a 24 bd 94 59 22 3d 98 8f 61 bd 38 70 9f bd
       -0.040155582 0.03963621 -0.055068582 -0.07785076
000160 04 a9 82 bd 62 5f ad bd ac 05 a6 3d c0 0d f9 3c
       -0.063798934 -0.084654585 0.081065506 0.030402064
000170 e7 ee f1 bd 40 83 3a bd 30 fa dd 3c ce 02 cb bd
       -0.11813145 -0.045535326 0.027096838 -0.09912644
000180 34 23 3e bd 10 81 1f 3d 10 7c ca bc d0 06 c6 bd
       -0.04642029 0.038941443 -0.02471736 -0.09669268
000190 60 32 c6 3c 7e de b4 bd f8 68 bc bd 80 2e 48 3b
       0.024193943 -0.088314995 -0.09199709 0.0030545294
0001a0 4d 2b 8f bd 54 c8 ef bc 1e 18 0d be 7a ff fc bd
       -0.06990681 -0.029270329 -0.13778731 -0.12353416
0001b0 c8 c7 c0 3c 2b 25 0b be ec 72 c8 bc f4 b6 05 be
       0.023532763 -0.13588397 -0.024468862 -0.13058072
0001c0 31 b2 f8 bd c9 c1 0e 3e f8 5f bc 3c 4a 4c 8b 3d
       -0.12143362 0.1394111 0.02299498 0.0680166
0001d0 5c c5 c8 bc bd d1 0a be 94 b2 26 3d f8 62 13 bd
       -0.02450817 -0.13556571 0.04069765 -0.035983056
0001e0 2e fb 98 3d 60 bb e9 bb 1a 95 a1 bd 3d 13 0f 3e
       0.07469784 -0.0071329325 -0.07889767 0.13972183
0001f0 80 0f 7d 3d 08 8f 52 3d 1e 68 be bd a0 17 be 3b
       0.06178236 0.051405936 -0.092972025 0.005801156
000200 a0 5a db bd 00 11 e1 3b 80 8d c9 3b c0 42 ca bc
       -0.10710645 0.0068684816 0.0061509013 -0.024690032
000210 d6 e9 87 3d 98 05 3a 3d 02 85 28 bd fa 6d f7 3d
       0.066363975 0.04541549 -0.04114247 0.12081523
000220 d0 a2 33 bc 16 f6 d4 3d 18 e9 06 be 10 82 84 bc
       -0.0109641105 0.103985 -0.13174856 -0.0161753
000230 d0 53 14 3d c0 eb 6e 3d 23 af e9 bd f1 d9 97 bd
       0.036212742 0.058330297 -0.11410358 -0.07414616
000240 9e b5 ee 3d 20 3a 06 3d 1c 1e 0b be 98 81 cd bd
       0.116557345 0.032770276 -0.13585705 -0.10034484
000250 d8 2e 8e 3c ba e0 cd bd a8 df de 3c 10 87 3e bd
       0.017356321 -0.10052629 0.027206257 -0.046515524
000260 ec bd cb bd 74 87 3c 3d 14 23 cb bc 88 bb 75 3d
       -0.09948334 0.046027616 -0.024797 0.059993297
000270 de 90 fd 3d f0 72 06 be 70 79 b9 3d 18 4f 3a 3d
       0.12381147 -0.13129783 0.090563655 0.045485586
000280 da d3 e4 3d 50 cb a9 bc 32 c3 08 bd 2c e6 b4 3d
       0.1117322 -0.02072683 -0.033389278 0.08832964
000290 83 28 b3 bd 10 b8 13 3c 27 a6 0b be c2 9e 96 3d
       -0.08747961 0.009016052 -0.13637601 0.073544994
0002a0 2b 56 06 3e 07 a1 08 3e 00 5c 1a 3b ba 0e 7b bd
       0.13118808 0.13342677 0.0023553371 -0.06129334
0002b0 af db 06 3e d2 d9 f7 3d 80 66 15 3c c8 65 36 bd
       0.1316974 0.12102093 0.009118676 -0.04453066
0002c0 7e 71 f7 3d 20 f4 79 bd 20 a5 58 bd 07 79 db bd
       0.12082194 -0.06102383 -0.05289185 -0.107164435
0002d0 2c 06 eb bd 50 99 3d bd 4e fc cf bd f0 96 71 bc
       -0.114757866 -0.04628879 -0.10155545 -0.014745459
0002e0 5e be 63 bd c2 4b 19 bd a0 a3 ad bb 6a 96 a9 3d
       -0.05560147 -0.037425764 -0.0052990466 0.08280642
0002f0 a8 49 df bd 55 4c cd bd 5b 7b 0b be 8a 40 a3 bd
       -0.10902721 -0.10024325 -0.13621275 -0.07971294
000300 60 89 93 bb c0 95 72 bb 7e c8 97 bd e2 98 7e bd
       -0.0045024604 -0.0037015527 -0.07411288 -0.06215752
000310 cd df 0f be 16 cd 95 3d c2 11 8a bd 44 c8 91 bd
       -0.14050217 0.07314508 -0.06741668 -0.07118276
000320 6d fe 97 bd 64 98 3a bd 4e 54 02 bd 20 48 fc 3b
       -0.07421575 -0.045555487 -0.03181868 0.0076990277
000330 1f ef b2 bd 6c fb 60 bd 2e 7a b1 3d 80 2a d1 3a
       -0.08737015 -0.054927275 0.08665882 0.00159581
000340 9e a6 00 be 64 64 b6 3d 0b 33 b9 bd a4 e6 1c bd
       -0.1256356 0.08905867 -0.09042939 -0.038305894
000350 60 61 2a bd b8 f8 b0 bc 0c 07 5b 3d 00 a8 fc ba
       -0.04159677 -0.021602973 0.053473517 -0.0019276142
000360 70 69 69 bc 04 51 82 bd 28 1c 87 bd 80 a2 62 3b
       -0.01424633 -0.06363109 -0.06597167 0.003458172
000370 59 2b 94 bd cb ef b3 bd 6c 89 53 3d 32 9a e2 bd
       -0.072348304 -0.08785971 0.051644728 -0.11064567
000380 40 c0 36 3d e0 6f d4 bd 48 6e c1 bd 9c cd e2 bd
       0.044616938 -0.10372901 -0.094448626 -0.11074373
000390 40 03 50 bb cb 0c 04 be 54 88 b7 bd 08 c1 1b 3d
       -0.0031740218 -0.12895505 -0.089615494 0.038025886
0003a0 37 f1 f4 bd 60 b6 80 bc 50 5f 84 bc 00 47 bc 3a
       -0.119600706 -0.015711963 -0.01615873 0.0014364421
0003b0 d0 68 c9 bc 07 4f 04 3e 07 e0 02 be 82 ce af bd
       -0.024586111 0.12920772 -0.12780772 -0.0858431
0003c0 6e d0 a4 3d d2 11 37 bd 3a e6 eb 3d e6 87 0b be
       0.08047567 -0.04469473 0.115185216 -0.1362606
0003d0 82 0b 0d bd 1e f3 cf bd 88 0b ef bc 6e 58 df 3d
       -0.034434803 -0.10153793 -0.029180303 0.109055385
0003e0 94 03 a3 bd 8f b1 07 3e 35 7e 04 3e cc 9e f0 bc
       -0.07959667 0.13251327 0.12938769 -0.029372595
0003f0 33 6e 0c be 60 18 3e 3d d4 af da bd fe ac 08 be
       -0.13713913 0.046409965 -0.10678068 -0.13347241

lstm.bias_ih_l1 f4 [200]
000000 cb b9 0a be 4c 3e f3 bc 41 9c d7 bd 00 8d a5 3b
       -0.13547437 -0.029692791 -0.1052785 0.005052209
000010 06 ec 71 bd 9a 43 a2 3d ab a9 0e be ac 55 44 3d
       -0.05906298 0.0792305 -0.1393191 0.047933266
000020 20 b3 a8 bd 99 d4 0c 3e dc 19 fe bc 55 73 94 bd
       -0.082372904 0.13752975 -0.03101819 -0.0724856
000030 c4 3b d0 bd f0 80 96 bc 94 6f a3 3d b6 30 d7 3d
       -0.101676494 -0.018372029 0.07980266 0.10507338
000040 64 55 6f 3d e0 34 0d be 60 30 34 3c 9a a4 6a bd
       0.058431044 -0.13789701 0.010997862 -0.057285883
000050 65 ef 94 bd cc 36 f2 bc 40 dc 94 bd 8c 08 59 3d
       -0.072722234 -0.029567145 -0.07268572 0.052986667
000060 98 8a 7d 3d 1c ea 1d bd bd 37 ee bd 18 03 6b 3d
       0.06189975 -0.038553342 -0.11631725 0.057375997
000070 3b 38 00 3e b0 84 cc bd 54 ad 6a 3d c1 8b 0f be
       0.1252145 -0.09986246 0.057294205 -0.14018156
000080 b0 b9 f7 bc da fb c9 bd 7a 14 8d 3d 98 94 9f bd
       -0.03023991 -0.0986249 0.06888671 -0.07792014
000090 90 34 62 bd b4 24 45 3d e4 6a a1 bc 6b 96 a5 bd
       -0.05522591 0.048130706 -0.01970429 -0.080853306
0000a0 e8 92 da 3d c5 2b ae bd f0 84 51 bc 24 e5 89 3d
       0.106725514 -0.08504442 -0.012788042 0.06733158
0000b0 30 c6 d9 3c 80 80 f9 bc a0 f2 bc 3b 00 5b 64 bc
       0.026583761 -0.030456781 0.005766228 -0.013937712
0000c0 62 45 c4 bd 81 07 05 3e 8a 9b f9 3d 00 d5 bb bc
       -0.09583546 0.12991144 0.1218787 -0.022928715
0000d0 54 f5 2e 3d 20 c4 62 3d 5d 07 08 be 8c 0e 82 3d
       0.042714432 0.05536282 -0.13284059 0.06350431
0000e0 bb a7 f3 bd c4 05 a9 bd 0c dd a6 3d 40 79 0a 3d
       -0.118972264 -0.08253053 0.0814763 0.03380704
0000f0 d0 fd 3e bc 00 56 d3 bb 2c ab 6e bd 14 b9 be 3d
       -0.011657193 -0.006449461 -0.05826871 0.093126446
000100 ca 31 b0 bd 78 a2 84 bc 14 d8 4d bd 4e 48 bd bd
       -0.086032465 -0.016190752 -0.050254896 -0.09242307
000110 3a 3d b9 bd a6 7f a0 3d 81 c2 0d 3e e0 13 6b bc
       -0.09044881 0.07836847 0.13843729 -0.014348
000120 d8 da f6 bc 6c a9 8f bd a0 55 ec bd 9a e2 15 bd
       -0.03013365 -0.070147365 -0.11539769 -0.036593057
000130 00 15 1c 3a 70 0c bb 3c 20 d5 80 3b 3c 82 a6 bc
       0.0005954057 0.02283308 0.0039316565 -0.020325772
000140 01 63 b7 bd e2 d9 2f bd 80 9e d7 bd 20 86 4a bc
       -0.0895443 -0.0429324 -0.10528278 -0.012361079
000150 72 6c 8f 3d 8e cb 10 be b0 19 00 bd 60 f4 b5 bb
       0.07003106 -0.1414015 -0.031274498 -0.0055528134
000160 d9 43 e4 bd 72 2c 81 3d 80 15 aa 3d 80 14 f7 3b
       -0.111457534 0.063073054 0.08304882 0.0075402856
000170 8a 54 a9 bd 6e c1 37 bd 14 c7 07 3d c6 b3 7f bd
       -0.08268078 -0.044862203 0.03314884 -0.062427305
000180 ae 78 a7 bd 68 bc a2 3c 26 a8 ae bd f0 b0 80 3d
       -0.08177315 0.01986523 -0.085281655 0.06283748
000190 64 65 25 3d a0 35 43 3c 61 40 0d 3e 64 4e b5 3d
       0.040379897 0.011914641 0.1379409 0.088528425
0001a0 b0 63 82 3c a4 11 81 3d 44 b4 09 be 7e ad e1 3d
       0.015916675 0.06302193 -0.13447672 0.11019419
0001b0 8d b0 a9 bd 57 69 06 3e 86 be 38 bd 14 0e c7 bc
       -0.082856275 0.13126121 -0.045103572 -0.024298705
0001c0 5e 41 eb bd 12 4b e1 bd 3c aa 75 3d 98 b4 be bc
       -0.11487077 -0.11000647 0.0599768 -0.023279473
0001d0 82 d5 ff 3d 98 0b bf 3d 17 2d df bd 40 1b 51 3d
       0.12491895 0.09328383 -0.10897272 0.05105138
0001e0 d4 a3 95 bc 40 99 4b 3d 3c 29 11 3d 00 f0 a2 38
       -0.018266596 0.049706697 0.035439715 7.7694654e-05
0001f0 30 68 50 3c 8e 22 d4 3d 28 fa 48 3d af b1 a6 bd
       0.012720153 0.10358153 0.049066693 -0.08139359
000200 13 a3 09 3e c8 95 e8 bd 58 27 74 bd 40 5c 77 3c
       0.13441114 -0.113566935 -0.059607834 0.015097678
000210 d0 55 2c 3c 98 64 59 3d b6 73 84 3d fc 47 95 bc
       0.010518506 0.05307445 0.064673826 -0.018222801
000220 1c 2d af bd f2 44 ff bd 00 c0 6c b7 40 d5 ff bd
       -0.08553526 -0.12464322 -1.41114e-05 -0.12491846
000230 d0 80 da 3c 60 2e 91 bb e2 b0 fb 3d 93 53 9d bd
       0.02667275 -0.004430577 0.12289597 -0.07681956
000240 0f f3 02 be f6 3f c9 3d b6 d1 9d 3d fc 74 51 bd
       -0.12788032 0.09826653 0.07706015 -0.051136956
000250 df f7 05 3e d6 03 27 bd 74 d8 1f 3d ca 23 0e bd
       0.13082837 -0.040775143 0.039024785 -0.0347021
000260 70 9d 60 3d b2 0c ed 3d dd 49 0e 3e a0 fa ba bb
       0.054837644 0.11574687 0.13895364 -0.0057061464
000270 10 9d 7b bc 4c 82 fe bd 7b c4 03 be 34 c8 26 3d
       -0.015357271 -0.12427196 -0.1286792 0.040718272
000280 47 d8 80 bd 6b 5e 09 3e aa 18 b4 3d 3e 3d ce 3d
       -0.06291252 0.13414924 0.08793767 0.10070275
000290 51 4e 07 3e 0e bf 36 bd 18 2f 3e 3d f0 a8 d6 3d
       0.13213469 -0.044615798 0.04643163 0.10481441
0002a0 d8 33 f1 3c c4 70 0b 3d b2 49 4f bd df d5 06 3e
       0.029443666 0.03404309 -0.05060739 0.13167523
0002b0 31 8b 0d 3e ba a3 23 bd 75 ad 0f be 9c eb dd bc
       0.13822629 -0.039951064 -0.14031012 -0.027089886
0002c0 f8 85 c1 3d e5 d1 a5 bd ce d0 a4 bd 20 83 93 3d
       0.09449381 -0.08096675 -0.08047639 0.072027445
0002d0 ad ba b8 bd 58 ab a3 3d 8c e5 0e be 54 9b cd 3d
       -0.090199806 0.079916656 -0.13954753 0.10039392
0002e0 94 c4 67 3d 10 20 f2 bc 03 3a 00 3e 6e 37 df 3d
       0.056583956 -0.029556304 0.1252213 0.10899244
0002f0 d0 ae 65 3c 18 ce 8b 3d 49 49 09 3e 80 07 34 bb
       0.014018729 0.06826419 0.13406862 -0.002747029
000300 da 70 bd 3d fc 23 ae bd 38 cc bf 3d ac d1 ca 3d
       0.0925004 -0.08502957 0.093651235 0.09903273
000310 b2 4c aa 3d 34 f8 e1 bc 68 9e 6f 3d 4a 8b 01 bd
       0.0831541 -0.027584173 0.058500677 -0.031626977
