Models/passing_model.pth (torch, 146716 bytes, 9 tensors)

lstm.weight_ih_l0 f4 [200, 25]
00000000: 6c42 84bd 5826 ac3b d9d2 29be a5d1 e0bd
00000010: 6096 2bbe 6e28 79bc 0aa2 91bd 66d9 22bb
00000020: bf0c 84bd 1839 853b 5352 203e fa15 52bd
00000030: 3dd3 413d 6b07 68bd 6679 113d ac00 00be
00000040: d676 9b3a e460 d33d 4e13 12be f9c6 a2bd
00000050: 8cbe adbd 3aaa d7bd 59b1 9f3d b452 11bd
00000060: cac2 a73c ce3c 9dbd 42e7 25bd 1217 52bd
00000070: ecdd 94bd dec9 b1bd 3f6a 6abd 6dd8 833d
00000080: 89bc 8abd 9a55 053e 4cf5 82bd c6e2 67ba
00000090: 1d9a 903b 53d9 0a3d 70c3 97bd 8457 ff3d
000000a0: 88e9 89bd bbd6 a4bd 0371 923d d83e c63d
000000b0: f10f ae3d af5f 0c3e ed56 833d 9485 c0bc
000000c0: c6b3 58bd 49ac aabd 77eb 853d f4f2 8dbc
000000d0: 947e ee3d c644 e7bd 265a 74bd 968e 32bd
000000e0: a5f7 dabd 18fa 33bd 06c9 03be d27f f93a
000000f0: 4331 a4bd abb1 0abd 345b 56bd 9f99 8f3d
00000100: 9786 8f3c 5454 d93c 94c2 c2bd 39ce 84bd
00000110: 7b40 c13d 21bf 10bd 8ee9 8ebd b9aa f5bd
00000120: d9de fd3c 3f0b 12b9 6b3b 953c b22a a7bd
00000130: a8b0 a43d 63c5 c8bd 6621 2dbd d36f 48bd
00000140: 7aae 71bd 87ba 7cbd de04 043d 03ee 29bd
00000150: 1be1 3fbd 3799 4a3d bd49 b33d b052 d2bc
00000160: 7840 c5bc a66b c63c 546b 903c 549b e93d
00000170: 9334 9dbd 67a9 c5bc c943 a7bd d067 39bc
00000180: c896 c73d 61fc 893d ad11 413d 1ea6 d4bb
00000190: 8cef db3d acf8 f33d a2c4 a03d ba9b f7bd
000001a0: def8 a2bd 738d 3fbd e3b5 10bd ab12 bf3c
000001b0: 84c8 dbbd b423 2c3d 35b0 a4bd c69a c6bd
000001c0: e508 23be 68aa bbbd 593b 743d 2900 ac3d
000001d0: e92d c83d ec18 7a3a 9db5 28be 47ae fcbd
000001e0: 2d16 4cbd 774d a2bd 3a4d 8abc 5cfe 97bd
000001f0: e221 e33a e904 0bbd dfbe e53d 4a4a 01be
00000200: 5f58 003e 4cec 89bd 6a94 ce3d 5c28 953d
00000210: 89ff c7bd 1fb3 833d c0c5 fbbc 5fa3 cc3d
00000220: 9359 c1bc 0366 babd f3b2 073d 2eba 03be
00000230: 9aa2 dfbd 8d47 ae3d f555 a83a cb76 9e3c
00000240: abae eabd ff3a ddbd bcfe 38ba 275a ed3d
00000250: b4e0 aebd aea5 9f3d 0c58 693d a1c3 27be
00000260: bc64 b63d 4057 593d 1763 3ebd 681b d7bd
00000270: bb35 b4bd 43c7 2a3d 7807 b5bd 569e b43d
00000280: 9f85 f83d cdc7 783d 5a7f df3d ea5e db3d
00000290: 41b5 cabd 775a b23b 8cfa ba3d 6c14 983d
000002a0: 01a9 0bbe 2dda 28bc 807d 15be 8f16 bb3d
000002b0: b082 ce3d 8d02 b4bd ca9b 643a 4dc0 c5bd
000002c0: f21b f9bd a18a 7f3d e3a1 0bbe 0d69 463d
000002d0: 6923 c0bc b753 0a3d 6e38 143c 6f2f ecbd
000002e0: 7c62 11bd 2d4a 2b3e 631f e8bd 88cd 16be
000002f0: 0bec 60bd eb99 643d ea2c 0dbe 06c1 083e
00000300: 4907 1cbe 782d 14be 3d5f 413d ff95 aa3c
00000310: 8de9 84bd c228 0cbd c82e e3bc 1f03 05be
00000320: 89cb 1bbd bec6 213d d031 e9bd b704 d13d
00000330: ca28 c7bd 6cf5 6bbd 66ed d73c 542c 0abd
00000340: 0dd2 87bd 1166 0a3e 4480 d1bc 806e 9fbd
00000350: d6f2 0b3d 343a 6fbd 65db d23d bfb2 d8bd
00000360: 4c2e d43c 684c 11be 2b7b babd 820d 193d
00000370: 5f98 15bd 9e51 0c3d 4f4d e13c 2165 a0bd
00000380: 4553 0ebd 870e 8c3d 2fde d13c 1bfb a13b
00000390: 8ec6 c43d f8ed 413d da51 d0bd 99df 0fbe
000003a0: ca16 513d d15c 1a3e 1faf 16be a952 b63c
000003b0: a21f fcbd af74 5c3c a7ed 6ebd 1973 32bd
000003c0: 3b67 7e3c d56d a6bc 4a91 91bd 6bd2 91bb
000003d0: 04c9 79bd 4542 8dbd aa06 35bd 7285 18be
000003e0: dc34 f93d f822 a7bc c196 db3d 0eb2 0a3d
000003f0: b870 8dbb 1368 febd ec64 07bd 8e32 443d
-0.064579815 0.0052535944 -0.16584338 -0.109774865 -0.16756582 -0.015207393 -0.071109846 -0.0024848818
-0.064477436 0.004065644 0.15656404 -0.05129049 0.047320593 -0.0566477 0.035516165 -0.12500256
0.0011860977 0.10321215 -0.14265177 -0.07948107 -0.084836096 -0.10530515 0.07797498 -0.035479262
0.020478625 -0.07677613 -0.040503748 -0.051291533 -0.07268891 -0.08681081 -0.05723023 0.06437764
-0.067742415 0.13020936 -0.06394443 -0.00088457426 0.004412903 0.033898663 -0.074103236 0.12467864
-0.06733996 -0.08048769 0.071504615 0.09679955 0.08499134 0.13708375 0.06413064 -0.023501195
-0.05290582 -0.08333642 0.06539052 -0.017327763 0.116452366 -0.11292414 -0.059656285 -0.04359301
-0.10691766 -0.04393968 -0.12869653 0.0019035286 -0.080172084 -0.033860844 -0.05233307 0.07011723
0.017520232 0.026529469 -0.09509769 -0.06484646 0.09436127 -0.035338525 -0.06978141 -0.119954534
0.030990051 -0.00013927835 0.01821681 -0.0816244 0.08041507 -0.098032735 -0.04226818 -0.04893477
-0.059004284 -0.061701324 0.032231204 -0.04148675 -0.046845537 0.049462523 0.08754299 -0.025674194
-0.024078593 0.024221253 0.017629303 0.114065796 -0.07676043 -0.024128629 -0.08167226 -0.011316255
0.09745556 0.067375906 0.047135998 -0.0064895293 0.10739049 0.11912665 0.07850005 -0.12090249
-0.07957624 -0.046765756 -0.03532971 0.023324331 -0.10731605 0.042026237 -0.08041421 -0.096974894
-0.15921362 -0.09163362 0.05962691 0.08398468 0.09774382 0.0009540457 -0.1647553 -0.12337928
-0.049825836 -0.079249315 -0.016882528 -0.07421562 0.0017328823 -0.03394023 0.112180464 -0.12625995
0.12533711 -0.06734523 0.100869015 0.072830886 -0.09765536 0.06430649 -0.030733943 0.09992098
-0.023602283 -0.091014884 0.033129644 -0.1286399 -0.10919686 0.08509741 0.0012843 0.019343754
-0.114590965 -0.10802268 -0.00070570013 0.11589461 -0.085389525 0.07795273 0.056968734 -0.1638322
0.08905932 0.053061724 -0.04648122 -0.10503274 -0.08799311 0.041693937 -0.08839315 0.08819263
0.12134861 0.06073742 0.10912962 0.10711463 -0.09897853 0.005442913 0.09129819 0.0742577
-0.13638689 -0.010305923 -0.14598656 0.09135162 0.100835204 -0.08789549 0.0008720724 -0.09655819
-0.12163533 0.062388066 -0.13635974 0.048440028 -0.023454385 0.033771243 0.009046657 -0.11532485
-0.035494313 0.16727515 -0.113341115 -0.14726841 -0.054912608 0.05581085 -0.13786665 0.13354883
-0.15237154 -0.1447047 0.047209967 0.020823477 -0.06489859 -0.034218557 -0.027732268 -0.12989472
-0.038035903 0.039496176 -0.11386454 0.102059774 -0.09724577 -0.0576071 0.026358318 -0.03373368
-0.06631861 0.13515498 -0.025573857 -0.07784748 0.034167133 -0.058405116 0.102957524 -0.10580968
0.025900982 -0.14189303 -0.09105524 0.037366398 -0.036522266 0.034257524 0.027502684 -0.07831789
-0.03474738 0.06838708 0.02561864 0.004943264 0.09608184 0.047346085 -0.10171862 -0.1405014
0.051047124 0.15074469 -0.14715241 0.022256212 -0.12310721 0.013455554 -0.05833211 -0.043566797
0.015527542 -0.020316044 -0.0710779 -0.0044501326 -0.06098272 -0.068974055 -0.04419581 -0.14894655
0.12168285 -0.020402417 0.107221134 0.033861212 -0.0043164156 -0.12422194 -0.03305523 0.047899775

lstm.weight_hh_l0 f4 [200, 50]
00000000: aea6 553d 9e41 403d dffe 12bd 36c2 293e
00000010: bb1f 23be 780c 673c 6890 10bd 8daa a13d
00000020: 9169 b63d 4dba 41bd 4efd 0c3e 4d84 bc3d
00000030: d6a8 c2bd 1078 0e3e 76e4 633d 5c10 fabc
00000040: 2e3c ff3d 2fd8 4b3c 152d a1bd ff73 9abd
00000050: 47b9 ebbd 28fe a43c 9f72 28be c413 f4bd
00000060: f684 e33c 2b16 15bd bb1f bb3c dacc 14bd
00000070: 61cf b53d 3654 8f3d cc12 3bbd 69dc 02bd
00000080: 8e39 4f3c 2c0a 1bbd 70b8 88bd a55c 19be
00000090: 71f1 563d 894c efbd a9e1 0cbe ddc3 773c
000000a0: 9674 233e 6a00 bc3d c08a 373d ac74 1f3d
000000b0: 9b78 df3d 4368 d33d a110 a7bd 6ecf d93d
000000c0: 00f4 d4bd b0ab b6bd d112 2bbd 4d25 c8bd
000000d0: c7ec 673d edac ff3d 9b9c 023d 3abd 133e
000000e0: 5aa5 f4b9 6e92 8e3b 08b8 d5bc f267 a23d
000000f0: d234 47bd b884 edbd 8350 1c3d 39bd 9dbd
00000100: 42ca 94bd c755 3fbd 416e 003e 787d 363d
00000110: 761c f7bd f884 4ebd d3b0 793b 7fd1 8c3b
00000120: fc1b 09be 02a3 c03d d74c 6c3c aafb bc3d
00000130: 7fd9 d5bb ce52 b43c 4ee6 a03c c7a4 ed3d
00000140: c9e0 113d b09c e1bd ab2b e9bd dcf5 46bd
00000150: 91bd 7a3d b08d 50bd 83c6 07be 4cc4 7f3d
00000160: 7ec1 f43d 6ef7 bbbd 9047 39bd 21b4 d8bc
00000170: 2e34 143e 4fe0 d6bd b68d febb 8f1f d7bd
00000180: 8d99 7f3d b4b0 043d b708 1ebd 190b 383b
00000190: 61fc 9cbd 6f41 c63d 8cc5 14be 6c00 19bd
000001a0: d899 8dbd 1a23 d13d 8d4e 9dbd 19af 013d
000001b0: 9ceb 9dbd 48e9 103e 5dec 8dbb 2a5b 0cbe
000001c0: 40ae 8b3c ec76 2f3d c22a eb3d 7eb1 0e3e
000001d0: 4278 b5bc c8ab e5bd d4d4 9dbb cfdd 9d3d
000001e0: c414 adbd 349a 8abd 1d6b bfbd 7121 cfbc
000001f0: a526 8e3d df43 583c 556e 313d 4194 82bd
00000200: e777 2cbd 9967 c23d 257f f2bd 8498 69bb
00000210: 760f f93d 5797 9d3d 12b1 0ebd a02d 0cbe
00000220: 81c5 a1bc 297f 793d 0159 35bc eb72 81bc
00000230: 1971 b43d 3ab2 c23d e326 803d b35e 343d
00000240: 2291 3dbd e51e 643d 1ae0 5abd f137 143d
00000250: ee60 563d 2c00 193e 45b2 943d 0733 01be
00000260: 48f8 73bd b661 67bd bdbc acbd 6a2f 7c3c
00000270: 1906 c83c 2f66 933d 6d0d 12be 821e ad3c
00000280: 0083 b4bd 5980 72bd 1d46 3d3d 0a41 d83d
00000290: 89c4 3f3d 5408 ea3d 5a1b f83d 37fd f9bc
000002a0: f2c3 ed3d dcf3 7bbd 8fcc 693d 86a7 88bc
000002b0: 2885 ecbd c26e 763d bce7 99bc 2774 3abc
000002c0: 8853 243d a94e 12bd 55cb f33c 9799 1c3d
000002d0: 7a79 e2bd 8c95 01be cb20 e5bd 0283 4b3c
000002e0: 8fde babc 4579 653d f333 123e 6006 84bd
000002f0: d168 73bd d4b0 64bd e9b4 28bc d3fb 413d
00000300: 56f3 03bd cc5e 0b3d 8153 243e 5f94 29bd
00000310: 9764 b63d ebca b5bd dc87 1a3e 2d2f a8bc
00000320: 4fad 2c3e ef2d ddbd b60e bb3d 4a8a c23d
00000330: 1ed4 c93d f906 38bd 6d13 773b 015a 90bc
00000340: 4c8d b5bd c42b 8d3c 0ee0 bcbd 6bf1 93bd
00000350: 25a1 69bc 163d 163e 82dd 303d c465 dd3d
00000360: 480e d53d 919c 543d cc08 0cbd a468 2cbd
00000370: f467 8fbd c8b7 943c fb95 18be 1b4a 5ebd
00000380: 22aa 95bd 6e63 c7bc e8a3 e4bc ee3c debd
00000390: 5ed9 0ebe a22e 1b3d 3a03 1ebe 7404 22be
000003a0: 4814 b23d 3eb4 493c f300 24bd 76be 54bd
000003b0: 829d 843d a705 1cbe c0bd 03be 7adb a8bd
000003c0: 9c56 86bc 5378 2cbd f838 c63d 6760 df3c
000003d0: 2e75 ab3c a8b7 01be 67cd 59bd f837 5fbc
000003e0: 512e 95bd 8a5b 9e3d 6ecf d73d 8a68 d3bd
000003f0: ecfd 0ebe 4372 16be 8634 6abd e0b6 85bc
0.05216091 0.046937577 -0.035887595 0.16577992 -0.15930073 0.014102094 -0.035293967 0.07893858
0.08906854 -0.04729681 0.13768503 0.09204922 -0.09504859 0.13912988 0.0556378 -0.030525379
0.1246265 0.012441679 -0.07869927 -0.07541656 -0.11509948 0.020140722 -0.16449974 -0.119178325
0.027773362 -0.036398094 0.022842279 -0.036328174 0.08877445 0.06998484 -0.045672223 -0.03194848
0.012647999 -0.037851498 -0.06675804 -0.14976747 0.05247635 -0.1168452 -0.13757958 0.015122381
0.15962443 0.091797665 0.044810057 0.038929626 0.109116755 0.10322621 -0.081574686 0.10635267
-0.10398102 -0.089194655 -0.04176599 -0.097727396 0.056622293 0.12484155 0.031887632 0.14427653
-0.00046662503 0.004350952 -0.02608873 0.07929982 -0.048634358 -0.1159758 0.03816272 -0.07702107
-0.0726514 -0.046712663 0.12542059 0.04455325 -0.12065975 -0.050419778 0.003809978 0.004297435
-0.13389581 0.09406091 0.014422617 0.092276886 -0.0065261717 0.02201214 0.019641068 0.116036944
0.035614762 -0.11016214 -0.11385282 -0.048574314 0.06121594 -0.050916374 -0.1325932 0.062443063
0.11950968 -0.09178053 -0.045234263 -0.02645308 0.1447303 -0.10492002 -0.007768358 -0.10504066
0.062402297 0.03239508 -0.03858253 0.0028082787 -0.07665325 0.09680449 -0.14528483 -0.037353918
-0.06914109 0.10211773 -0.07680998 0.031661127 -0.077109545 0.1415149 -0.004331155 -0.13706651
0.017050862 0.042838022 0.11482765 0.13934895 -0.02215207 -0.11214405 -0.004816631 0.07708322
-0.08451226 -0.06767693 -0.09346602 -0.0252845 0.069409646 0.0131997755 0.04331811 -0.063759334
-0.042106535 0.09492416 -0.11840657 -0.0035643885 0.12161152 0.076948814 -0.034836836 -0.1368928
-0.019747498 0.060912285 -0.0110685835 -0.015801867 0.08810634 0.0950665 0.06257417 0.044035625
-0.046280988 0.055693526 -0.053436376 0.036186162 0.052338533 0.14941472 0.07260565 -0.12617122
-0.05956295 -0.05648967 -0.084344365 0.015392164 0.02441697 0.07197224 -0.14262934 0.021132711
-0.08814049 -0.059204433 0.046209443 0.1055928 0.04681829 0.1142737 0.12114592 -0.03051625
0.11609639 -0.06151186 0.057079848 -0.016681444 -0.11548835 0.06016422 -0.018787257 -0.011380232
0.040118724 -0.035719547 0.029760042 0.038232412 -0.11058326 -0.12654704 -0.111878954 0.012421371
-0.022811202 0.056023855 0.1427763 -0.064465284 -0.059426133 -0.0558327 -0.010297039 0.0473593
-0.032214485 0.034025952 0.16047479 -0.041401263 0.08905905 -0.08876594 0.15090889 -0.020530308
0.16862987 -0.10799777 0.09133665 0.09499033 0.09854911 -0.044928525 0.0037700788 -0.017621042
-0.08864841 0.017232783 -0.092224225 -0.07223781 -0.014259611 0.1467174 0.043179996 0.10810426
0.104031146 0.051907126 -0.034188077 -0.04209198 -0.07002249 0.01815404 -0.14900963 -0.05426989
-0.07307841 -0.024339404 -0.027910188 -0.10851465 -0.13950107 0.03788627 -0.15430918 -0.15822011
0.086952746 0.0123110395 -0.040039968 -0.05193945 0.06475355 -0.15236531 -0.12865353 -0.08244987
-0.01639872 -0.042106938 0.09678835 0.027267648 0.020929899 -0.12667716 -0.053174403 -0.013624184
-0.07284225 0.077323034 0.10537611 -0.103226736 -0.13964051 -0.14692025 -0.057178997 -0.016322553

lstm.bias_ih_l0 f4 [200]
00000000: e513 013d 629e 86bd efcd 293d f8c0 e63d
00000010: f4cd 98bd 8362 833c 9130 283e a4b6 9f3b
00000020: f4ce 1e3e d562 ca3d 64e7 83bd 9471 903d
00000030: 71c9 613d 4052 9cbc e04d 473d 0de8 913d
00000040: bc37 04bd 909c 23bd adb9 f1bd b415 0c3e
00000050: a41a 3b3d c1d6 893d 89ea 2c3e ef45 98bc
00000060: a72b 623c 2689 d43c 95e6 c13d f091 893d
00000070: 1671 c4bd 98ae 03bd c4dc d63d 246b 4d3c
00000080: e7cc 3b3d 3c6b b13d 457c e43d 42a0 f23d
00000090: 686f f63d 5855 7e3d f2a0 13bd 3b71 da3d
000000a0: 0fed 2c3e 8289 d93d 64cf 1ebd e23f 40bd
000000b0: d756 f2bd ce79 0dbe 33d3 7abd a891 133e
000000c0: 3f26 da3d 6332 a73d 7eb1 53bd 6e26 a2bd
000000d0: 87c1 68bd b62a e6bd 3835 35bd 6ea5 e43c
000000e0: 112b b9bd 867e 7fbd 2f6b 0e3e 3ae5 c33d
000000f0: 9a6a 0dbd 7fd8 39bc b37e 7dbd 1ee6 073e
00000100: 3337 113e f824 debc 73f7 0fbe e301 bb3d
00000110: fd21 423d 0e1f 963d 9794 15bd 71a3 f3bd
00000120: 8606 363d af82 163e 1dc6 eabd 8e39 01be
00000130: 61e3 283e 6aa5 223e 95f5 c13d f996 143c
00000140: d460 983d 0d6a 7f3d a50e 3cbd 1c67 9fbd
00000150: c5dd c0bd e6dc 223d cdda 20bd a4cc d33d
00000160: 2bce 973d 3159 f73d 0b1f e3bd 3c93 01be
00000170: c63e e23d d3b5 05be de46 223d e90a dcbc
00000180: 466d 7d3c 3263 3fbc 2c64 99bd 196b 5cbd
00000190: b69f 183e 4e73 66bd bd5e 053d 3e53 d93d
000001a0: d008 6ebc b955 75bd 6c21 c13d a344 2ebd
000001b0: e1af e3bd ff10 1f3d 6e71 13bb 43a3 e6bb
000001c0: 6262 ee3d 000f 24bd 1395 f73b 98fc e83b
000001d0: 9152 e1bc a6cc ad3d 3936 a93d 1591 95bd
000001e0: d982 df3d bc6e 04be ca80 9fbd 1519 de3d
000001f0: 18f6 52bd 3e48 adbd 0df6 11be abf0 50bd
00000200: 5817 d5bd b208 b0bc b1af ae3d 48e0 a03d
00000210: bb44 ef3c 6cc6 ee3c d3ef 593c 5bb7 a0bd
00000220: e689 7b3c 2f44 0fbe 3c75 2abd 67ae 983c
00000230: e3c8 9b3d 9ed9 81bc 375d cabd 014f a4bc
00000240: 6851 f83d 1819 8e3d a230 f13d e32d d4bc
00000250: 1b3b 043e 31c9 253e 3224 4a3d b8ab e1bb
00000260: 8b27 a13d 99bb 66bd fb94 a43d e969 c23d
00000270: 3273 3cbd 7c88 61bd 9c7d cb3d 4aea 783c
00000280: 0d5b ad3d b42e 2b3c f342 97bd fc10 1a3c
00000290: aa45 ce3c 1292 b03d 32c6 a43c e696 9c3d
000002a0: 2a69 a83d ee3b cc3c eb14 7cbd cb96 e7bd
000002b0: 176d c6bd c20c d3bd 3249 96bd b235 023e
000002c0: 90b7 10bc 6946 e3bc 86ca fd3d 601a e2bd
000002d0: ff77 9c3d 4083 0dbd caa4 483d 6baa b83b
000002e0: 60eb e0bd 440d cfbd 2f8a fc3d d058 293e
000002f0: 30ac 13bd 28be 1bbd eb35 8d3c 2ca4 7d3d
00000300: c5eb eabb dcac 59bd ed58 eebd 2d13 e53c
00000310: ed5e b83d 2d4c 89bd 5279 b33c 8be4 193e
0.031513114 -0.06573178 0.04145616 0.112672746 -0.074611574 0.016038185 0.16424777 0.0048740674
0.15508634 0.09882132 -0.06440619 0.07052913 0.05512375 -0.019082189 0.04865825 0.07124338
-0.032279715 -0.03994423 -0.11802993 0.13680154 0.045679703 0.06730414 0.16886343 -0.018588034
0.013804353 0.025944304 0.09467808 0.067172885 -0.09591882 -0.032148927 0.104913265 0.012537751
0.045849707 0.086630315 0.11156515 0.11846973 0.12032968 0.06209311 -0.03604216 0.10666128
0.16887306 0.10621931 -0.038772 -0.046935923 -0.1183297 -0.13815996 -0.06123657 0.14411032
0.10651826 0.081639074 -0.05168294 -0.07917486 -0.056825187 -0.11238615 -0.044240206 0.027910914
-0.090414174 -0.06237652 0.13908075 0.09565206 -0.03452549 -0.011343121 -0.061888408 0.13271376
0.14181213 -0.027117237 -0.14059238 0.09131219 0.047395695 0.07330142 -0.03651866 -0.11896408
0.044439815 0.1469829 -0.11463568 -0.12619612 0.16492988 0.15883413 0.09470669 0.009069198
0.074403435 0.062356997 -0.045912404 -0.077833384 -0.09417299 0.039761446 -0.039271165 0.103417665
0.0741237 0.12077559 -0.11089905 -0.12653822 0.11047129 -0.13057642 0.039618365 -0.026860671
0.015467947 -0.011681365 -0.074898094 -0.053813074 0.14904675 -0.056262307 0.032561053 0.1061158
-0.014528468 -0.059896205 0.09430203 -0.042545926 -0.111175306 0.038834568 -0.002249803 -0.0070385053
0.11639859 -0.040053368 0.007555613 0.0071101896 -0.027505191 0.08486299 0.08262295 -0.07303063
0.10913629 -0.12932867 -0.077882364 0.10844628 -0.051504225 -0.08461045 -0.14254017 -0.05101077
-0.10404843 -0.021488521 0.08529604 0.07855278 0.029207578 0.02914735 0.013301807 -0.07847472
0.015352702 -0.13990854 -0.04161571 0.018637849 0.076066755 -0.015850838 -0.098810606 -0.020057203
0.12124902 0.0693838 0.11776854 -0.025900787 0.12913172 0.1619003 0.049350925 -0.0068869255
0.0786887 -0.05633125 0.08036228 0.09492857 -0.046008296 -0.055061802 0.099360675 0.015192578
0.08464632 0.010448147 -0.073858164 0.009403463 0.025179703 0.08621611 0.020114038 0.07645969
0.082231835 0.02493092 -0.061543386 -0.11308058 -0.09688776 -0.10305168 -0.0733818 0.12715796
-0.008832827 -0.027743535 0.12392144 -0.11040187 0.07640075 -0.034548998 0.04898528 0.00563555
-0.10982394 -0.10109952 0.12331044 0.16537786 -0.036052883 -0.038023144 0.017237624 0.061924145
-0.007169219 -0.053143367 -0.11638055 0.027963245 0.09002481 -0.067039825 0.021908436 0.15028588

lstm.bias_hh_l0 f4 [200]
00000000: 5110 f33d d25d 0c3c 82b7 5cb9 9d9b 20bd
00000010: 31da 0b3d d18e 9b3c c6c4 5abd de64 0f3e
00000020: d104 193e 11a8 003d f7a5 c63d 7e47 e23b
00000030: 129c 9d3d dae9 163e 425a d63c 5a27 893b
00000040: 349f 033d 289d 2c3d c50a 1d3e 5ae3 a1bc
00000050: 63f4 4d3c 4a58 bf3d 9974 103e 60fa d1bd
00000060: 5cc5 b83d 1b75 1a3e ecec 9bbc c096 9fbd
00000070: d23f ae3d ee67 433d ea90 c43d c62d 003e
00000080: 65be 3b3c 17d3 563d 7108 c1bd 9a8c c03d
00000090: de2d dbbd 6033 e33d 5b93 873c eb5c 5bbd
000000a0: 4d33 e03d 4dd7 563d 6a00 063e 67ae 0d3e
000000b0: 39e9 d33d 8d3d d63c e101 e1bd d2c2 0a3d
000000c0: e880 053e 6435 babd 3034 f73d 7e0e 14be
000000d0: e76b 113d 084a dc3d a4d0 933d 0dad 543d
000000e0: 6105 a5bd 37df a3bd 06f0 143e 3393 183d
000000f0: ce1f 0c3d 04d2 94bd fa41 e53c 9511 02be
00000100: 3493 b3bd 7e2a 583c 9e6d f03b 2d1a f03c
00000110: 2686 9abd 6b7a f8bc f45a bf3c 2c70 813d
00000120: 2240 223d f378 9d3d 372f a2bd b11b 04be
00000130: f64b 4f3d 1bc3 87bd d72a a03d 1bd7 07be
00000140: 04cd f33d aba1 953d e889 0fbc dead c43d
00000150: 1755 cfbd afa1 d83b 0bd8 3abd 9e9d d0bd
00000160: 5306 bf3c 1109 e13d 2384 c7bd 0b19 e7bb
00000170: 8b6f 033e f6b1 debd 3ed5 5b3d 9f25 c53c
00000180: 49c3 87bc d07a 65bd bd13 47bd 1ecd 943d
00000190: c8a2 173e 8603 05bd 73bd 573d 5a70 59bc
000001a0: 03a4 f9bd ca02 f8bd 6e21 f1bd 46b9 f3bc
000001b0: f5de 8f3d ac02 d2bd 85dc b3bd 2e6c aebd
000001c0: 5781 dabc a110 0b3e 73a8 063e e325 4c3d
000001d0: ee96 3c3d 9ecc c8bc ffaf 9abd 99fb e6bd
000001e0: 09b2 67bd 21cc c5bc 5ec7 3e3d dbd0 a63d
000001f0: a135 04be cf24 68bb 803a 903a d7ed 693d
00000200: ff9b f13d 1a8a 683d deb7 9fbb be7c eebd
00000210: 76d0 16be 93b0 ecbd 1b03 de3d 0342 eabd
00000220: 994c 02be 7170 9ebd d46b dabd 8a1b a1bd
00000230: 8508 50bc eb7b d83d 6305 153e 5914 bdbd
00000240: 5032 0a3d 9275 bd3c 1fd2 0b3d 35a1 9ebd
00000250: 4fe7 033d 1776 243e 533c 0c3e 6e8d 23bd
00000260: 8c0e 1fbe 64d6 ccbd bf1c 163e 177c 163e
00000270: f54a f53d ec70 743d 0847 8cbd 247f b63d
00000280: 19d9 0e3d 88ca 683b 6d0c 33bd 60e3 023e
00000290: 89ff c33d 0b0c af3c 9fdb 153e 5453 2d3d
000002a0: 3f4e 96bd bea5 f83d fd79 9ebc c32c 553d
000002b0: 91c6 aabd adc7 77bd f57e 093e 6d9f ed3d
000002c0: 75ad 243e 3454 923d 026c 35bd b7a6 89bd
000002d0: 4452 a83b ab7e ac3c aa3f 88bc 0d76 48bd
000002e0: 164e 59bd 1495 fe3c 2823 083d d2dc 0c3e
000002f0: 7f89 e13d d1bf 93bb cb78 953d f117 84bd
00000300: 1051 d9bd bf51 31bd 6e75 44bd 5297 3d3d
00000310: 6a7e 1b3e ff79 8bbd 3d7b a5bd d92c 8f3d
0.118683465 0.00856729 -0.00021049197 -0.039210904 0.03414363 0.018988999 -0.053410314 0.14003322
0.14943244 0.03141028 0.09699624 0.006905495 0.07695784 0.14737645 0.026166085 0.0041855993
0.03213425 0.042142063 0.1533614 -0.01976173 0.012570473 0.09343012 0.14106978 -0.10252833
0.09022018 0.15083735 -0.019033872 -0.07792425 0.085082665 0.047706537 0.09597953 0.12517461
0.011458968 0.052447405 -0.09425438 0.094018176 -0.10702108 0.110937834 0.016549757 -0.05355541
0.10947285 0.05245142 0.13086095 0.1383606 0.10347218 0.026152397 -0.109866865 0.0338772
0.13037455 -0.09092215 0.12070501 -0.14458653 0.035503294 0.10756308 0.072175294 0.051922847
-0.080576666 -0.08001559 0.14544687 0.037249755 0.03421002 -0.0726662 0.027985562 -0.1270202
-0.08768311 0.013193725 0.007337286 0.029309357 -0.07545118 -0.030331811 0.0233588 0.06320223
0.039611943 0.07689085 -0.07919162 -0.12901188 0.05060955 -0.0662901 0.07820671 -0.1326565
0.11904338 0.07306226 -0.008760907 0.09603475 -0.101236515 0.006611071 -0.04561619 -0.10186313
0.023318445 0.109880574 -0.09742 -0.007052546 0.12835519 -0.10873787 0.05367016 0.02406579
-0.016572611 -0.056025326 -0.04860281 0.072656855 0.1480819 -0.032474063 0.052670907 -0.013271416
-0.12189486 -0.12109907 -0.11773954 -0.029751431 0.070249476 -0.10254416 -0.08782295 -0.085167274
-0.026673002 0.13580562 0.13150196 0.04984082 0.046042375 -0.024511632 -0.075531 -0.11278457
-0.056566272 -0.024145188 0.04657685 0.08145305 -0.12911083 -0.003542233 0.0011003762 0.057111587
0.11797332 0.05677233 -0.0048742136 -0.116448864 -0.14727959 -0.11557116 0.10840436 -0.11438372
-0.12724532 -0.0773629 -0.10665098 -0.07866581 -0.012697344 0.105705105 0.14552836 -0.09232397
0.033739388 0.023127351 0.034135934 -0.077455916 0.032203015 0.16060673 0.13694887 -0.0399298
-0.15532893 -0.10001829 0.14659403 0.14695774 0.119771875 0.059678003 -0.06849486 0.08910969
0.03487501 0.0035521109 -0.043713022 0.12782049 0.09570224 0.021368047 0.1463456 0.042315796
-0.07339143 0.12140988 -0.019345278 0.05204464 -0.08338655 -0.06049316 0.13427337 0.11602674
0.16081794 0.07144967 -0.044292457 -0.067212515 0.00513676 0.021056494 -0.01663192 -0.048940707
-0.053052984 0.031076945 0.033236653 0.13756111 0.110125534 -0.0045089503 0.0729843 -0.06449879
-0.106111646 -0.04329085 -0.047963552 0.04628689 0.15184942 -0.06810378 -0.080801465 0.06990976

lstm.weight_ih_l1 f4 [200, 50]
00000000: b9a4 b8bd e6be 9d3c b6b7 e93c ba56 c03c
00000010: 3a1b 513d d2f6 573d 2521 7c3d 42cf 85bd
00000020: 015d a13b 76b6 e3bd d93c 7b3d 88bf 97bc
00000030: 1dcd 09be 431e 003e 2a75 fdbd c212 00be
00000040: 00ce 96bd 13a4 b7bc eebe a83c 9083 413d
00000050: 30b6 f03d 4670 a53d f85e 0ebe a1c8 9d3d
00000060: 6071 09be b169 3b3d 33e6 273d c93c 8f3c
00000070: 3219 193e ec62 0dbe 1a14 833c 3202 d53d
00000080: 6022 dfbd 6b05 353d 58ec cdbd 9a35 053e
00000090: f113 c93d c962 cc3d 3595 2c3c 0b99 fcbd
000000a0: 46a8 a6bd 3ec5 dc3c 3624 c73d 1574 89bd
000000b0: afce a53c 5b81 c6bd 6792 343d 2aa0 fdbd
000000c0: 6432 4abd de0e 2bbd ae00 fcbc 7de7 c63d
000000d0: dbc7 c1bd 31e9 273d 9b45 2ebd 4b23 f03d
000000e0: 7736 82bd f31e 58bd 1b57 003e 2c3b e3bd
000000f0: e990 08be 862c 133e 413d 88bd 984a 68bd
00000100: 436a 25bd b641 723d 56b9 2c3d 3a0e 5e3d
00000110: 5952 453d c90d 873d 1b46 b63d e77c 0d3e
00000120: 0a3d 7dbd 611d f3bc 8483 4b3d 5308 9bbd
00000130: 1893 af3d a620 edbd f195 cb3d adc0 e839
00000140: 400f 063e 31c3 b5bd 15fa 0f3e ff68 eb3d
00000150: 396d 0ebd 7cb8 dc3c e8bf 913d 5cef 1e3e
00000160: 569d 91bd 3d5b a3bd 760f bdbd 0db5 003c
00000170: 7056 cdbc 454d 013d ad35 b6bd 492e 833d
00000180: 3db3 543d f6e9 123e 6b73 14be 86ed b1bd
00000190: 7eda 0a3d 0164 01be 58f1 823d cce9 173c
000001a0: 25a0 213d 1faf cbbd 7957 2e3d 42cf 87bd
000001b0: 2de9 42bd caa8 58bd b700 b3bc fb48 28bd
000001c0: fd9a a0bd 939c 98bd 1b3f f83c b088 e8bd
000001d0: 4ff9 313c 0880 ab3d 7095 87bd 24b8 cd3c
000001e0: 3266 7b3d 7d83 dc3d 0fc4 9fbd c25a d93d
000001f0: c482 933d 68a0 6abd b17d c5bd 6a60 833d
00000200: 3f6a bfbd dbd2 883d 0bc0 14be 7e79 d83d
00000210: 402b 97bc 57a3 04be 7ce0 c03d e168 f9bd
00000220: 6a73 14be c1ee 8c3d 18cc 18be 0981 93bd
00000230: 59ee 8c3b 911c 96bd 8818 563d b08a 83bc
00000240: bf7b ba3d 860f 42bd eccf 143e 3728 2fbd
00000250: 0caf 6c3d a3f7 063d fb05 0abc 968f 993d
00000260: d924 b7bd 1318 823d b75d 543d efdd 82bc
00000270: 2e0d e2bd 4a54 783d b208 c83c e516 8abd
00000280: 76cf b0bd c356 1b3d 230e 0bbd 7dbd adbd
00000290: d183 fc3d d522 023e bf63 de3d 8dae 2d3d
000002a0: a6e0 d3bd c293 acbc e634 e4bd b738 e9bd
000002b0: 9646 b83c cf7f c13d 2698 a73d 7335 053e
000002c0: 7d4a b93d 9d7b 11be 6bd3 ce3c 667b 513d
000002d0: 27ec 973b 80c9 aabd 9650 ce3d 2e44 eebc
000002e0: 9ed8 11bc f451 743d 4df3 c0bc a7b6 adbd
000002f0: 4fda 86bd 29bb 513d 986e cf3d 7df2 a03d
00000300: 91cc 67bd c316 ec3c f1a5 f13d 8ddf 8c3d
00000310: 602f 81bd f763 5a3d 7e6c bdbc af9e d13d
00000320: 45e9 ea3b cf27 763d d47c 1e3d f2e6 18bd
00000330: a441 d9bc f8b8 59bd 9bb3 3bbd 29ed 023e
00000340: 332d c6bd c9f4 1cbe 96ec 3a3b 103d 14be
00000350: 3b7f c43d 0bbb acbd cb9d 9c3d 7a0e d4bd
00000360: cde8 0fbe f2c9 26bd fd0a b33d 90df 07be
00000370: 9cf3 98bc 9b44 c0bd 0513 79bd 6bea 903c
00000380: fbc3 fcbc 0ddd 1d3e 235f bd3d 2cd6 4cbc
00000390: 8590 cf3d cf84 283d f0b3 49bd 78e8 49bd
000003a0: da4a fd3d bcad 6dbb 688a 053d a450 ca3d
000003b0: f5e1 c43d 1961 a73c c176 eebd 5e45 febd
000003c0: d116 e63b c20b f53d c402 df3d e12f 4b3d
000003d0: c438 893d 208e a7bd 603c e7bd e9bb b03c
000003e0: 3ad0 97bc 153a d93d df70 0ebe 9a9d 593d
000003f0: 8a5f 81bd 30c8 20be c0d7 b3bd 67a8 893d
-0.09015793 0.019256067 0.028529983 0.023478854 0.051051356 0.05272562 0.061555047 -0.06533672
0.004924417 -0.11118786 0.061337326 -0.018523946 -0.13457151 0.12511544 -0.12375863 -0.12507156
-0.0736351 -0.022417104 0.020598855 0.04724461 0.117534995 0.08078055 -0.13903415 0.077042826
-0.13422155 0.045755092 0.04099102 0.01748504 0.14951017 -0.13807267 0.016000796 0.10400809
-0.108952284 0.04419462 -0.100548446 0.13008729 0.09818257 0.09979779 0.010533621 -0.12333878
-0.08137564 0.026949521 0.097237036 -0.06711594 0.020240156 -0.09692641 0.044084933 -0.123840645
-0.049364462 -0.041762225 -0.030762043 0.09712122 -0.094619475 0.040993873 -0.04254685 0.117254816
-0.063580446 -0.05276389 0.12533228 -0.110952705 -0.13336529 0.14372453 -0.06652308 -0.056711763
-0.040384542 0.059144698 0.042168938 0.054212786 0.048174236 0.06594426 0.0890009 0.13817178
-0.06182579 -0.029677095 0.04968597 -0.07569947 0.08572978 -0.11578493 0.099407084 0.00044394043
0.13091755 -0.088751204 0.14060242 0.11494636 -0.03477213 0.026943438 0.07116681 0.15520996
-0.071100876 -0.07976387 -0.092314646 0.007855666 -0.02506563 0.03156783 -0.088969566 0.064053126
0.051928747 0.14347062 -0.14497153 -0.08687882 0.033899777 -0.12635805 0.06393689 0.00927205
0.039459366 -0.09945511 0.04256389 -0.06631328 -0.047585655 -0.052895345 -0.021850927 -0.041085225
-0.07842062 -0.07451739 0.030303529 -0.11354196 0.010862662 0.083740294 -0.066203 0.02511222
0.061376758 0.10767267 -0.07801067 0.10613014 0.07202676 -0.05728188 -0.09643114 0.06414874
-0.09346437 0.066808425 -0.14526384 0.10570048 -0.01845324 -0.12952934 0.09417817 -0.12178207
-0.14497152 0.06881476 -0.14921606 -0.07202346 0.004300874 -0.07329667 0.05226949 -0.016057342
0.09105634 -0.047378086 0.14532441 -0.04276296 0.057784125 0.03295101 -0.008424277 0.0749809
-0.08942575 0.06352248 0.051847186 -0.015974967 -0.1103767 0.06062726 0.024418209 -0.06742648
-0.0863332 0.03792454 -0.03394903 -0.08483408 0.123298295 0.127086 0.10858869 0.042402793
-0.10345583 -0.02106655 -0.11142902 -0.113877706 0.022494595 0.09448206 0.08183317 0.1300867
0.09047411 -0.14207311 0.025247296 0.051143073 0.004636306 -0.08339214 0.10073964 -0.029085245
-0.008901743 0.05964847 -0.023553515 -0.08482104 -0.06584608 0.05120388 0.10128516 0.07858751
-0.056591574 0.028819447 0.11799229 0.068785764 -0.06307864 0.05331799 -0.023123022 0.102353446
0.007168921 0.06009656 0.038693264 -0.03732962 -0.026520558 -0.053154916 -0.045825582 0.12785782
-0.0967659 -0.15327753 0.0028522364 -0.14476418 0.0959458 -0.08434113 0.07647284 -0.10354324
-0.1405365 -0.040719934 0.0874233 -0.13268876 -0.01867085 -0.093880855 -0.060809154 0.017689904
-0.03085517 0.15416355 0.092466615 -0.012502234 0.10134987 0.04114228 -0.049243867 -0.049293965
0.123677924 -0.0036266884 0.032602698 0.09878662 0.096134104 0.020432042 -0.11643744 -0.124155745
0.007021763 0.11965133 0.108891994 0.049606208 0.0670028 -0.08181405 -0.112908125 0.021573978
-0.018531907 0.106067814 -0.13910244 0.053128816 -0.06317051 -0.15701365 -0.087813854 0.06721573

lstm.weight_hh_l1 f4 [200, 50]
00000000: 41e9 a93c 21e8 9dbc 605b 513c cc4e 803d
00000010: bed7 bdbd 90fb 0d3e 9b65 963d d91c 70bc
00000020: 9673 5bbd 0e12 513d 935a a2bc 2252 0abd
00000030: e4ac 95bc acbf eabd 413b d9bd 5ce8 f6bd
00000040: 7415 c23d 608e f1bb 5e14 1abd e351 1abe
00000050: 0f1d 293d 9bad 8e3b ec32 253d a267 aebc
00000060: 3791 f1bd 7bf6 cd3d f2c4 f8bd b39f acbd
00000070: 3802 a13d b89b 66bd 744c d03d f6bf 4fbd
00000080: 604e 9f3b 6ea4 43bd d86b c93d 6eb5 c6bd
00000090: 4cf1 a2bd 408d 523d 0562 ce3d 40e8 debd
000000a0: ab0a 153d 203a d13d dab1 3d3d 2c20 a63d
000000b0: 7bf0 6b3d 17cc 713d fb62 103e a11d 173d
000000c0: a4b3 093e fbae 0ebe cd69 0bbd 429c f3bd
000000d0: 90a7 79bd 95ec 0c3e 5579 773d 3f2f b83d
000000e0: 29d1 a33d 0793 6e3d 0630 a9bd 144d 343d
000000f0: af3b df3d 5c1d 343c b29f d5bd 5741 e73d
00000100: c6f6 b9bd 3878 a53d f485 a8bc 490f fabc
00000110: b1b6 c6bd 5f49 b5bd aae6 9cbd 2121 e9bd
00000120: 8f50 223d 496e be3d bb89 9a3d 88e9 f43d
00000130: 532a 0c3d fad5 0dbe 465e 94bb 2582 dcbd
00000140: 76fe 873d 23a5 0d3e e42b 133e 52bc 493c
00000150: 7fe1 15bd 30ca 183e aedf 123e de86 873d
00000160: 4df5 153e 7c56 d6bd ec80 733a 1732 de3d
00000170: 3a6b f83d f47a f8bd 04d8 403c dbf7 b6bd
00000180: 8a00 0bbe 65cd f8bd c5cd 0fbe 875b ae3c
00000190: 177e 973d d0fb 3b3d 54e2 5c3d ed94 713c
000001a0: ef1d 5abd 6434 c9bd 659a 1dbe 98ea 5abd
000001b0: a143 833d 266a 74bd 499f 413d f7c1 c4bc
000001c0: 6301 ca3d 6514 813d 2baf 24bd bc0c b03d
000001d0: 6738 093e abb9 a2bd ce4c 033e ab25 05be
000001e0: b379 053d 7c2c 7f3c 3a77 5e3d 4696 5fbd
000001f0: bd8b fcba 0cec 153d d5d5 903d eca4 f53d
00000200: c0fe fabd 8249 cbbd 7ac9 c43d 9b90 19be
00000210: 9f8f 6ebd edd7 eebd 1de0 4c3c 559c fc3a
00000220: f657 c0bd 83ae f7bd 86bd fc3d d60f 013e
00000230: 9027 02bd fb2b 08bd 1579 aabd 4c37 813d
00000240: ebc0 bb3d 6758 4dbd c13c fdbd 6f06 c53c
00000250: 522b af3d 1663 41ba fa32 903d ca2a 8f3d
00000260: 5a48 94bd 7361 68bd d4e0 dbbd b2cd 79bd
00000270: ddfc 743c b315 96bd 7a16 5dbd 13dd 3fbd
00000280: 37c4 6f3d b28d 053c 056c bfbd fab5 30bd
00000290: 5c49 91bc c029 96bd 5558 d7bc f48e 043e
000002a0: ea0e 9bbd d62a b9bd 5370 95bc dce3 b2bd
000002b0: e5cd 903d cfa2 37bd b190 ecbc e9de b0bd
000002c0: 9623 85bd e596 003e c267 f3bd cb37 7bbc
000002d0: ad94 bb3d 3c67 68bd fb9c 923d 2862 7ebd
000002e0: 7e7f f2bd 0856 d93d 125c 023e b2a4 edbd
000002f0: 94ef e0bd 5965 00be 35be 37bc 0144 d3bd
00000300: 2f24 b03d 4c6b d5bd ca68 55bd a7c3 ebba
00000310: 364c 453d 2fa2 f63d 77d3 df3d 4167 583c
00000320: 68c8 843d 5a38 7b3c 5571 623c 2602 9fbd
00000330: 1c84 aa3d 928a e0bd 952f c8bd 1cb7 0bbd
00000340: 7054 f9bd 320a a33c 093c afbd b04d 343d
00000350: db66 3abd 9913 e93d e7c7 c13c 381c cf3d
00000360: 02a8 423d 3829 e1bc b67c 98bd d893 adbd
00000370: e9b4 a83d f6ad fd3d 9747 e23d d0ac 41bc
00000380: a4fe fabc 8e50 9cbd d9a2 c8bc 3a98 df3d
00000390: 8e35 9e3d 8e38 e0ba 53ae 933d eb0a 5bbd
000003a0: 7752 9abd a143 c53b 9309 40bc 5f87 efbd
000003b0: 8a30 92bd ee1b 3f3d ed46 b93d ad9b 033e
000003c0: 2dd3 d2bd 8839 303d fab0 bcbd bd5d 763d
000003d0: bc2f 8c3d 6533 413d 1a27 11bd 602f 453d
000003e0: a920 c13d 73dc 80bd 281d 19be bfa8 2ebd
000003f0: 6597 a13d c00a 9f3d 9e46 0d3e 6def 48bd
0.020741107 -0.019275727 0.012778133 0.06265029 -0.09269665 0.13865495 0.073435985 -0.014655315
-0.05357703 0.05104261 -0.01981858 -0.033769734 -0.018270917 -0.1146234 -0.10607005 -0.12056038
0.09476748 -0.0073717088 -0.03761708 -0.150703 0.041287478 0.0043541915 0.040331766 -0.02128965
-0.11795276 0.10056778 -0.12146939 -0.08428898 0.07861751 -0.05630085 0.10170832 -0.050720178
0.004861638 -0.047764234 0.09835023 -0.09702574 -0.0795618 0.051404238 0.100772895 -0.10884142
0.036387127 0.102161646 0.04631219 0.08111605 0.057602387 0.059032526 0.14100258 0.03689349
0.13447434 -0.13933937 -0.034036446 -0.11895038 -0.060950816 0.13762124 0.060418446 0.089933865
0.079988785 0.058245685 -0.08261113 0.04401882 0.109000556 0.010993328 -0.1043085 0.112917595
-0.090802714 0.080795705 -0.020571686 -0.030524867 -0.09702814 -0.08851885 -0.07661183 -0.11383272
0.039627608 0.09298379 0.07545801 0.11958605 0.03422005 -0.13851157 -0.00452784 -0.107670106
0.066403314 0.13832526 0.14372212 0.0123129655 -0.036592003 0.14920878 0.1434314 0.06617521
0.14644356 -0.10465714 0.0009288925 0.10849398 0.12129827 -0.121328264 0.011770252 -0.089339934
-0.13574424 -0.12148551 -0.14043339 0.021283878 0.073970966 0.045894444 0.05392678 0.014744979
-0.053251203 -0.09824446 -0.15390928 -0.053446382 0.064093836 -0.059671544 0.047271047 -0.02401827
0.09863546 0.06302718 -0.040206116 0.08596179 0.13400422 -0.079455696 0.12822267 -0.1300265
0.032586765 0.015574571 0.054312922 -0.05458667 -0.001926772 0.036602065 0.07072035 0.11994347
-0.12255621 -0.0992613 0.09608741 -0.14996569 -0.058242436 -0.11662278 0.012504605 0.0019272665
-0.09391777 -0.12093832 0.12340836 0.12603697 -0.03177601 -0.033245068 -0.08323876 0.06309375
0.091676556 -0.050133135 -0.123651035 0.02405092 0.085531846 -0.00073771307 0.07040973 0.06990583
-0.072403625 -0.05673356 -0.10736242 -0.060987182 0.014952865 -0.073283575 -0.053976513 -0.046841692
0.058536734 0.008151459 -0.09346775 -0.043142296 -0.017735176 -0.07332182 -0.026287237 0.12945157
-0.07571204 -0.090413734 -0.018242037 -0.08734867 0.07070521 -0.044833 -0.028877588 -0.08636267
-0.06500928 0.12557562 -0.118850246 -0.015333126 0.09159217 -0.056739077 0.07158848 -0.062105328
-0.118407235 0.10612112 0.12730435 -0.11603679 -0.10983196 -0.12538661 -0.0112147825 -0.10315705
0.086006515 -0.10420856 -0.052101888 -0.0017987386 0.048168384 0.12042653 0.109290056 0.013208211
0.06483537 0.0153332595 0.013820966 -0.07764082 0.08325979 -0.1096393 -0.097747006 -0.034110174
-0.12174308 0.019902322 -0.08556373 0.0440194 -0.045508247 0.11380691 0.023654891 0.10112804
0.047523506 -0.027485475 -0.07445662 -0.084754646 0.08237631 0.12386696 0.11048811 -0.011820987
-0.030639 -0.07632552 -0.024491714 0.10917707 0.077250585 -0.0017106698 0.07210984 -0.05347721
-0.0753526 0.006020025 -0.011721033 -0.11695742 -0.07138164 0.046657495 0.09046731 0.12852354
-0.10294185 0.043023616 -0.09213443 0.06014799 0.06845042 0.047168154 -0.03543768 0.048140883
0.094300576 -0.06292047 -0.14952528 -0.042641398 0.07890204 0.07765722 0.1379647 -0.04905646

lstm.bias_ih_l1 f4 [200]
00000000: fe9e c83b e89c a13d 1ac5 113e 4fe1 163e
00000010: d30b a6bd 6bb7 a7bd 548d 6bbc 811a dfbd
00000020: 04c6 31bd 48cc 6bbd cd35 bf3d 8901 85bd
00000030: 855e 47bd 647e babd f671 683d 8f58 9c3d
00000040: 5d7a bdbd 22bd 58bd 10ec ecbc 13ef e6bd
00000050: 826e 57bd 2107 eabc cdce 5ebc cad1 063d
00000060: 6bd4 5dbd 34ae 393d 6bf7 aa3d b538 293e
00000070: dbad e33d da21 93bd 1d51 d4bd 200f a2bd
00000080: 3a17 afbd e066 2e3d 1afa 213c cee7 ef3c
00000090: f844 803d 8001 dbbd e8b3 a9bd 8fc1 3bbd
000000a0: 2c54 90bd 3717 093e b696 cbbc 8315 763d
000000b0: 45df e2bd 67f6 3bbd f080 d6bc 2462 db3c
000000c0: 90d9 0bbd 3f7c 033e beac 183d 73e5 393d
000000d0: d989 f83c 05ae 99bd d174 c63d 7e79 39bd
000000e0: 5b7c cf3d 210e 95bc 8219 79bd a2e0 2a3e
000000f0: db29 94bd 0321 073e ced5 6dbd 3f92 aabd
00000100: 4b72 17bd 0d2b dabd 4d2a 07be de0a 39bd
00000110: 9d79 a8bd e1e1 da3d 1076 ddbd 84f0 a13b
00000120: 0967 753d 7483 b43d e6b5 35bd dec4 97bc
00000130: 4345 c2bd 5108 3c3d bace 673d 8e62 98bd
00000140: 2aef 93bd 5899 f13a 9f3e 21bd 3860 dc3d
00000150: d2df 8b3d 644c 783d 5e79 0a3e fdf7 4c3c
00000160: c9a9 6c3d 21ec c43d 9182 d4bd 245d ad3d
00000170: 6be2 003e 5c22 023e f288 0d3e 1a00 0abe
00000180: 2572 8dbc a5d9 38bd 4f11 a33d 8976 8f3c
00000190: 04de a9bd 88d7 a53d 2f6e 07be 1049 6d3d
000001a0: 908a cf3d 9b60 b2bd 12f9 aebc 5f62 ed3d
000001b0: 303b e1bd bc3d c7bd 8d47 073e 737f c73d
000001c0: 90c0 1ebe aceb 3a3d 9670 f5bd 129c d6bb
000001d0: ed0d ca3b 7484 863d 5a9f 1dbe 5d4f 1b3d
000001e0: 9b0d 0e3d bdef eabc 60ef b43d 1077 83bd
000001f0: 0b8b 0bbe d9f3 0b3e c7b5 b73d 8dba f53d
00000200: 8a1f d63d 9ceb 08bd c5e0 88bc c2fd 0abd
00000210: 91a6 1abe 70ce 423c f300 ff3c ac9d afbd
00000220: 1256 09be 95ed 7c3d 2c5e 98bd 2cd3 08bd
00000230: 5e10 ecbd 71a6 d4bd 44c5 1cbe a19d 0cbe
00000240: 505c 003e f250 7bbd 2a4e 36bd 2ef6 da3b
00000250: 810e a53d 8ccc 88bd ee21 e1bc fa18 03bd
00000260: 3eca 31bd d3a5 663d 9b87 81bd 64a2 01be
00000270: d561 223d 365b de3c 39e7 47bd 1f45 9abc
00000280: a313 ed3c 3d62 58bc 0116 953b 3b06 28bd
00000290: ba46 7b3d 92c9 803c 8b04 ccbd 6420 013e
000002a0: d64c 3b3b b5d0 b9bd 5383 1a3e d9d6 d6bd
000002b0: a0fc 2bbc bc88 e7bd d793 6f3c 7d44 a6bc
000002c0: 7ace bbbc c87b a7bd 7fe6 bebd 6c8d 11bd
000002d0: e938 e5bd acb8 943d 5cca 1f3e f5df 1b3e
000002e0: 78e6 593d 1260 f03b 4335 623d eded b2bc
000002f0: fabb 133d 9b0f 38bd 87c2 09be 8a4a c7bc
00000300: c26d df3d 5784 35bc d2c2 bcbc 6b81 593d
00000310: 8743 a9bd 3f8d ddbd 4199 a13d e13a f33d
0.006122469 0.078912556 0.14235345 0.14734386 -0.08107724 -0.08189281 -0.014376957 -0.10893727
-0.043401733 -0.057567865 0.093364336 -0.064944334 -0.048674125 -0.09106138 0.056749307 0.07634079
-0.092518546 -0.052914746 -0.028921157 -0.112760685 -0.052595623 -0.028567852 -0.01359911 0.032914914
-0.054157656 0.04533215 0.083479725 0.16525538 0.11117145 -0.07184191 -0.10367034 -0.07913041
-0.08549352 0.042578578 0.009886289 0.029285338 0.06263155 -0.106936455 -0.082862675 -0.04583889
-0.070473045 0.13387762 -0.024852138 0.06007911 -0.110777415 -0.045889284 -0.026184529 0.026780196
-0.03414303 0.12840365 0.037274115 0.045384835 0.030339168 -0.07503895 0.0969025 -0.04528188
0.10131141 -0.018195214 -0.06081534 0.16687253 -0.07234546 0.13196187 -0.05806523 -0.083286755
-0.036974233 -0.106527425 -0.1319973 -0.04517638 -0.08226321 0.10687614 -0.10813534 0.004942002
0.059912715 0.08814135 -0.044362925 -0.01852649 -0.09485867 0.04590637 0.056593634 -0.07440673
-0.07223351 0.0018432541 -0.03936636 0.1076054 0.068298 0.060619727 0.1352286 0.012510297
0.057779107 0.096153505 -0.10376466 0.08465031 0.12586372 0.1270842 0.13821772 -0.13476601
-0.017266342 -0.045129437 0.07962286 0.017512577 -0.08294299 0.0809775 -0.13225625 0.057931006
0.101338506 -0.08709832 -0.021359 0.115910284 -0.10997617 -0.09728572 0.13210888 0.09741106
-0.15503144 0.04563491 -0.11984365 -0.0065493667 0.006166211 0.06568232 -0.15392819 0.037917484
0.034680944 -0.02867877 0.0883472 -0.06419194 -0.1362726 0.13667239 0.08970218 0.11998472
0.10455234 -0.03342782 -0.016708741 -0.03393341 -0.15102603 0.011890039 0.031128382 -0.085749954
-0.1341174 0.061750013 -0.07439837 -0.033404514 -0.11526559 -0.10383309 -0.15309626 -0.13732006
0.12535214 -0.061356492 -0.044508137 0.006682179 0.08059407 -0.06679639 -0.027482 -0.03200624
-0.043405764 0.056310486 -0.06324693 -0.12659603 0.03964408 0.027143102 -0.048804495 -0.018831788
0.028940028 -0.013207016 0.004549742 -0.041021567 0.061346747 0.015721116 -0.09961804 0.12610012
0.0028579733 -0.09073011 0.15089159 -0.10490198 -0.010497242 -0.11305377 0.01462265 -0.02029633
-0.022925604 -0.08177906 -0.093213074 -0.03553526 -0.111924954 0.07261786 0.15604538 0.15222152
0.053198308 0.007335671 0.055226576 -0.021841967 0.03606794 -0.044936758 -0.13453113 -0.024327535
0.109096065 -0.011078916 -0.023042116 0.05310194 -0.08264833 -0.10817956 0.07890559 0.11876465

lstm.bias_hh_l1 f4 [200]
00000000: 80c4 c73d ef21 b5bd 5620 cb3d 6f77 18bd
00000010: 2c2a 9c3d 1a3c d13d 07c2 d03d 86dc 06bd
00000020: 088d 7bbd 7211 48bd 038b d23d ba00 0a3e
00000030: dba8 20bd 82b1 513b 0651 643d 9a46 fa3d
00000040: b843 133e 2d54 e53c cb2c e6bd eaac dfbd
00000050: 351a 6b3d 2631 0ebe 6d3f 253e 96d9 023d
00000060: 46eb e13d 8677 223e bd7b d1bd 2b8c a4bc
00000070: a0cf 233d 940d 203d d169 0bbe dea1 cebd
00000080: 2966 323b c79f dd3d db23 613d c199 013e
00000090: 4dda 143e 7a38 d63d d89c d3bd 532e 4e3c
000000a0: 4c4f ecbc 2454 9b3d 5c7a 45bc f0f8 c5bb
000000b0: d3fb 603d 9ccb 1ebe 7c4c b43c c951 d9bc
000000c0: c8f4 283e 62d0 dc3d 2e9a 89bd 7bc2 abbd
000000d0: 20d0 8d3d edd4 bebc bca7 a3bb 3f1f 973d
000000e0: d059 fe3d e892 64ba 000e b33c fcc4 bc3d
000000f0: 546d 033e 9e28 7c3d a1e3 563d c274 373d
00000100: e30b 1ebd 3f89 a43d 50e7 98bd 46c1 23bd
00000110: 4c77 41bb e7eb 99bd 3e24 8dbd bc4e d83d
00000120: 12ed c73d 6276 f23d 2520 e0bd aa7e ee3d
00000130: d7bc d2bd 0b64 823c bb32 b9bd 50c3 cbbd
00000140: 988f ab3c a3b7 a2bc 33ea 133e 8b08 473c
00000150: 95b0 0c3d c89c 293e f30b b93d a4b4 d33c
00000160: 55fc 62bd 394e 1bbe 59e0 20bd 479d 5bbd
00000170: 5522 2d3d 5a04 e4bd 138d a73d 55fe 02be
00000180: 6521 8f3d e692 1fbc 3c92 e8bd 5c8c 353d
00000190: 1e6c 473d 5059 61bd 2e24 023b 8085 a2bd
000001a0: 26a6 afbd 917a 6a3c 8413 973d 2fb7 cebd
000001b0: 7ef5 5abc 59da f7bc 794e c33d 816d c6bd
000001c0: 0811 17be d213 2a3b 80bf b5bd e3e9 253d
000001d0: cfc6 2dbc 0f5d a53d 5d8f cc3d 3ac7 c7bc
000001e0: ced9 3dbc ab73 343d 6316 193e 4ef3 69bd
000001f0: 084b 0e3c ad98 163d 80ce 003d 99c8 d23d
00000200: 6217 013e 11a3 023e 436b e9bc 6545 12be
00000210: 285d ab3b 991c dd3d 5ec3 30bd 7c8a e9bd
00000220: 9744 c3bd 92f1 993d 8e93 28bd 9add f0bd
00000230: 8123 9b3c 3c8b 1abe e084 17be 2934 f7bd
00000240: 980b ee3d 33ca e73c 9c6c 423d 43e6 5bbd
00000250: 29a3 143e 67aa 253d 7af6 2c3b 4520 c33d
00000260: ebef 803d b141 903d ad0c bb3d 8788 90bd
00000270: 21da 813d a5ef 42bc 402e b43d 6316 df3b
00000280: f4ae 80bd c216 4c3d e9dc 243e 5ea1 923d
00000290: 07bf c23d a4c7 6c3c f9a5 64bd c26e b9bd
000002a0: 5c2c b03d 1be0 f2bd f15e e63d 014f abbb
000002b0: cd07 1e3e 28b4 0e3d bca9 1dbd b320 2c3e
000002c0: 7a82 02be b31d 213e aa8e 9e3c e4d4 c43d
000002d0: 19c8 3f3d 99bc ca3d 4afa d63c 8c2c b4bd
000002e0: 81fc 223e 00c5 a33c 5cb1 f13d 76be 1c3c
000002f0: 25a0 013c 298a 1a3d b78c eabd 38b4 dbbd
00000300: fcf3 4abd 48d3 e13d fa5c 6a3d 39d9 83bd
00000310: 1692 3abd 203e 903c 3fa6 17bc 0590 9c3d
0.09754276 -0.08844363 0.09918277 -0.037223276 0.07625231 0.102165416 0.10193258 -0.03292515
-0.061413795 -0.048844762 0.10280421 0.1347684 -0.039223533 0.0031996672 0.055741332 0.122204974
0.14381301 0.02799424 -0.11239012 -0.109216526 0.05739804 -0.13885936 0.16137476 0.031945787
0.11031203 0.15865907 -0.10228679 -0.020086369 0.03999293 0.03907545 -0.13614585 -0.100894675
0.0027221537 0.10821491 0.054965835 0.12656309 0.145364 0.10459991 -0.1033265 0.012584287
-0.028846405 0.07584408 -0.0120530985 -0.0060416386 0.05492766 -0.15507358 0.022009127 -0.026528256
0.16499627 0.10781933 -0.067188606 -0.083867036 0.06924462 -0.02329489 -0.0049943607 0.073790066
0.12419474 -0.00087194005 0.021857262 0.09217259 0.12834674 0.061562173 0.052463178 0.044789083
-0.038585555 0.0803399 -0.07465994 -0.03997924 -0.002952057 -0.07515698 -0.06891678 0.105618924
0.097620144 0.11838986 -0.10943631 0.11645253 -0.102899246 0.015916845 -0.09042879 -0.09949362
0.020942494 -0.019862955 0.14444809 0.012148033 0.03434809 0.16563714 0.09035482 0.025842972
-0.055416424 -0.15166558 -0.039276455 -0.05361679 0.04226907 -0.111336425 0.08181205 -0.12792332
0.069887914 -0.009739613 -0.11356017 0.04432331 0.048687093 -0.055016816 0.001985799 -0.07935619
-0.08576612 0.014311449 0.07376769 -0.10093533 -0.013364194 -0.030255483 0.09536452 -0.09688855
-0.1475259 0.0025951755 -0.08874416 0.040506255 -0.010606482 0.0807439 0.09988282 -0.02438699
-0.011587573 0.044055622 0.14949946 -0.0571168 0.008684881 0.036766697 0.031446934 0.10292167
0.12606576 0.12757517 -0.02849353 -0.14284284 0.005229611 0.1079647 -0.043155067 -0.11403367
-0.09534567 0.07516779 -0.041156344 -0.11761017 0.018937828 -0.15092176 -0.14796782 -0.12070496
0.11623305 0.028294658 0.04746686 -0.05368639 0.14515366 0.04044571 0.0026392029 0.09527639
0.06295761 0.0704378 0.09133277 -0.070572905 0.06340433 -0.011897956 0.08797884 0.0068080886
-0.0628337 0.04982639 0.16099896 0.071596846 0.09509092 0.014451895 -0.055822346 -0.090543285
0.08602211 -0.11859151 0.112485774 -0.005227924 0.15432663 0.03483978 -0.03849195 0.16809349
-0.12745085 0.15733986 0.019355137 0.09610918 0.046821687 0.098992534 0.026242394 -0.08797559
0.15916635 0.019991398 0.11801407 0.009566894 0.007911717 0.037729416 -0.114526205 -0.107277334
-0.049549088 0.11026627 0.057217576 -0.06437916 -0.045549475 0.017607749 -0.009255945 0.07644657

fc.weight f4 [1, 50]
00000000: 4c4d 973c 0c91 fbbb 769a 93bc 93d0 1a3e
00000010: 61d7 bb3c a7f1 cc3d 7985 0dbd 93c3 fc3d
00000020: c660 05bd bc56 c8bd d42e 863d e905 50bd
00000030: fd6c 9cbd d3bd ff3d 6433 d7bd 9c57 633d
00000040: 3d14 e03d 1225 203e 486b 17be 8dac 10be
00000050: 7240 1c3e c4c4 e73d 840f 273e 85c1 e13d
00000060: 7a6d f0bc 2c16 e63d 1259 0f3b ec7e 123e
00000070: 2ac2 d53c cc5d 8a3d 189c 9e3d 66c9 adbd
00000080: a385 07be b13b d13d b444 a13c 3278 eebc
00000090: d3bf 90bd 15ea c5bd 622e 2d3c 060d b43b
000000a0: 9b37 a73c 39fc 02bd 6e2f c9bd 36e4 9abd
000000b0: 8cdb b73d cd8c 873d 58fe 163e 5b14 01be
000000c0: 8711 1b3e 2128 f7bd
0.018469475 -0.007677203 -0.018017989 0.15118627 0.02292985 0.10007029 -0.034551118 0.1234199
-0.032562993 -0.09782168 0.065519005 -0.050786886 -0.07637975 0.12487378 -0.10507849 0.055503473
0.1094136 0.15639141 -0.14787018 -0.14128323 0.15258959 0.11316827 0.16314512 0.11023239
-0.029349077 0.11234698 0.0021873158 0.1430623 0.026093561 0.067561716 0.07744616 -0.08485679
-0.13234572 0.10216463 0.01968608 -0.029110048 -0.070678376 -0.09663788 0.010570141 0.0054947166
0.020412257 -0.03197882 -0.098234996 -0.07563059 0.08977422 0.066186525 0.14745462 -0.12605421
0.15143405 -0.12068201
