Models/receiving_model.pth (torch, 139880 bytes, 9 tensors)

lstm.weight_ih_l0 f4 [200, 16]
00000000: 0bf7 91bd 8a2b da3c c8ee 953c b74f 1bbd
00000010: b1ec 87bc 8840 243e 1643 dcbd 9d29 cdba
00000020: bef5 ed3c 83e4 9dbd ad53 b63d 7fc9 d8bc
00000030: 4a2d d33d 3c15 44bd a3fa be3d ae6c 88bd
00000040: 3ccc 29bb 3956 5b3c c8aa 07bd 9aa2 c1bd
00000050: f096 03be 2221 11bb eb61 f13d 8379 2c3d
00000060: 93cc 14be 69a0 f8bc 13aa cb3d 5fdd d5bd
00000070: 0a6e 34bd fab8 5d3d 1ef1 2dbd b345 e3bd
00000080: 5d55 a7bd a09c 8fbd 65b2 25be edae 33bd
00000090: ea36 893c f7fc 6e3d 8d9e 25be a9cc eabd
000000a0: 97c0 d53d 1efe 6dbc 93a9 91bd 303b 3c3d
000000b0: e129 0f3e 735f d83d 54a1 07be 13b7 c83c
000000c0: c4f5 28bd 6175 08be ae35 1a3e 1875 30bd
000000d0: 994a f3bd 568c 393c 880f 1abd 02ba edbd
000000e0: 8da9 12be fea6 ff39 37fc ed3a 38c7 ce3c
000000f0: 7035 903d ecd9 e93b 9e73 7c3d e0a3 f23c
00000100: a80a fdbd 2824 88bd a5d9 ae3c 9163 9a3d
00000110: ee39 083e 1588 5abd 021c b1bd 7702 b83d
00000120: 79fa 90bc c937 6b3d 395a b53c c81c 173c
00000130: 08d1 d43d c9a2 3abd 4b8e 253e b493 1c3e
00000140: 6256 28bd 15a8 bc3c 7851 bdbd f7d6 29bd
00000150: 0f07 733d 7a31 de3c 74be 8a3d a198 d2bd
00000160: ee7f 42bd 6ebd 18bd 4a5f 2abd 9e14 f33d
00000170: 805b 4c3d 4e58 dd3d dc62 b1bd 0807 c03d
00000180: 2b25 d8bd 4245 c93d f5f1 b93d 1767 b3b9
00000190: 1acd 7abd cf85 ec3d 040a 793d d794 cdbd
000001a0: 68b1 e63d 38fb 8fbd ca91 20bd 26b8 70bd
000001b0: f311 f13d 62b6 e5bc dc8d 103e 9893 49bd
000001c0: 0546 3d39 178e f23d 080f 983d 4c54 d93d
000001d0: e476 bc3d 95ed b93d 198e efbc fdd5 f73d
000001e0: 05dd d83d d21b 253d ed93 043d 7ea9 8a3d
000001f0: b481 073c dbc6 c5bd cb9a 023c 4d64 183d
00000200: ff19 08be 6e51 c3bd 3503 25be 4680 313d
00000210: 5ca5 a4bc 0ce4 ffbc 78fa 01be f695 f03d
00000220: 22a4 1ebe f5a9 0ebe 38e6 05be 5780 383d
00000230: 0464 38bc d7c5 0cbe fe87 8f3d f53c e2bd
00000240: fe92 343b bb0d c13c 76e4 84bd 4449 1f3d
00000250: e59e a13d c7a7 803d 6cee 36bd 92a6 3a3d
00000260: c71d 19bd 415c 20be 896d 73bd 8831 163d
00000270: 3208 7fbd 16fb c13d 2698 be3d d108 11bd
00000280: 0361 b3bd d870 03be 8d3f a4bd 722e c4bc
00000290: ef4e 0dbe bd3b 9d3c c574 07bd 06dd 233d
000002a0: 4672 763d 854a 21bd 85ce b8bd 80f0 6ebc
000002b0: 6c73 cd3d 2ecf f33d 73ed 05be 2698 05bd
000002c0: e600 783c 0877 9a3d 9df4 373d aa53 963d
000002d0: fee3 913d c4bf d43c ce1f a73c 6bfd 08be
000002e0: 460d 1dbe 37fd 2c3d 4ef6 a4ba 336c f1bd
000002f0: 5260 abbd c4d8 febd a281 c43d fd24 c63d
00000300: d397 3a3c 8606 783d 6151 bb3d 0e5a 41bd
00000310: a54e 67bd 81f0 3bbd 8a68 95bd 1fda aebd
00000320: aedc 333d 33da c4bd bcd9 b5bb 1c5c a5bc
00000330: 2ec4 483d 8399 be3d 3436 05be 534c 1f3d
00000340: 5c38 1e3e 9f5b 173e a2c2 d13c 0f5c aabd
00000350: 136b 04be 65be 03bd 76e0 883c e2b6 f3bc
00000360: 290f e73c 8c99 cdbd abb1 abbd 63c3 333d
00000370: 5009 c1bd 111a ce3b 2c4d acbb ebd2 88bc
00000380: 4445 6e3d 1397 94bc 9943 8fbd 6a3b 423d
00000390: 50fb e93d 1794 413c 7b74 ad3d 9c0b 5c3c
000003a0: ab45 96bd 7e1f 083e a0ad f23b 1cef 943d
000003b0: 3f60 f1bd d1b6 6cbd 9579 13be d6c0 1b3e
000003c0: a27d e53c a3fd d4bd 8938 10bd 7e43 d13d
000003d0: 0c18 06bd 300e b3bd 50ba 54bd 5c9c 0d3e
000003e0: 9402 9dbd f7ed 3ebd b7a8 123d 7c41 53bc
000003f0: 6df7 2ebd b814 fa3c e14b b03d 7a5e 45bd
-0.07127198 0.02663209 0.018302336 -0.03791782 -0.016592355 0.16040242 -0.10754983 -0.001565266
0.029047843 -0.07709601 0.08902679 -0.026463268 0.103113726 -0.047871813 0.09325149 -0.06661354
-0.0025909087 0.013387256 -0.033121854 -0.09454842 -0.12850547 -0.0022144993 0.117862545 0.04210807
-0.14531164 -0.030349927 0.099445485 -0.10442614 -0.044050254 0.054131486 -0.042466275 -0.110972784
-0.08170579 -0.07012296 -0.16181333 -0.043867994 0.016749818 0.058346715 -0.16173764 -0.11464817
0.10437124 -0.014525918 -0.07112422 0.045954883 0.1398082 0.105650805 -0.13245136 0.02450136
-0.041250005 -0.13326026 0.1505954 -0.04308042 -0.11879463 0.011324963 -0.037612468 -0.11607744
-0.14322491 0.0004876181 0.0018156831 0.02524148 0.070414424 0.007136574 0.0616337 0.029619157
-0.12355548 -0.06647521 0.021344015 0.07538522 0.13303348 -0.053352434 -0.0864792 0.08984845
-0.01769756 0.057426248 0.022137748 0.009223171 0.10391432 -0.0455654 0.16167562 0.1529072
-0.041098006 0.023029367 -0.092440546 -0.041464772 0.059332903 0.027123202 0.06774607 -0.10283018
-0.047485285 -0.03729003 -0.04159478 0.11869167 0.04989195 0.108078584 -0.08661434 0.09376341
-0.10553964 0.09827663 0.09079353 -0.00034218348 -0.061230756 0.115489595 0.060800567 -0.100381546
0.11264306 -0.07030338 -0.039201535 -0.058769368 0.11771002 -0.028041068 0.14116615 -0.049213022
0.00018050529 0.11843508 0.07424742 0.106117815 0.09202364 0.09078518 -0.029242562 0.12101362
0.10589031 0.040309735 0.032367636 0.06770609 0.00827067 -0.09657069 0.007971476 0.03720503
-0.13291167 -0.09537016 -0.16114505 0.04333522 -0.02009838 -0.03123667 -0.12693202 0.11747353
-0.15492299 -0.13932021 -0.13076103 0.04504427 -0.011254314 -0.13747345 0.0700836 -0.11046783
0.0027553434 0.023566118 -0.06488888 0.03888823 0.07891635 0.06282001 -0.04466097 0.04556901
-0.037381914 -0.15660192 -0.059430633 0.03666833 -0.062263675 0.09471719 0.09306364 -0.0354088
-0.08758738 -0.12836015 -0.08019934 -0.023947928 -0.13799642 0.019193524 -0.033070344 0.040005706
0.060167573 -0.039377708 -0.090237655 -0.014583707 0.100317806 0.11904751 -0.13078861 -0.032615803
0.015136933 0.07542235 0.044911016 0.073401764 0.07123564 0.025970347 0.020400908 -0.13377921
-0.15337095 0.042233672 -0.0012585612 -0.117882155 -0.08367981 -0.124436885 0.09595038 0.09675024
0.011388737 0.060553096 0.09146381 -0.047205023 -0.056471486 -0.04588366 -0.0729533 -0.08537697
0.04391163 -0.09611931 -0.0055496376 -0.020185523 0.049015217 0.09306624 -0.13008958 0.038891148
0.15451187 0.14781044 0.025605503 -0.0831834 -0.1293147 -0.032163996 0.016708594 -0.029750291
0.028205471 -0.10039052 -0.08383497 0.043887507 -0.09425604 0.0062897285 -0.005258223 -0.016702136
0.058171526 -0.018138444 -0.06995315 0.047419943 0.11424887 0.0118150925 0.084694825 0.013430502
-0.07337507 0.13293263 0.0074059516 0.07272169 -0.117859356 -0.057791535 -0.14401849 0.1521028
0.028014008 -0.1039994 -0.035210166 0.10217951 -0.032737777 -0.087429404 -0.051935494 0.13829178
-0.07666507 -0.04661366 0.03580543 -0.012894031 -0.042716432 0.030527458 0.08608223 -0.048185803

lstm.weight_hh_l0 f4 [200, 50]
00000000: af97 babd a67c a23c ec77 b7bd 7359 2bbd
00000010: 4e65 aebd c4f0 01be ea91 eebd ff50 02bb
00000020: 9560 443c 8ec4 a53d 5c15 0d3e aef3 2f3e
00000030: e270 1d3d a2c1 76bd 052d 0abe 0277 febd
00000040: 3e74 323e fd0e 42bd 74e9 12be a887 e63d
00000050: 07a0 533d a3d8 bcbd 94a7 cc3d ad35 0ebd
00000060: e2e7 0a3e 098d 27be 6ecc b8bd 65c7 013e
00000070: fb57 f73d d786 27bd 65b4 e0bd 548c e23d
00000080: 2202 8fbd 68d3 0b3e be00 a0bd 9c4c 19bd
00000090: 1ff8 d9bc 4edc 4a3c 9846 89bd 072a d0bd
000000a0: 85b1 29bd d7f0 003d a473 80bd 1536 70bd
000000b0: 84ec 3e3d d712 d53d fdf0 0e3e adcb 083b
000000c0: 2c71 f7bd be84 e33d c94e 1e3d c574 d3bd
000000d0: 6c90 71bd a075 17bd 261c dc3c 3b52 87bd
000000e0: c4b1 80bd 53ad 84bd cf28 c33d 26fd c2bd
000000f0: 00b8 6b3d 949b 053e 5c8c 7abd df95 afbd
00000100: 28fb debc 8041 a23d 25b1 3a3d 2948 90bb
00000110: cd15 d93d 3cf6 b03c 31e8 5cbd 83e9 25bc
00000120: 4e34 b83d 41e5 86bd cad7 e9bd 92d2 cdbd
00000130: c99c 863d 6f33 953d 251f 463d cc4d 2a3e
00000140: e986 23be dad0 f63d 24eb 5c3d 24e9 6fbd
00000150: 9cc0 febd 1d36 2fbd 9bdf 0bbe 5d6c 863d
00000160: 243c ff3b 2863 813d 58a4 e53d 371a b93b
00000170: 596f 573d 586d 6d3d 4258 b13d a73c 4abc
00000180: 8d4f 58bd 8ec6 3c3d 2a26 01bd 7b82 f0bd
00000190: 46b2 6b3d 941c 733d d9dc 7ebd 22b1 abbd
000001a0: adde f0bc 8713 dabd 5a1d 8fbd eeaf 003e
000001b0: 4c4e 71bd c015 0b3d ddff b3bc 9e52 c6bc
000001c0: 3430 243d 80b3 423c 591e edbd 1325 e4bd
000001d0: 593c dc3d 05e7 7a3d a461 c0bd ce6a 3c3d
000001e0: 0d4d 9bbd 207e 0d3c f409 acbd 081f 8f3d
000001f0: b2f4 f83c 4654 41bd 6854 c5bc a787 64bc
00000200: 730a e23c c588 923d e460 b43c 0478 f9bd
00000210: 4255 c7bd e9ef 8cbd 6415 2abd ab8d b8bd
00000220: 00cd 8a3d ecac 083e 8e29 02be 14dd 6a3d
00000230: 4619 12be 2f5a b6bc e204 d83d cd05 d7bd
00000240: 6fc5 55bd ec07 1cbd 63ca 103d e088 a93d
00000250: 1fda 463d f9f8 eb3b 01b9 d43d b5a1 143e
00000260: ad05 32be a21e 56bd bfa1 34bc 268b d03d
00000270: b36d 293d f723 77bd a607 b33d 71e0 453d
00000280: 67f0 abbc 93b0 8dbd 668d 92bd b4a5 4ebd
00000290: d543 06be d61a 26bd 9639 0bbd 0605 02bd
000002a0: 06c5 703d aa66 fa3d defe b2bd fd7b 013e
000002b0: 6a0c 1d3e 6be4 09bd f53c 84bd 90c6 2dbb
000002c0: 236c 9abd aef8 72bd 63c8 00be bd11 cd3b
000002d0: 6b91 033e d039 643a 6f06 ecbd 8668 78bd
000002e0: 8634 f73b 0e14 17bd b043 e5bd 44a0 b23c
000002f0: b26f b43d 577b 133c b8ab 65bd 3a82 f1bd
00000300: b732 a7bd 0f70 de3c 3b8e 103e a322 dcbd
00000310: 7cb5 c93d 1a36 2fbe a1be e5bd 806a 02bc
00000320: e26d 67bd aa5d e43d fed4 f93a b654 fabd
00000330: 185f a03d 60d8 9b3d 9355 4cbd b8a7 99bd
00000340: 63d7 58bb 152b 393d 188a 1b3d 4593 8dbc
00000350: 1b02 083e 651a b33d e9d2 983d 6507 1ebe
00000360: 3f23 ffbc 8d71 773d e155 b1bd 7d50 ba3d
00000370: 387d 02be c6a3 1ebe a076 b1bd 370a a73c
00000380: c9e5 2a3e ecbb be3d 7a90 a8bd be37 103e
00000390: 311b 05be ecf2 4fbd 997d f9bd c2e5 6dbd
000003a0: f86e b73d 6f03 0e3e a916 803d 3d77 76bd
000003b0: 971e f8bd 937a 533d 258e 79bd 74ce 343d
000003c0: c0ac 29bd 93bc 003d 306b 08be 71b4 d63c
000003d0: 1186 923d 0203 ea3c a289 443b 9e3b 80bd
000003e0: d211 aebd 9aba 963d 093d d93d c4e1 0dbe
000003f0: 7bd5 d0bd 2393 d33d 8c76 fa3d a643 f2bd
-0.091109626 0.019834828 -0.0895842 -0.041833352 -0.08515416 -0.12689501 -0.11648925 -0.0019884703
0.011985918 0.080941305 0.13777679 0.171828 0.03843773 -0.060243256 -0.13493736 -0.12425043
0.17427155 -0.047377575 -0.14346868 0.11256343 0.051666286 -0.09221008 0.099929005 -0.034719158
0.13565019 -0.16362394 -0.09023367 0.12673719 0.12077328 -0.040900078 -0.109719075 0.11061922
-0.06982829 0.13654864 -0.078126416 -0.037426576 -0.026607571 0.012381626 -0.06702918 -0.10164266
-0.04142906 0.031479683 -0.06272057 -0.058645327 0.046612278 0.10403984 0.13959117 0.0020873353
-0.12082133 0.11109303 0.038649354 -0.103250064 -0.058975622 -0.03697741 0.026868891 -0.06607481
-0.06283906 -0.064783715 0.09529268 -0.095209405 0.057548523 0.1304763 -0.061169013 -0.085735075
-0.02721937 0.079226494 0.045579094 -0.0044031334 0.10599861 0.021601789 -0.053932372 -0.010126474
0.08994351 -0.065866955 -0.114181116 -0.10049929 0.06572873 0.07285201 0.048369545 0.1663124
-0.15969433 0.12051554 0.053935185 -0.05857195 -0.12439081 -0.042776216 -0.13659517 0.065636374
0.0077891517 0.06317741 0.11212987 0.005648877 0.052596424 0.057965606 0.08659412 -0.012343562
-0.05281024 0.046087794 -0.031530537 -0.11743637 0.05754306 0.059353426 -0.062222335 -0.08383395
-0.029403055 -0.10648256 -0.0698802 0.12567112 -0.05891256 0.03395629 -0.021972591 -0.024209317
0.040085033 0.011883616 -0.11578054 -0.11139884 0.10753698 0.061255474 -0.093936235 0.046000294
-0.07583056 0.008636028 -0.08400336 0.069883406 0.030390117 -0.04719951 -0.0240881 -0.013948358
0.027592873 0.07154993 0.022018857 -0.12181094 -0.097330585 -0.06881697 -0.041524306 -0.09011396
0.06777382 0.13347214 -0.12711164 0.057339743 -0.14267454 -0.0222598 0.10547806 -0.10499153
-0.05219024 -0.038093492 0.03534926 0.0827806 0.04854786 0.0072013107 0.10386849 0.14514811
-0.17384978 -0.052275307 -0.011024891 0.101827905 0.041364383 -0.060337033 0.08741693 0.048309747
-0.020988656 -0.069184445 -0.07155876 -0.050450996 -0.13111813 -0.040552936 -0.033990465 -0.031743072
0.058781646 0.12226613 -0.08740018 0.12644954 0.15336767 -0.033665102 -0.06456939 -0.0026516058
-0.07540157 -0.05931919 -0.12576441 0.006258218 0.12848441 0.00087061245 -0.115246646 -0.060646556
0.007544103 -0.03688436 -0.11194551 0.021804936 0.08810367 0.0090015745 -0.056071967 -0.11792417
-0.0816397 0.027153043 0.14116757 -0.10748794 0.098490685 -0.17110482 -0.11218 -0.007959962
-0.056501277 0.111506775 0.0019060669 -0.122231886 0.07830638 0.0760963 -0.049886297 -0.07502693
-0.0033087365 0.0452071 0.037973493 -0.017282138 0.13282053 0.08745269 0.07462103 -0.15432508
-0.031144736 0.060411025 -0.08658958 0.09097383 -0.1274308 -0.15492162 -0.08665204 0.020390613
0.16689219 0.09313187 -0.08230682 0.14083764 -0.12998654 -0.050768778 -0.12182159 -0.058080442
0.089567125 0.13868497 0.06254322 -0.06017231 -0.121152095 0.051630568 -0.060926575 0.0441422
-0.041424513 0.03142984 -0.13322139 0.026209088 0.071544774 0.028565887 0.0029989262 -0.06261371
-0.08499493 0.0735981 0.10607345 -0.13855654 -0.10196968 0.103307985 0.12229642 -0.11829309

lstm.bias_ih_l0 f4 [200]
00000000: 8a98 2b3e 16d3 503d db59 cb3b 7a6d 113e
00000010: 9dd3 b53d 2772 dabd 3cc7 983d 365f f3bd
00000020: 03ee 373e e9d6 b7bd 4a67 333d 2118 62ba
00000030: 5692 043e 59e1 a13d 5bd0 b53c b6fd fb3d
00000040: ad2c b93d 5cd7 85bb 7da8 6bbd 4c3c d93d
00000050: 4219 d13d 2265 793c 12cc 343c 3448 68bb
00000060: 265d b1bb ebab b8bd 5ace 64bd ab91 d63c
00000070: 000e 2dbd e61b 99bd 816a 023d 7d05 b5bd
00000080: 1ec9 df3d d8a2 35bc d5df 03bd ed1f c5bd
00000090: 4cb6 adbd 4b77 98bd c4e6 f13d 477d 86bd
000000a0: 6c2b e83d bdbe 1b3d 83b8 f83d d2a4 e03d
000000b0: e4f1 6e3d 0c24 e7bd 036d 19bd 092c 203d
000000c0: 722d 423d e7f5 f9bd 829d 9bbd c819 ae3d
000000d0: 6e4d 8b3b f369 78bd 54e1 72bc 680b 8f3c
000000e0: 5062 543d 6505 0dbe e95e 0e3e 2666 a5bd
000000f0: 57ce dabd c3bb acbd 6d9d c53d 895b ab3d
00000100: be23 373d 7afa aa3d 2509 0c3e c0f5 5e3d
00000110: 356c b33d bdde 2a3d 3c4d 5e3c 58c5 4ebd
00000120: f945 913d 0570 6ebc 55f8 c43c 34c4 73bd
00000130: 474f ccbd 40f7 0c3e 1219 38bb e57c 0fbe
00000140: 2c5c 273e 618f c23c e459 a63d a597 89bc
00000150: 7e5a cb3d a344 323d 7e03 5e3d 477f 153d
00000160: ac78 cd3d 5575 febc 00a3 c43d e7ed c53c
00000170: c3be 913d 4c89 2abd cf20 f63d cee2 6a3d
00000180: c85f 69bb 5c76 b1bd 9c48 5bbb 4003 11bd
00000190: e118 1cbd bbbd d33c fc33 fdbd 28a9 02be
000001a0: 2ef1 23be 871d 90bd cb79 423d c3d0 7a3d
000001b0: 1dbf d7bc 1bbc 04be 54e4 123e 38bf 45bd
000001c0: 6413 07bd 7033 6ebd 7d3c 953d 12d0 0cbe
000001d0: f090 b23d f603 79bc ae88 22bd 194d a6bd
000001e0: 92d0 98bc da15 50bd d2db 103e 41ac 433c
000001f0: 3561 c9ba 403a f0bd 2431 cf3a 3441 6abd
00000200: 39be a03d 9909 d83d 8659 063e 6be8 07be
00000210: 4a88 da3c 7b07 263e cdf0 f53d 98c5 7bbd
00000220: abd6 c9bd 7be1 78bd 899d 9dbd a321 aabd
00000230: 9714 c8bd fc85 d33d 6e77 083e ae01 11be
00000240: 8877 263d d29e f4bd 233c 13be 8336 2fbe
00000250: 8689 3dbd 5a6e 983c b99a 193e e1ef 4e3d
00000260: 0c54 383d 55b6 353e 9567 b73d 384d 02be
00000270: 78bb dabd 0ad6 313d 5c20 443d f975 2fbd
00000280: bd06 65bd fa1b ef3d a975 2f3e 06d1 063c
00000290: e699 e4bd cde0 9ebd ea33 103e 7854 183e
000002a0: 0189 cfbd 381e 513d c9f4 bf3d d2c3 e73c
000002b0: bf6e 8abd 894f 353d d86a 43bc 53ac b6bc
000002c0: c1cf be3d 373f b03d 317b 413d 0e81 fd3d
000002d0: 7e0d 0b3e 6a08 263e aee8 ed3d 680e 72bd
000002e0: 0a9a 013e ebc9 083e 9032 fa3c a144 9fbc
000002f0: fae2 8ebd 9ecb b13d a58b dbbd f31d 093c
00000300: f357 9abd bfe7 dabc fb37 df3d 1063 3cbd
00000310: 58ab 19bd e926 b2bb 7f56 2f3d 33bc c83d
0.16757408 0.050982557 0.00620578 0.14201918 0.08878253 -0.10666304 0.07459876 -0.118833944
0.17961888 -0.08976538 0.043799676 -0.00086248113 0.12946448 0.0790431 0.022194078 0.12304251
0.09041724 -0.0040845107 -0.05753373 0.10607204 0.10209896 0.015221866 0.011034982 -0.0035443427
-0.0054127155 -0.09017166 -0.055860855 0.026192507 -0.04224968 -0.07476024 0.03183985 -0.088389374
0.10927032 -0.011086188 -0.032195885 -0.0962523 -0.08482036 -0.07444628 0.11811593 -0.065668635
0.11336407 0.0380237 0.12144568 0.10968937 0.058336154 -0.11286172 -0.037457477 0.039104495
0.04740662 -0.12205105 -0.075984016 0.08501011 0.0042511737 -0.060647916 -0.01482423 0.017461494
0.05185157 -0.13771589 0.13903393 -0.08076124 -0.106838875 -0.0843425 0.09649167 0.08367068
0.04471182 0.08348556 0.13675363 0.054433584 0.08760873 0.041716326 0.013568219 -0.05048117
0.07093424 -0.014553075 0.024044195 -0.059513286 -0.099760585 0.13766193 -0.0028091115 -0.14012487
0.16343755 0.023750009 0.08122614 -0.016795943 0.099293694 0.04352249 0.05420255 0.036498334
0.10032782 -0.031061808 0.09601402 0.024161292 0.07116463 -0.041634843 0.120179765 0.057345204
-0.0035610069 -0.086651534 -0.0033460027 -0.03540349 -0.038109664 0.025847306 -0.12363431 -0.1275984
-0.16009971 -0.07036882 0.047479432 0.061234247 -0.026336247 -0.12962382 0.14344913 -0.048278064
-0.032977477 -0.058154523 0.07286928 -0.13751248 0.08719051 -0.015198698 -0.03968113 -0.08120174
-0.018654142 -0.05080209 0.14146355 0.011942924 -0.0015364053 -0.1172986 0.0015807492 -0.05719109
0.07848782 0.105487056 0.13120088 -0.13272254 0.026676316 0.16213791 0.1200882 -0.061467737
-0.09855398 -0.06076191 -0.07696063 -0.08307197 -0.09769552 0.1032829 0.13326809 -0.14160797
0.040641338 -0.11944355 -0.14378409 -0.17110638 -0.04627373 0.018607307 0.15000428 0.050521735
0.04500203 0.17745335 0.089553036 -0.12724769 -0.10680288 0.043417014 0.047882423 -0.042837117
-0.05591463 0.11675258 0.17134728 0.008228546 -0.11162166 -0.07757721 0.14082304 0.14875972
-0.10133553 0.05105421 0.09372861 0.028291617 -0.067594044 0.044265304 -0.011927329 -0.022298967
0.0931697 0.08605807 0.047236625 0.12378131 0.13579366 0.16214147 0.11616646 -0.05909577
0.12656417 0.13358276 0.030541688 -0.019441905 -0.06976886 0.08681415 -0.107199945 0.008368957
-0.07536306 -0.026721833 0.10899349 -0.04599291 -0.03751692 -0.0054367674 0.0428071 0.09801521

lstm.bias_hh_l0 f4 [200]
00000000: ce4b 0f3e b5be d73d 019a 3ebc 32ee c63d
00000010: a083 173d 4ece 453d 1c88 c1bd 5adc 1bbe
00000020: 5c63 86bc 5ed7 8f3d 46ab f0bd 6503 67bd
00000030: 91ea 58bd 3016 2a3d 0480 dcbd e6da 81bd
00000040: 1645 1d3e 7d2b 65bc 2f79 a93d dcb1 ad3d
00000050: d1db 0fbd 2ed5 24bd 763a c33d 9f0e 0abe
00000060: dee0 aa3d 773e 223d 4f66 c53d 38b0 afbd
00000070: fd15 84bd cac9 61bd 678c 88bd a371 923d
00000080: 6e86 45bc 1280 c23d 4db2 a03c ff7e cb3d
00000090: a3ed a0bb a1ca 8ebd 2fb6 b03d ba60 47bc
000000a0: 9c50 d8bd b021 fa3c 40e3 763d 5152 75bd
000000b0: 5000 8dbd e405 a53c 3fb7 323e f35b 353e
000000c0: f4cd 15bd 0cbf d9bd 9c4f 8bbd 99e7 293b
000000d0: 27b8 96bc f4de 5c3d c244 86bd 89fb eabc
000000e0: e541 a4bd f585 d83d cf1b 8c3d 77ef a13d
000000f0: 8d6f bdbd 135c dbbd 65dd afbd 2091 b73c
00000100: 4052 d83d ddaf 173d 4122 373e 08cb e03c
00000110: 7887 93bc cbaf 7cbd 7906 cebd 45d5 133e
00000120: cb73 76bd da69 a5bd 011e 893d 5933 f1bc
00000130: e9b6 47bc 1fc2 05be 1d27 22bd 0f9e ccbd
00000140: e59d 173e 1f0e b7bd 902a ca3d e28f 993d
00000150: 43c3 af3c 0c62 cc3d df0a f23d c7d7 dabd
00000160: c8e8 97bd 92f8 213e d4f1 2bbc 9e16 6b3d
00000170: 1120 c6bd b9eb 6abb 3f26 663d 8c53 413c
00000180: f79f 54bd 3128 a53d a839 783d 533c de3d
00000190: 497a 19bb d865 193d ad4c 33bd cbe5 b4bd
000001a0: 4f7a cd3c 14f8 9cbd a306 4b3d 796f 8e3d
000001b0: 4475 16be c9ca 9b3c 7a97 dc3d 5feb 273e
000001c0: cd2d b53d 268e 943c 5111 593d 0934 efbd
000001d0: 5573 123e dace c93d f2ae 43bd 9d96 f43d
000001e0: 7918 083e 090e 7c3c 20c9 003e a802 043d
000001f0: e06b 52bd d2b7 04be abe0 2c3e 1d42 13be
00000200: 87b1 e8bc 5054 2e3d 8134 363d f6c1 b63d
00000210: 7304 61bc d15d 113d ef21 5c3d c84d 85bd
00000220: 2dc5 1bbe 6833 8a3d 3251 0abd 01ac 383c
00000230: 5d62 463d bde5 053b 2f13 efbc 13e3 243c
00000240: b868 223d d368 06bc 3b56 723d 2449 92bd
00000250: 5489 f43d 26ce 053e d6f4 7e3b 84d5 cabd
00000260: 99c6 713d d4e4 82bd b198 ad3d 30e3 e43d
00000270: 9849 933d 82b9 403d c3e0 063e e3c6 86bd
00000280: 8032 9cbb e849 1bbd 5344 a7bd ddeb ef3d
00000290: 32aa eabd 4fc7 d43d 3e28 83bc a10d e63b
000002a0: d3b7 85bd 0cdd 4e3d 65a5 ee3d 0e4f aabd
000002b0: 3cd2 733d 5306 44bd c9ec 1ebd cc54 ae3d
000002c0: 2fd1 99bd e583 1f3d d6d2 dfbd dd42 4ebd
000002d0: bec4 27bd e423 1c3e fe03 123d 99da 373e
000002e0: 7e01 96bd 107d 083e f116 d43d 5efd bfbb
000002f0: 6267 5b3d b618 4e3c 710d eb3d 4b98 5b3c
00000300: ec30 e63d 9131 1a3e 25e6 333d f830 9abd
00000310: 013c 0e3e 8bb5 313e 98f1 733d 480e 13bd
0.13993761 0.10534421 -0.011633397 0.09713401 0.03699076 0.04829245 -0.09449789 -0.15220776
-0.0164048 0.070235 -0.11751418 -0.05639972 -0.052958075 0.041525066 -0.107666045 -0.0634058
0.15358385 -0.013987419 0.08275067 0.084811896 -0.035121743 -0.040242366 0.09532635 -0.1348214
0.08343671 0.039610352 0.096386544 -0.08578533 -0.064495064 -0.05512408 -0.066674046 0.07150581
-0.012055976 0.09497084 0.01961627 0.09936332 -0.004911141 -0.06972242 0.08628499 -0.0121690575
-0.1056225 0.030533642 0.060275316 -0.059892956 -0.06884825 0.02014441 0.17452715 0.17710857
-0.036573365 -0.106321424 -0.06802294 0.0025925396 -0.018398358 0.053923562 -0.06556083 -0.028684394
-0.08020381 0.10572425 0.068412416 0.079070024 -0.09249792 -0.10710921 -0.085871495 0.022408068
0.10562563 0.03703295 0.1788416 0.027440563 -0.018008932 -0.061691087 -0.10059828 0.14436825
-0.060169023 -0.0807683 0.06695176 -0.02944343 -0.012189605 -0.13062333 -0.039588083 -0.09991085
0.14806326 -0.0893824 0.098713994 0.074981466 0.021455413 0.099796385 0.1181848 -0.106856875
-0.074174464 0.15817478 -0.010494668 0.057394616 -0.09674085 -0.0035846068 0.056188818 0.011799704
-0.051910367 0.080643065 0.06060186 0.1085135 -0.0023418835 0.03745064 -0.043774296 -0.08832892
0.025082735 -0.07664505 0.049566876 0.069548555 -0.14693171 0.019017594 0.10771079 0.1639838
0.088466264 0.018134188 0.05299503 -0.11679847 0.14301808 0.09853907 -0.047774263 0.1194279
0.13290586 0.015384206 0.12576723 0.032229096 -0.05137241 -0.12960747 0.16882579 -0.14380689
-0.028404964 0.042560875 0.044483665 0.08923714 -0.013733971 0.03548986 0.0537433 -0.06508976
-0.15211935 0.06748086 -0.03376884 0.011271478 0.04843365 0.0020431124 -0.029183952 0.010063904
0.03965065 -0.008203703 0.059164267 -0.07142857 0.11940256 0.1306692 0.0038903258 -0.09904006
0.059027288 -0.06391302 0.08476389 0.11176145 0.07191771 0.047051914 0.13171677 -0.065809034
-0.0047667623 -0.03791228 -0.08167329 0.11714909 -0.114582434 0.103895776 -0.0160104 0.0070206677
-0.06529202 0.050503775 0.1165264 -0.0831586 0.059526667 -0.047857594 -0.038800035 0.085122675
-0.07510602 0.038944144 -0.10928886 -0.050356735 -0.040959112 0.15248066 0.03564834 0.17954482
-0.07324503 0.13328958 0.10355938 -0.005859061 0.05356539 0.012579134 0.11477173 0.013403009
0.112398 0.1505797 0.043920655 -0.07528871 0.13890077 0.1735441 0.059556574 -0.03590229

lstm.weight_ih_l1 f4 [200, 50]
00000000: c75b 813d f1cd a33c 1412 0a3d b83b 733b
00000010: 442d 0cbe eb37 0f3e c83b 073c 7c99 d9bd
00000020: ae0a f8bd 10ff 113c 6240 0e3e a3da c0bd
00000030: ea12 003e f01c 173e 0a00 7c3d c474 05b9
00000040: 31ad 5b3d f91e fa3c a9ca 463d c2e8 5dbd
00000050: f4ee 1fbe 89f1 8b3d b6c7 933d 36d9 90bd
00000060: dcfb adbd 6e56 90bc 4e76 d23d 6a96 c5bd
00000070: 4bf2 97bd 1aff 823c 84b5 03bd e26d a83d
00000080: 9c76 52bd 0a74 163a aa3c e63d b31b 6a3d
00000090: a706 b83b 7511 0cbe 9b32 10be 9f90 57bd
000000a0: 64a8 02be ccbd 87bc e201 ee3d 042f 4ebd
000000b0: d9c2 e53d 514a 3f3c 0024 0ebe 6ea1 353b
000000c0: 9add 553d 5cfe bebc 3d1e 633d c381 d5bc
000000d0: c594 433d f769 cabd 7d9e bbbd 1531 4bbd
000000e0: 9282 cfbc 36ba b93d ac24 fd3d dfc9 c73d
000000f0: eb36 a6bd 80c6 64bd 052e 5fbd 84b2 cfbd
00000100: 0a86 0a3e d114 aabd fe62 7b3b 9e32 073e
00000110: f23c 623d 8f85 cabd 5bc4 07be a1c5 afbc
00000120: c6fd cdbd 635f a93d 1096 b83d ea0d d2bd
00000130: 6f32 523c 6aa7 2f3d 0328 053e cdf1 7abc
00000140: bf0b 093e 8511 12be 5e65 203e 77a7 23bc
00000150: d266 703d ec31 ff3c 8274 833d a8d5 65bd
00000160: 9692 003d e84c b2bd 1e31 aebd 2158 d23d
00000170: 6427 e73d 9427 12be 4af4 d3bc ab3f 113e
00000180: 20d6 003e 6eb7 dd3d e9a9 8f3d fdad fd3d
00000190: fcb3 d43d e27c 6c3a da13 a2bd a8a3 92bd
000001a0: 909b 04be 29a4 ccbd 90f6 6fba 05ee 1abe
000001b0: a181 1f3e 67d5 ef3b ba42 ff3c 52e1 4ebd
000001c0: 6c8c d53d 7218 89bd c77a a93d 6885 863b
000001d0: a6d8 bebd a12f fcbd ab69 a73c fe76 a5bd
000001e0: bc7b 593d 3557 fbbd cf20 e1bd e6a2 97bc
000001f0: a0f8 8a3d 5e29 8abc 4575 36bd 5801 f73d
00000200: c2f8 b13d 57a9 833d bf46 66bd e14d fc3d
00000210: 7547 773d 9952 463c 63ff 6dbd 35da 623d
00000220: 986e aebc 4ecf 63bd 1aee 9a3c dfb3 eb3d
00000230: 058a a53b 31df 173d ba6a c33c a27e 9c3c
00000240: 2135 04be b895 e4bd e6b8 643d 2fa7 f63d
00000250: 3834 ff3d 4304 05be 6129 47bc 6111 bc3d
00000260: 1483 29be 3462 10be 8999 27be 47f1 873c
00000270: 502c 10bd 88ad a93c 9fb0 d7bc 7544 623c
00000280: cc66 aa3d eab8 cdbd 5c39 0a3d fa5f e43c
00000290: 7785 1c3e f7b2 9e3d 0a1c a9bc 7f32 8f3d
000002a0: bcb4 ca3d 1774 a4bc 60fc 29bd 9788 eebd
000002b0: a71d 1a3e 20fd 98bc 752c fdbc fd98 c8bd
000002c0: 0611 b13b b8b0 01be 8602 0ebd 88ec 2bbd
000002d0: 3d17 c7bd 6f68 1ebe 5536 233e e09e 6dbc
000002e0: 05d9 c63c 6cc5 363d b1fd 90bd 49b3 9c3a
000002f0: cbef f9bc 6682 7cbd 16e4 f13d 90cc 60bc
00000300: f5b8 183e 205a 573d 0c55 dcbd ed3a ad3d
00000310: ae59 53bd 1f14 01be 1c9a 8ebc 7c6a dc3d
00000320: 23e5 5abd 5f87 a33d d12a 0a3e 6be2 223e
00000330: adf4 2cbd 4d3b 5ebd a012 003e 82a3 853d
00000340: f105 d8bc 08ff dbbd f62c 013e 2474 d3bd
00000350: 1ecc a5bd dc15 433c c397 683d 60d7 953d
00000360: fd0a f1bc 2fa6 5cbc 9a25 eabc e481 173e
00000370: 4fec d23d 2fc0 da3d aa45 82bd 27c2 1bbd
00000380: c9a3 7c3d 3a5e 093e 9444 d53c c47d f9bb
00000390: 4bc4 0b3d a5c6 02bb 756f f83d ff02 413d
000003a0: cd4a 17be 329e adbc 04bc c03d a8e6 993d
000003b0: 0d89 913d 3b40 023e c3f7 cb3d 521e e43a
000003c0: 633d e8bd 7190 e83d a190 473c f41b 083d
000003d0: 6d1d 873d fce7 2c3d 7234 de3c b871 db3d
000003e0: f7f8 a83d d38e a2bd 21cf b5bd eb49 133e
000003f0: c227 bfbd 916b f6bd 40ff b53d 6a56 be3d
0.06316333 0.019995661 0.033708647 0.0037114453 -0.13689142 0.13986175 0.008253999 -0.10624978
-0.12111412 0.008910909 0.13891748 -0.09416702 0.12507215 0.14757133 0.061523475 -0.00012727367
0.053631965 0.030532347 0.048533116 -0.054177053 -0.15618497 0.068331786 0.07215826 -0.0707268
-0.08495304 -0.017619338 0.10276471 -0.0964783 -0.074192606 0.015990783 -0.03215553 0.082240835
-0.051382646 0.0005739337 0.112420395 0.057155322 0.0056160274 -0.13678534 -0.14081804 -0.052628156
-0.12759548 -0.016569994 0.11621453 -0.050337806 0.11218805 0.011675433 -0.1388092 0.0027714628
0.05221329 -0.023314647 0.05544876 -0.026062852 0.0477493 -0.098834924 -0.091610886 -0.049607355
-0.025330815 0.0906872 0.1236051 0.09755301 -0.081159435 -0.055853367 -0.054487247 -0.10141471
0.13527694 -0.08304752 0.0038358564 0.13202903 0.055233903 -0.098887555 -0.13258497 -0.021456541
-0.10058169 0.08270147 0.09012997 -0.1025656 0.012829407 0.042884268 0.13003545 -0.015316439
0.13383387 -0.14264496 0.15663669 -0.009988657 0.058691807 0.031151734 0.064187065 -0.05611196
0.031389795 -0.08706075 -0.08505462 0.102707155 0.1128681 -0.1427291 -0.025873322 0.14184444
0.12581682 0.10826002 0.0701483 0.12386701 0.10385892 0.00090212945 -0.07913943 -0.07160121
-0.12949967 -0.099922486 -0.0009153867 -0.1512986 0.15576793 0.0073191407 0.031159747 -0.05050785
0.10427174 -0.06694116 0.08275371 0.0041052587 -0.09318666 -0.12313772 0.020436129 -0.080793366
0.053096518 -0.12272493 -0.10992586 -0.018510293 0.06785703 -0.016865429 -0.04454543 0.12060803
0.08690025 0.064287834 -0.056219812 0.12319542 0.06037088 0.012104654 -0.058104884 0.05538388
-0.02129297 -0.055617623 0.018912364 0.11508917 0.0050518536 0.037078086 0.023854602 0.019103352
-0.12910892 -0.11161369 0.055840395 0.120436065 0.12461132 -0.12989907 -0.012155862 0.09183002
-0.16553909 -0.14099962 -0.16367163 0.016594542 -0.03519851 0.020712629 -0.026329337 0.013810267
0.08320388 -0.10045035 0.03374611 0.027877796 0.15285288 0.077489786 -0.020643253 0.06992053
0.098977536 -0.020074887 -0.04150045 -0.11647146 0.15050374 -0.018675387 -0.030904988 -0.09794805
0.0054036407 -0.12665069 -0.034670375 -0.04197362 -0.09721229 -0.15469526 0.15938695 -0.014503211
0.024273405 0.04462187 -0.07079638 0.0011955287 -0.03050985 -0.061647795 0.11811082 -0.0137206465
0.14914306 0.052576184 -0.10758409 0.08458505 -0.051599197 -0.12605332 -0.01740747 0.10762498
-0.053441178 0.07984804 0.13492896 0.15906684 -0.04222553 -0.054255772 0.12507105 0.06525327
-0.02637002 -0.10742003 0.12614807 -0.103248864 -0.08095573 0.011907067 0.056785356 0.0731647
-0.029424185 -0.013467356 -0.028582383 0.14795643 0.102989785 0.10681187 -0.063609436 -0.038026955
0.061679635 0.13414851 0.026033677 -0.0076138694 0.034122746 -0.0019954827 0.12130634 0.047121998
-0.14774628 -0.021193597 0.09410861 0.07514697 0.071062185 0.12719814 0.09959366 0.0017404056
-0.113398336 0.11355675 0.012180478 0.033229783 0.065974094 0.042213425 0.027124617 0.107150495
0.08250611 -0.07937398 -0.08877397 0.14383666 -0.09333755 -0.120322354 0.08886576 0.09293826

lstm.weight_hh_l1 f4 [200, 50]
00000000: 939a d23b 69e0 653d 4433 2a3d 825c 30be
00000010: ecde 12be 8b15 82bd 44bf a2bd 4e77 8bbd
00000020: e4bc 703b fe63 963b a103 6fbd 091d a73c
00000030: 0250 ddbb c701 05bd 0ef3 d73d 1ab0 07be
00000040: 3e57 c4bd 667b 5dbd 6ac9 673c a578 6ebd
00000050: 6ed8 f8bc b149 433c 2e08 8e3d 7811 46bd
00000060: 5f7e 2ebd 7b83 07be b9f9 3c3d 9d15 c43d
00000070: c64f 0c3c 6586 11bd f270 023e c485 273d
00000080: d8c1 7bbd cd3b 4c3d f2fc 223c 76ea 363d
00000090: cc53 d6bc b60a 80bd c3e8 0cbd 31ef e1bd
000000a0: 6818 963d 2ffd 8cbb 6590 b13d dfa7 663d
000000b0: 3202 97bd 2dbe 32be 7d42 213d f699 1c3e
000000c0: 6e72 0d3e 9e56 d5bc fea0 853d 53dc 9dbc
000000d0: d70e c13d ce93 f4bd 27d6 a0bd 284e 5a3c
000000e0: aa13 03be 6f52 513c f108 1d3e fb8b 993d
000000f0: e40a 15be 7b70 153e 9863 0dbe cabf c13d
00000100: 1d39 aa3d 6d8a 433d c237 263d d981 2dbd
00000110: e8ea 0abd f2a5 4d3b 66c4 d93d 187b 17be
00000120: 8ae9 083e fa7c a9bc 002a b63d b3f0 513d
00000130: 5324 9a3d 4488 c73d 6666 e4bd 26d3 133e
00000140: 1800 a3bd 9379 0a3d ad6f eb3d 3853 3cba
00000150: 6dc6 df3d 196d db3d 5f43 db3d 7c45 7d3d
00000160: 88ca 4ebd 3453 173e f260 c83d e447 cd3c
00000170: 43a4 9fbc 6787 fb3d 826d b93d 2692 533d
00000180: dce1 a23d 8c01 a3bd 66c2 25bd 32b4 b3bb
00000190: ae82 c0bc 7387 b63d b0dd 903d 2ac0 f53d
000001a0: 0d52 f43d 7c91 8fbd 84ab 2c3d 8b54 17bd
000001b0: 4647 1a3e 01fb 99bd 909d 82bd 668f 37bd
000001c0: bb64 62bd 3046 d13d 7bac 3ebd 0e44 81ba
000001d0: fb6b dbbd 6d63 f13b 00a6 dabd 8400 f03d
000001e0: 6470 093e 026f ec3d 7dc1 013e 9ae4 963d
000001f0: 1d4f f6bc ed65 bb3d b445 50bd c542 ecbd
00000200: 17dc 023e f93e 153e 1ef3 cdbc 8057 c83d
00000210: 826b 31bc 5ccd c93d 58b5 13be bf9f 583d
00000220: 9af2 1b3e 553d c6bd eaac fdbd d1f2 953d
00000230: 23cf 703c 8002 16be e32a df3d 7d7e 11be
00000240: 7d22 abbd 97b6 eebd 7923 ffbd ecb7 003a
00000250: 410d b7bd 3680 993d cfc2 71bd ce9c 093d
00000260: 33e9 083e cf63 01be f0cf d4bc 445a be3b
00000270: 5f29 bdbb 4a0f 66bc 5d18 1a3e 3170 0c3e
00000280: 721e 7ebc 1257 00be 7523 a9bc eb5b 12be
00000290: b336 c3bd e7b8 033c 7bd6 b3bd 2cd2 20be
000002a0: d4ae fd3d ce5e 9f3d d881 783d ba14 783d
000002b0: a44d d33c eb47 bb3c b508 6dbd 1d8c 7ebc
000002c0: 0250 553d 2dae 083d 867d 0b3e 6aa7 833d
000002d0: 95d1 bf3d d492 7a3d 909c ca3d e8af 9bbd
000002e0: 9a27 e6bc bf79 923c 6de4 1f3c 1e7b 02be
000002f0: 426b ebbd 285d 99bd d116 883d 39fd d73d
00000300: d86f aa3d 7596 6bbc 3b2b bbbd 1554 c5bd
00000310: 243d b93d c805 c13d 6c65 41bc 768c e8bc
00000320: 20b4 acbd 2941 1b3e 35e5 1cbe 5029 c5bd
00000330: c98c 893d b761 cbbd 4f47 563d d53e ee3d
00000340: 6738 a6bd fb7b 98bd 0eca 73bd 460e efbd
00000350: fea3 8cbd b485 f23d 2d4d f1bc 4c4e 65bd
00000360: d2e3 133e 3b7d 483d a9c4 20be 1ad7 a73d
00000370: 1cf2 463d da7a e8bc f7c0 bc3d f674 a83c
00000380: cdb8 b03d 522b 103e adc0 95bc 8d4e 49bd
00000390: 6f99 e1bc 2de0 cf3d dfbb 64bd 1908 69bd
000003a0: e1cb 183b 06d7 873d 1054 81bd fc75 04bd
000003b0: c5aa ba3b 51b3 c4bd 1084 a3bd d906 afbd
000003c0: b0bb 46bb 14f4 a83d edc6 c0bd f6fa 59bd
000003d0: d2ab eabc cf50 1f3d 06c8 af3d fbaa 21be
000003e0: d149 a83c 91e8 b03d 9faf 7d3d 7175 d8bd
000003f0: 1f28 a13d b234 143d 97d0 e4bd 5203 da3d
0.006427118 0.056122217 0.041552797 -0.17222789 -0.1434285 -0.06351765 -0.07946637 -0.06809865
0.0036733681 0.0045895567 -0.05835307 0.020399587 -0.0067539224 -0.032472398 0.10544406 -0.13250771
-0.095869526 -0.05407276 0.014147142 -0.058220524 -0.03037664 0.011919425 0.06935154 -0.048356503
-0.042600986 -0.1323375 0.04613659 0.09574435 0.008563941 -0.03552856 0.12738398 0.040899053
-0.06146416 0.049861718 0.009948002 0.044657193 -0.026163004 -0.06252043 -0.034401666 -0.1103195
0.07328874 -0.004302643 0.08670119 0.056312438 -0.073734656 -0.17455359 0.03937005 0.15293106
0.13813183 -0.026042279 0.065248474 -0.019270098 0.094266586 -0.11942254 -0.07853346 0.013324298
-0.1280047 0.012776001 0.15335442 0.07497402 -0.14554936 0.14593689 -0.13807523 0.09460409
0.08311675 0.047739435 0.04058052 -0.04236016 -0.03391543 0.0031379429 0.10633163 -0.1479305
0.13370338 -0.020689476 0.088947296 0.05125494 0.075264595 0.097427875 -0.111523435 0.14436015
-0.07959002 0.03380735 0.1149591 -0.00071840314 0.109265186 0.10714168 0.107062094 0.061833844
-0.050486118 0.14777833 0.09784116 0.025058694 -0.019487506 0.12281685 0.0905409 0.05165305
0.079532355 -0.079592794 -0.040468596 -0.0054841274 -0.023499813 0.08912554 0.070735335 0.11999543
0.119297124 -0.07010171 0.042155758 -0.03694586 0.15066251 -0.07518578 -0.06377709 -0.04481449
-0.055271845 0.10218465 -0.04655121 -0.0009862201 -0.10713955 0.007366589 -0.10676193 0.11718848
0.1342178 0.115446106 0.12671466 0.07367821 -0.030067021 0.091503 -0.050847724 -0.11536173
0.1277927 0.14574803 -0.025140341 0.09782314 -0.0108288545 0.09853622 -0.14424646 0.05288672
0.15229264 -0.09679667 -0.12386496 0.07321704 0.014697823 -0.14649391 0.10896852 -0.14208408
-0.083561875 -0.1165592 -0.12457938 0.0004910219 -0.08938075 0.074951574 -0.059023675 0.033596806
0.13370208 -0.1263573 -0.025978059 0.0058091003 -0.005772754 -0.014041731 0.15048356 0.13714673
-0.015510188 -0.12533215 -0.02064679 -0.14292876 -0.095319174 0.00803969 -0.08781143 -0.15705174
0.123868614 0.077817544 0.060670704 0.06056664 0.025793858 0.022861442 -0.05786963 -0.015536335
0.052078255 0.033369232 0.13622102 0.06428416 0.093661465 0.061175182 0.09893143 -0.07601911
-0.028095055 0.017880319 0.009759051 -0.12742278 -0.11495067 -0.07488471 0.06644977 0.10546345
0.08322114 -0.0143791335 -0.09139105 -0.09635178 0.09044865 0.09424931 -0.011803966 -0.02838729
-0.084327936 0.15161575 -0.1532181 -0.0962702 0.06716306 -0.09930747 0.0523141 0.11633078
-0.08116227 -0.074455224 -0.059518866 -0.11672644 -0.068672165 0.11841908 -0.029455746 -0.055982873
0.14442375 0.048947554 -0.1570002 0.08195324 0.048570737 -0.028378893 0.092164926 0.020563584
0.08628998 0.14079025 -0.018280352 -0.049147177 -0.027538983 0.1015018 -0.05584323 -0.05689249
0.002331488 0.06632809 -0.06314862 -0.03233908 0.005696627 -0.096045144 -0.07984173 -0.08546228
-0.0030324273 0.08249679 -0.09412942 -0.05321785 -0.028646383 0.038895424 0.08583073 -0.1578788
0.02054301 0.086381085 0.061935063 -0.10569275 0.078689806 0.036183067 -0.11172598 0.106451645

lstm.bias_ih_l1 f4 [200]
00000000: bc0f 85bd 3e5a 533d 48a8 f43d ec64 d63d
00000010: 5317 913d 2436 243e 2299 ba3d b9e4 6f3c
00000020: 3835 ef3c 7906 1ebd b191 a7bd 7c24 223d
00000030: 453f a6bc b63a e9bc 3b56 8fbd a9ba 7fbd
00000040: fc6b 4abd 9580 a83c 4cb2 9d3c 044e 043e
00000050: 3341 f4bd 5b35 a5bc 195c c4bd 3693 e83d
00000060: 4ad6 b93d 5a6a bebd d803 59bd aa64 fb3d
00000070: 841e b7bd c7e5 00be 2626 0dbd 8485 8e3d
00000080: 7eed 17bd 8d7e 063d 9561 c3bd 4ccc 10bd
00000090: 27a8 babd 25ea 8fbd b8ed a7bd cebf 8a3d
000000a0: c5c9 b73d a2db b83c 8959 903d 0810 7fbd
000000b0: c86e d43c f5aa f8bc 4ce4 58bd f8a1 203e
000000c0: 9fe3 edbb b323 c03c 8b22 f63d 919b 25bd
000000d0: 255a c5bd eff8 d53d 44b3 f2bb 7605 6cbd
000000e0: fcbc 063e 4294 c0bd ac28 15bc 4d71 15be
000000f0: a1c3 d3bd 2f47 eabc 418b fd3d c590 a53d
00000100: e4cb 52bd 831c 86bc f348 2f3e 60cb 773d
00000110: 1013 00bc fcc6 a1bd a8e1 bcbd 4472 bc3c
00000120: 86d6 1cbe e1ae c93d cdf6 ee3d 079d 15be
00000130: 9404 113e 08f5 393d bf62 113e 3607 06be
00000140: 6d19 90bd 2813 c6bd 38c4 cc3d 11ca c23d
00000150: 3529 7d3d c03e f1bd 8a4d e73c 73fb 83bd
00000160: 7631 bfbd 8f74 0c3d a758 2bbd d1ca 91bd
00000170: 87aa d4bd ca44 bfbd e678 d7bb 5d80 923c
00000180: f493 c7bd 1782 9e3d ae2d 9e3d c919 913c
00000190: f87e b23d 5ba3 073d 21dd a93b e0fb 483d
000001a0: 4ad8 a43c 294f c3bd 0743 c83c c5a0 c7bd
000001b0: cb55 69bb 56a8 c8bd c6cb ab3a b1cc 98bd
000001c0: dbc9 ca3d a75b b1bd d63f b33d e90a abbd
000001d0: 6fd5 12be 451b dd3d a4e7 26bd 0ecb d83d
000001e0: 3f5c 323d a500 6a3d 0ba3 1d3c f4b0 cfbd
000001f0: e9c7 223e ba77 eb3b 7702 253e 6c89 5dbd
00000200: 040c b73d 0aac d2bd 149b 1a3e 0a4a 973d
00000210: a690 273e 5546 8dbd c688 953c bdc0 8c3c
00000220: a79e ebbd f6dc 82bc deef 8a3d 9260 88bb
00000230: cee2 273d 2b5c d33d 006c 1c3d 037f 883d
00000240: 192a 333d b2e2 4fbd 5ae7 a33d f7f2 fa3d
00000250: 7dd8 093e f478 123e 6426 a4bb 569f 413d
00000260: 12ad 22bd 8a34 263d 3e41 26bc 1ef0 0a3e
00000270: 4cd3 c1bd e220 983d 2ca8 233e 86c1 e83d
00000280: b1df dbbc fc7e dcb7 f6c5 b9bd 7e45 42bd
00000290: 77ff 793d b64c 8c3d 4831 213e 4937 ebbd
000002a0: 1566 023d 0680 18bd f5d1 19be dc30 ed3d
000002b0: db69 22be 3f2f df3d 4628 fd3c a009 f4bd
000002c0: a05b 303d 3eb4 ae3d 09e8 853c ffb7 69bd
000002d0: 4f42 97bc 9042 3a3b a187 e7bc 9b66 953a
000002e0: bc7a 0e3d 505b 03be 5e42 fdbc 391f 0b3e
000002f0: 8777 94bd e1e1 793d 287f 15be 18fa 233d
00000300: 1074 79bc da48 cbbd 8eb1 dd3c af2b 8b3d
00000310: 0fa6 b7bc 77a2 ec3d 5f49 a23d 2e88 1bbd
-0.06497142 0.051599734 0.119461596 0.10468468 0.07084527 0.16036278 0.09111239 0.014641934
0.029200181 -0.03858039 -0.08182085 0.039585575 -0.020293841 -0.028470378 -0.06998869 -0.062433872
-0.04941939 0.020569125 0.019250058 0.12920386 -0.11926498 -0.020167043 -0.09587879 0.11356203
0.090740755 -0.09297629 -0.05298218 0.122750595 -0.08941367 -0.12587653 -0.03446021 0.0695906
-0.037091725 0.032835532 -0.09540097 -0.035351083 -0.09114104 -0.070270814 -0.08199638 0.06774865
0.08974031 0.022565667 0.070483275 -0.062271148 0.02593173 -0.030354956 -0.052952096 0.15686786
-0.0072598006 0.023454523 0.12018307 -0.040431563 -0.09636334 0.10447871 -0.007406624 -0.057622395
0.1315803 -0.09403278 -0.009103935 -0.14594002 -0.10340048 -0.028598396 0.12380076 0.08084253
-0.051463977 -0.016371017 0.17117672 0.060496688 -0.007817045 -0.078992814 -0.09222728 0.023003705
-0.15316209 0.09847809 0.11668167 -0.14610682 0.14161903 0.045399696 0.14197825 -0.13088688
-0.070360996 -0.096716225 0.09998363 0.09511197 0.061806876 -0.11779547 0.028235216 -0.064444445
-0.09335606 0.034290846 -0.041832592 -0.07118762 -0.10384088 -0.09339292 -0.0065756915 0.017883474
-0.09745017 0.077396564 0.077235565 0.01771249 0.087156236 0.033114772 0.0051838313 0.04906833
0.020122666 -0.09536583 0.024446024 -0.09747461 -0.0035604115 -0.097977325 0.0013106994 -0.07460917
0.09901782 -0.086600594 0.0875241 -0.0835169 -0.14339231 0.10796217 -0.040748253 0.105856046
0.043545004 0.05712952 0.009621392 -0.10141173 0.15896572 0.0071859034 0.16114222 -0.054086134
0.08937839 -0.1028672 0.1509822 0.07387169 0.16363773 -0.068981804 0.018253695 0.017181749
-0.1150487 -0.015974503 0.06784032 -0.0041619027 0.040987782 0.10320314 0.038188934 0.066648506
0.04374132 -0.050753303 0.08003111 0.12253373 0.1346149 0.14303952 -0.0050094593 0.047271095
-0.039715834 0.04057745 -0.010147391 0.1356816 -0.0946413 0.07428147 0.15982121 0.11365037
-0.026840063 -2.6285175e-05 -0.09070961 -0.047429554 0.061034646 0.06850569 0.15741456 -0.11485154
0.031835634 -0.037231468 -0.15021499 0.11581585 -0.15860693 0.10897683 0.030902993 -0.11915898
0.04305613 0.08530472 0.016345995 -0.057060238 -0.018464236 0.0028421022 -0.028262915 0.0011398377
0.034785017 -0.12827802 -0.030915435 0.13586129 -0.072493605 0.06100643 -0.14599288 0.04003343
-0.015225425 -0.09926005 0.027062204 0.06795441 -0.02241805 0.11554425 0.07924151 -0.037971668

lstm.bias_hh_l1 f4 [200]
00000000: 127f 073e e82a 57bd 4b8c 9f3d 1641 a63d
00000010: ada3 0dbe 3543 743d 13f9 a7bc 6c70 003e
00000020: 9c96 743d cfd2 e2bd 74ca bbbc 3755 df3c
00000030: 0bc4 cbbd 3c5d 00be cc10 34bc 7d92 ab3d
00000040: 3a39 21bc 9d14 063e 0f0a a3bd 919f 213e
00000050: 8fea c33d 93e6 4c3c 5e78 fbbd 7e57 c73c
00000060: 1170 fa3d 5c29 113d 41f9 0b3b ce91 fc3c
00000070: 8b2f ed3a c37d 093d 4690 4e3d 7ea1 ccbd
00000080: 413c a3bc acc0 833d 8966 d63d 3b6d af3c
00000090: 5e0c 913d 6b7f 013e a87f 5f3d 5991 aa3d
000000a0: a8db 6bbd 4176 d63d 5e9d 85bd a670 68bd
000000b0: 437c 293e c031 193e f62f 953d b9ac 1d3e
000000c0: 9548 15bd 53d7 aebd 9f4e cabd 55d5 f93c
000000d0: 52c9 afbd 7ac9 d9bd 41ae 86bd c3e3 223e
000000e0: b414 9c3d 90e2 8cbd 3197 3bbd 6da0 1fbd
000000f0: 2b50 cd3d 735d 523c d196 a03d 813e a7bd
00000100: 94b6 05bd 32c8 a6ba 3544 93bd 5e88 023e
00000110: 6090 623d 9470 bcbd 1a45 b4bd 4edf b5bc
00000120: 6d58 04be 9ec4 1abd c1e4 fa3d 2fca 853d
00000130: 59a6 52bd b08d 5b3d 820b df3d 4388 e33d
00000140: d16f ccbd 6ebd 7bbd f110 2d3e 2cd5 0d3e
00000150: dd62 2b3e 21db ea3d 028f 1ebe 6640 5e3d
00000160: 4a6c a83d 92e3 db3d 87f3 8bbc 99e5 473d
00000170: 5fe9 f03d 949e 923b ffd4 c63d 07b8 adbc
00000180: afe2 0b3c b6a7 0dbd 88c9 953d d433 6aba
00000190: a348 37bb 3987 d2bd b7e8 8a3d df09 06be
000001a0: 018e 98bd 9085 aebd 77fa b13d add3 23bd
000001b0: fe5e b1bc ab3e c63d cb93 083d 00b8 093c
000001c0: a10e 053e 2a88 31bd 7b53 f8bd 96d8 4f3d
000001d0: 22cf 61bc 8bc3 2dbe b37c 0b3e 830a 0f3e
000001e0: 6512 cebd 853c 713d a32f cebc 7fdc 98bd
000001f0: 61e8 123e 5c04 d9bb 203e 05bd b4e1 62bd
00000200: d715 1fbd a2fc 993d 286b debc e316 94bb
00000210: 7797 a9bc 9195 08be b592 143e e85d e1bd
00000220: 8b94 a3bd fe23 4fbd 28c9 633c 03ee ec3c
00000230: a8c9 d8bd e322 db3d 30dd 9a3d c15d 413c
00000240: 08df a83d 9f37 06be 8227 cb3d b487 223e
00000250: 0b65 3ebd 6374 7bbd aab6 9a3d 96a7 db3d
00000260: 6936 86bd 831c d33d 0fa9 b43d 05b1 19bc
00000270: 862f fe3d 87bf 163e 34b7 d63d 2761 34bd
00000280: a3fc 61bd 4a7d d7bd f91c 153e 694c 91bd
00000290: 758f 7dbd 6085 ae3c 7295 a83d a3ff cbbb
000002a0: 93cc e83d ccc3 2f3e 22bf a53d 74f3 6ebd
000002b0: af5f ed3c 87ca 03be 9573 0f3e 5c76 7c3d
000002c0: 5630 223e c1e3 c43d c619 073e 4480 afbd
000002d0: f9a8 79bd 4d55 7dbc 5e75 903d 1091 6d3d
000002e0: 9556 7cbd bedf 13bd 9a42 cd3c 36ac 123e
000002f0: 85fe 313d 60f3 bc3c ff9d 903d 0f39 74bd
00000300: b832 6ebc fdae 7cbd accf a0bd 76ad 2d3e
00000310: a758 0dbd aefa 033e 384f 093e a66d 5ebd
0.13232067 -0.052531153 0.07790431 0.08117883 -0.13831969 0.059634406 -0.02050451 0.12542886
0.059713945 -0.11075365 -0.022923686 0.027262313 -0.099495016 -0.12535566 -0.010990333 0.0837755
-0.009840304 0.13093801 -0.07960903 0.15783526 0.09566223 0.012506145 -0.122788176 0.024333712
0.12228406 0.035439834 0.0021358284 0.030831244 0.0018095834 0.0335672 0.05043056 -0.0999174
-0.019926192 0.064332336 0.10468776 0.02141439 0.07082437 0.12646262 0.0545651 0.08328504
-0.057582527 0.10471774 -0.06524156 -0.056748055 0.16551308 0.14960384 0.072845384 0.1539792
-0.036446173 -0.085371636 -0.09878277 0.030497232 -0.08583321 -0.10634132 -0.06576205 0.15907197
0.07621136 -0.06879151 -0.045798484 -0.038971353 0.100250565 0.012839663 0.07841266 -0.081662185
-0.032644823 -0.0012724458 -0.07190744 0.12747332 0.055313468 -0.0920116 -0.088022426 -0.022201207
-0.12924357 -0.037785165 0.122506626 0.06532704 -0.051428173 0.05360192 0.10890867 0.11109974
-0.09982265 -0.06145995 0.16900994 0.1385085 0.16736932 0.11467577 -0.1548424 0.054260634
0.082237795 0.10736765 -0.017083896 0.048802946 0.11763262 0.0044744704 0.097085945 -0.021205915
0.008537932 -0.03458377 0.0731383 -0.00089341146 -0.002796688 -0.10279698 0.06782668 -0.13089703
-0.0744896 -0.08521569 0.086903505 -0.03999679 -0.021651741 0.09679922 0.03334407 0.008405685
0.12993862 -0.043342747 -0.12125298 0.05074366 -0.0137822945 -0.16969125 0.13621788 0.13968854
-0.10062102 0.058895607 -0.0251692 -0.07463931 0.14346458 -0.006622834 -0.03252995 -0.05539103
-0.038839187 0.07518889 -0.027150705 -0.00451933 -0.020702107 -0.13338305 0.1450909 -0.11004239
-0.07987317 -0.050571434 0.01390294 0.028922087 -0.10585338 0.107000135 0.075617194 0.011802138
0.08245665 -0.13107155 0.09919645 0.15872079 -0.04648308 -0.061390292 0.07554372 0.10725324
-0.06553347 0.103081726 0.08821308 -0.009380584 0.12411408 0.147215 0.10484162 -0.044037964
-0.055172574 -0.10521944 0.14561833 -0.07094652 -0.06190439 0.021303833 0.082316294 -0.0062255426
0.113671444 0.17164534 0.08093096 -0.058337644 0.02897629 -0.12870227 0.14008935 0.061636314
0.15838751 0.09613753 0.13193426 -0.085693866 -0.06095216 -0.015462232 0.07053636 0.05799967
-0.06160601 -0.03610205 0.025056172 0.14323506 0.04345562 0.023065269 0.07061385 -0.059624728
-0.0145384595 -0.06169032 -0.0785211 0.16960701 -0.034508374 0.12888595 0.13409126 -0.054303788

fc.weight f4 [1, 50]
00000000: 4ac4 1f3e 4448 1c3d c29f b8bd a71e c9bd
00000010: 9ddd 3c3b b171 d2bd 9ea8 fa3d 9e0a 7abd
00000020: 2a29 183e 17f4 983d e247 65bd d477 383d
00000030: fc81 9d3d 9eef f53d 3faf 9abd 08f2 343b
00000040: 813e dfbd 6963 a6bd 6d06 203e 8b84 cb3d
00000050: 406b 583d 535d 92bd 4e37 8b3d 5dea 6a3d
00000060: fbe6 2f3d 7b2f 6a3d 7e06 123d 9d8e 1fbe
00000070: 4c66 093e 4bf0 713d fd62 843d 9a09 f4bd
00000080: 92e0 313d 567d ebbd bca9 1f3e 9152 db3c
00000090: f1f8 ee3c 951d 2dbe f4e0 a9bd affb 2d3e
000000a0: 99e6 913c 97b9 9b3b 4447 b73d 4864 b7bd
000000b0: 9bcc 1b3e f7d9 31be e10d 2b3e 21c8 7e3d
000000c0: 378c 1e3e ace7 ef3d
0.15602222 0.038154855 -0.090148464 -0.098202996 0.0028818615 -0.10275591 0.122391924 -0.06104528
0.14859453 0.074684314 -0.055976756 0.045036152 0.07690808 0.12008594 -0.07552957 0.0027610082
-0.109005935 -0.0812443 0.15627451 0.0993739 0.052836657 -0.071467064 0.06797658 0.057352412
0.04294489 0.057174187 0.035650723 -0.15581746 0.1341793 0.05906705 0.06464193 -0.11915894
0.043427058 -0.11498515 0.15592092 0.02677277 0.029171439 -0.16905816 -0.082948595 0.16990541
0.017810153 0.0047523486 0.0894914 -0.08954674 0.1521477 -0.17368303 0.16704513 0.062202577
0.15483175 0.1171411
