Models/receiving_model.pth (torch, 139880 bytes, 9 tensors)

lstm.weight_ih_l0 f4 [200, 16]
0	0xbb8e649b	-0.004345489
1	0xbd431a40	-0.047632456
2	0xbdba52c7	-0.0909782
3	0xbd38da72	-0.0451302
4	0x3c3b6550	0.011437729
5	0xbd5ae0d9	-0.053437088
6	0xbda8d6f7	-0.08244126
7	0x3dc467bc	0.09590098
8	0xbd182bcc	-0.037151143
9	0xbd91f144	-0.07126096
10	0xbdf149f0	-0.117816806
11	0x3c8ae670	0.016955584
12	0x3ddd1439	0.10794873
13	0x3d8f46f6	0.069959566
14	0xba8fc308	-0.0010968158
15	0x3d929de4	0.071590215
16	0xbc101b66	-0.008795595
17	0xbd0a0255	-0.03369363
18	0xbc9ec7c3	-0.019382363
19	0x3db8f823	0.09031703
20	0xbca4fa5e	-0.020138916
21	0xbe09c1ff	-0.1345291
22	0xbe2a69d9	-0.1664194
23	0x3d2c925d	0.04213177
24	0xbcd18c76	-0.025579672
25	0xba21dd78	-0.0006174664
26	0xbe11fc51	-0.14256407
27	0x3bc38a29	0.0059673977
28	0x3cfedfa8	0.031112507
29	0x3dd81684	0.105511695
30	0xbe1f0607	-0.15529643
31	0xbb7c89ca	-0.0038534277
32	0xbd5981ca	-0.053102292
33	0x3de23ecb	0.11047133
34	0xbd2f4798	-0.042792886
35	0xbdc83fe6	-0.09777813
36	0xbceae14a	-0.02867188
37	0x3df424d3	0.11921086
38	0xbe1dda3b	-0.1541528
39	0x3ddc2cb9	0.10750718
40	0xbd83a2e9	-0.06427557
41	0x3d6be7f4	0.057594255
42	0x3dd6f6f4	0.10496321
43	0xbde5dd05	-0.11223797
44	0xbddc1723	-0.107466005
45	0xbc8bdd97	-0.017073436
46	0x3bbd7dbc	0.005782811
47	0xba5ee720	-0.0008503068
48	0xbe0129fb	-0.1261367
49	0x3da998c4	0.08281091
50	0xbd8133ff	-0.063087456
51	0xbd2fe211	-0.042940203
52	0x3d5c11b5	0.053727824
53	0x3dbfed13	0.0937139
54	0xb93bc7f0	-0.00017908192
55	0x3db9cda8	0.09072429
56	0x3d255586	0.040364765
57	0x3d28b4b9	0.041187976
58	0x3db049da	0.08607836
59	0xbdfe9feb	-0.12432846
60	0x3db4c621	0.088268526
61	0x3df04c0b	0.11733254
62	0xbd50ef30	-0.051009357
63	0xbc1f767e	-0.009732841
64	0xbe20b93e	-0.15695664
65	0xbc25d2e8	-0.010121085
66	0xbd9345d5	-0.07191054
67	0x3d817971	0.06321991
68	0x3de72a46	0.1128736
69	0x3d82973f	0.06376504
70	0x3d258bf0	0.040416658
71	0x3dace402	0.084419265
72	0xbdcaf639	-0.099102445
73	0xbd98d024	-0.07461575
74	0x3d830fbc	0.063994855
75	0xbdc3a691	-0.095532544
76	0x3bd568be	0.0065127304
77	0x3dacc029	0.08435089
78	0xbe03197d	-0.12802692
79	0x3e2de7de	0.16982982
80	0x3db54afb	0.08852192
81	0xbd29f851	-0.04149658
82	0x3d9e1eb4	0.077207
83	0x3d80ceca	0.06289442
84	0x3dc1da9b	0.09465524
85	0xbc54a103	-0.012977841
86	0x3ce6241f	0.028093396
87	0xbd34d999	-0.04415283
88	0xbcf80568	-0.030276015
89	0x3cd4e677	0.0259888
90	0x3df93e2e	0.12170063
91	0x3df6c7a2	0.12049796
92	0xbdde30e6	-0.108491704
93	0x3ddd6dfe	0.10811995
94	0xbcc343ef	-0.023836104
95	0x3db5afec	0.08871445
96	0xbd59afcf	-0.05314618
97	0x3cf1a4c5	0.029497514
98	0x3dc2c49b	0.09510156
99	0x3d6efb5c	0.058345184
100	0xbd8dceae	-0.06924187
101	0xbddc5b04	-0.10759547
102	0xbd4f7bbd	-0.050655115
103	0x3b8a0cc3	0.004212947
104	0xbe2e0e92	-0.16997746
105	0xbda99fc9	-0.0828243
106	0x3da3fc44	0.080071
107	0xbd8c103e	-0.068390355
108	0x3dafb922	0.08580233
109	0x3dd5923d	0.10428283
110	0x3dbaeea0	0.09127545
111	0x3d9b367e	0.07578753
112	0xbd4ca0dd	-0.0499581
113	0x3ca94d96	0.020666879
114	0x3d1df0cd	0.038559724
115	0xbd944040	-0.07238817
116	0xbdcc8c80	-0.09987736
117	0xbe241eaf	-0.1602733
118	0x3bdaea74	0.006680781
119	0xbde64997	-0.11244505
120	0xbd9b306c	-0.07577595
121	0x3dbf5168	0.09341699
122	0xbdb15933	-0.086595915
123	0xbdfa70c9	-0.12228543
124	0xbd08f0c0	-0.033432722
125	0x3d828d97	0.06374662
126	0xb8952520	-7.111789e-05
127	0x3cbbc102	0.022919182
128	0xbd9f3818	-0.07774371
129	0xbd661658	-0.056173652
130	0x3db2b72f	0.08726346
131	0xbdc2a1d6	-0.09503524
132	0xbd81dce1	-0.063409574
133	0xbdbf535d	-0.09342072
134	0xbd1094fe	-0.03529834
135	0x3d89ddc9	0.06731755
136	0xbc259267	-0.010105706
137	0x3cf0209f	0.02931243
138	0xbda4295d	-0.08015702
139	0xbdf87674	-0.12131968
140	0xbd432a03	-0.047647487
141	0xbde47747	-0.11155563
142	0xbd923b07	-0.07140165
143	0xbd44297f	-0.047891136
144	0x3c8f3fc5	0.017486462
145	0xbd99d1b4	-0.07510701
146	0xbe0ac739	-0.1355256
147	0xbdab0214	-0.08350006
148	0x3cb05b55	0.021527926
149	0xbd9bf3d7	-0.07614868
150	0xbd5569bc	-0.05210279
151	0xbd752461	-0.059849147
152	0x3dd6aa55	0.10481707
153	0xbd46b116	-0.048508726
154	0xbe0f34ef	-0.13985036
155	0x3dfeec4e	0.12447415
156	0x3dcf4d1a	0.10122128
157	0xbd69f62b	-0.05711953
158	0x3d5bde85	0.053679008
159	0x3d6d6b91	0.05796391
160	0xbd9b338e	-0.07578193
161	0xbdd7ca27	-0.105366044
162	0xbd8a61bf	-0.06756925
163	0xbd634218	-0.055482954
164	0xbb65a42a	-0.0035040476
165	0xbd41e628	-0.047338635
166	0x3d284f0e	0.041091017
167	0x3e26ceef	0.16289876
168	0xbd88d363	-0.06680944
169	0xbdfe6df0	-0.12423313
170	0x3ddcdfa7	0.10784846
171	0x3d643e66	0.05572357
172	0x3cef6414	0.029222526
173	0xbccfde7b	-0.025374642
174	0xbe1c233f	-0.1524782
175	0x3b026acd	0.0019900084
176	0xbd9c3fee	-0.07629381
177	0xbe0895f7	-0.13338457
178	0xbca7dcd8	-0.020491049
179	0xbd84cfb7	-0.06484931
180	0x3bccc504	0.006249072
181	0xbda7c50d	-0.08191881
182	0x3c8ba4f0	0.017046422
183	0xbe0460fe	-0.12927625
184	0xbe17cd26	-0.14824352
185	0x3d5b9439	0.053608153
186	0x3d8144b2	0.06311931
187	0x3ddf3e61	0.1090057
188	0xbdf8070b	-0.12110718
189	0x3dd54f70	0.10415542
190	0xbe09d35f	-0.13459538
191	0x3cca7b8a	0.024717111
192	0xbd7c0485	-0.061527748
193	0xbc102ac2	-0.008799257
194	0x3de1d1c9	0.110263415
195	0xbdc6422b	-0.09680589
196	0x3dbf3b04	0.09337428
197	0xbd2cc72c	-0.042182133
198	0xbd4549da	-0.048166133
199	0xbd51484c	-0.05109434
200	0xbe0cb9ab	-0.13742702
201	0x3c82eb3b	0.015981307
202	0xbd4e839a	-0.050418474
203	0xbdfbc732	-0.12293853
204	0x3df0055a	0.11719771
205	0x3c074538	0.008256249
206	0xbe02655e	-0.12733981
207	0x3e0d2e57	0.13787208
208	0x3dc6f249	0.09714181
209	0x3d3cd671	0.046102945
210	0xbdae68ca	-0.08516081
211	0xbca449e2	-0.020054761
212	0xbe212b7a	-0.15739241
213	0x3ba97f79	0.0051726666
214	0x3d115971	0.03548569
215	0xbde5a0b2	-0.11212291
216	0x3bc6ef28	0.00607099
217	0xbdab2dc6	-0.0835834
218	0x3d2b14de	0.041767947
219	0xbe0cb686	-0.13741502
220	0x3d751abd	0.059839953
221	0x3d917d82	0.07104017
222	0xbdc20660	-0.09473872
223	0xbced90c4	-0.028999694
224	0xbdb60beb	-0.08888992
225	0xbdb0e49e	-0.08637355
226	0xbbb98712	-0.0056618536
227	0x3ca56c2c	0.020193182
228	0xbd9b0827	-0.07569914
229	0xbe10716e	-0.1410577
230	0x3bb0603c	0.005382566
231	0x3d2a71e3	0.041612517
232	0xbc91fdc5	-0.017821202
233	0xbd31bd51	-0.043393437
234	0xbd00da4a	-0.031458177
235	0x3dce2986	0.10066514
236	0x3dd4fe41	0.104000576
237	0xbe15fe9b	-0.14647906
238	0xbe11b9f0	-0.14231086
239	0xbd91dcf6	-0.07122223
240	0x3cc6104d	0.024177695
241	0xbd98f349	-0.07468278
242	0xbd324c6f	-0.043529924
243	0xbd030c5f	-0.03199422
244	0xbd6dd843	-0.05806757
245	0xbc5e4649	-0.013566562
246	0xbd881a82	-0.06645681
247	0xbdc60f88	-0.09670931
248	0xbd7d95fd	-0.061910618
249	0x3dba2fe7	0.09091168
250	0xbd9121fb	-0.070865594
251	0x3d79f6cd	0.061026383
252	0x3db7bf47	0.0897203
253	0xbdaaa7ab	-0.083327614
254	0x3d113110	0.03544718
255	0x3df937fd	0.12168882

lstm.weight_hh_l0 f4 [200, 50]
0	0x3e0a1a76	0.13486657
1	0x3e21fa01	0.15818025
2	0xbe03b03d	-0.12860198
3	0xbd345087	-0.04402211
4	0xbd0266ea	-0.031836428
5	0xbe094b6f	-0.13407682
6	0xbd68a614	-0.05679901
7	0x3cdcaf3c	0.026939027
8	0x3d94b98a	0.07261951
9	0x3de4c51a	0.11170407
10	0x3dc1d86b	0.094651066
11	0x3ddc98b9	0.10771317
12	0x3d9688cc	0.07350311
13	0xbd808f3a	-0.06277318
14	0xbe2949d4	-0.1653207
15	0x3d43dfaa	0.047820725
16	0xbc8a86ce	-0.016909983
17	0x3ddc00f1	0.10742367
18	0x3c59bdd8	0.013289891
19	0x3d809b7d	0.06279657
20	0x3df60568	0.1201275
21	0x3cb83f8a	0.022491235
22	0xbba9ada0	-0.0051781684
23	0xbdebc116	-0.115114376
24	0x3def0ffb	0.1167297
25	0xbdb0c4ba	-0.086312726
26	0xbda89bc1	-0.08232833
27	0xbdd79ba2	-0.105277315
28	0x3dce218e	0.10064994
29	0x3d5c2e71	0.053755227
30	0xbd972873	-0.07380762
31	0x3d7e1f2d	0.06204145
32	0xbcdc7a70	-0.026913851
33	0x3e0079d3	0.12546472
34	0x3d009074	0.03138776
35	0xbddab727	-0.10679465
36	0xbe0eceb8	-0.13946044
37	0xbdc5cdfe	-0.096584305
38	0xbdda0340	-0.10645151
39	0x3d64f8e5	0.055901427
40	0xbde29242	-0.11063053
41	0xbcb26668	-0.021777347
42	0xbc60b831	-0.01371579
43	0xbe0da7ff	-0.13833617
44	0xbd84049e	-0.06446193
45	0xbdba12bd	-0.09085605
46	0x3df0cb3c	0.11757514
47	0xbdf35906	-0.11882214
48	0xbd2dac02	-0.042400368
49	0xbdd0690a	-0.101762846
50	0x3e09f7b7	0.13473402
51	0xbd805c7b	-0.06267639
52	0x3d80538c	0.06265935
53	0x3dfbce3b	0.12295195
54	0x3dd85491	0.10563005
55	0x3ca7d465	0.02048702
56	0x3e046c80	0.12932014
57	0x3d2637b6	0.040580474
58	0xbda91465	-0.08255843
59	0xbd760f0c	-0.060072944
60	0x3e1562c0	0.14588451
61	0xbd9fec5b	-0.07808753
62	0xbe1c5cdd	-0.152698
63	0x3d8d3e9f	0.0689671
64	0x3dc00ac1	0.09377051
65	0x3d9bb33e	0.07602547
66	0xbdbc5316	-0.09195535
67	0x3d1d6519	0.038426492
68	0xbd2a8eaf	-0.04163998
69	0xbdb8c6e6	-0.09022312
70	0x3de41353	0.11136498
71	0x3dc3932b	0.095495544
72	0x3dae95b4	0.08524647
73	0x3d277be2	0.04088963
74	0x3daf7be2	0.08568551
75	0x3dea1150	0.11429083
76	0x3dfe5db0	0.12420213
77	0x3d003ca5	0.031307835
78	0xbdeb6162	-0.11493184
79	0x3d2cfc26	0.042232655
80	0xbca52748	-0.020160332
81	0x3c1357e4	0.008993123
82	0xbdee3c03	-0.1163254
83	0x3c2cbdfe	0.010543345
84	0x3e1de8ab	0.15420787
85	0xbd7e9358	-0.062152237
86	0x3dc47192	0.09591974
87	0xbda05faf	-0.0783075
88	0xbd9cb23e	-0.076511845
89	0xbce816ca	-0.02833118
90	0xbdce3865	-0.1006935
91	0x3da135ae	0.07871567
92	0x3ddf3c12	0.109001294
93	0x3db44d2e	0.08803783
94	0xbd04bf36	-0.032408915
95	0x3dfcf4fe	0.12351416
96	0xbc0039f5	-0.007826318
97	0x3d90678a	0.070509985
98	0x3b881342	0.0041526863
99	0x3de92c5f	0.11385416
100	0x3d02e5da	0.031957485
101	0x3d3986db	0.045294624
102	0xbd95d4db	-0.073159896
103	0xbddbd2e7	-0.10733586
104	0x3d313bbe	0.043269865
105	0xbdfb0225	-0.122562684
106	0x3ddf8310	0.1091367
107	0xbe2c94a8	-0.16853583
108	0x3d5641a7	0.052308705
109	0xbdabe011	-0.08392347
110	0xbdcdcbe3	-0.10048654
111	0xbd7d07ef	-0.061775144
112	0xbcb83d64	-0.02249021
113	0xbc7637cd	-0.015027952
114	0x3ca4235c	0.020036392
115	0x3dcc5552	0.09977211
116	0xbd631ea6	-0.05544915
117	0x3cd86040	0.026413083
118	0xbd1c6871	-0.03818554
119	0xbd2e15bd	-0.0425012
120	0xbc8f3c20	-0.017484725
121	0xbc572382	-0.013131024
122	0x3ce5c1c1	0.02804649
123	0xbb2366b5	-0.0024933044
124	0xbcb49494	-0.022043504
125	0x3e049800	0.12948608
126	0xbda77f92	-0.08178629
127	0x3e100c5a	0.14067212
128	0xbdd61f52	-0.104551926
129	0xbe0c00b7	-0.13672148
130	0xbe2dc6e9	-0.1697041
131	0xbdeda98d	-0.11604605
132	0xbd5838cd	-0.052788544
133	0x3d8fecff	0.07027625
134	0xbc6f3049	-0.014598914
135	0xbe0e67d3	-0.13906793
136	0x3d6cb132	0.057786174
137	0xbdd65e31	-0.10467184
138	0x3d5885cb	0.05286197
139	0xbdb12112	-0.08648886
140	0xbdb217a6	-0.08695917
141	0x3d518806	0.051155113
142	0xbd62c632	-0.055364795
143	0xbcee3699	-0.029078769
144	0xbcb3f1cd	-0.021965886
145	0xbdd9b3b4	-0.10629979
146	0x3c5164cf	0.012780382
147	0xbd1d9be1	-0.038478736
148	0xbb84db88	-0.0040544905
149	0xbd2c13f6	-0.042011224
150	0xbce6809e	-0.028137501
151	0xbe0c6ca4	-0.13713318
152	0x3d841810	0.06449902
153	0xbde33b86	-0.110953376
154	0xbcb07b82	-0.021543268
155	0xbcdf28d9	-0.027241157
156	0xbcdabcd6	-0.026701372
157	0xbb436418	-0.00298143
158	0xbced3fe9	-0.028961139
159	0xbd02e44d	-0.031956006
160	0x3d6f06ff	0.05835628
161	0xbda02c3f	-0.07820939
162	0x3d2a7b31	0.04162139
163	0x3dd9a8d8	0.106279075
164	0xbc406eba	-0.011745149
165	0x3cafda47	0.021466387
166	0xbc93f57e	-0.018061396
167	0x3dcc7a33	0.09984245
168	0x3e09f18d	0.1347105
169	0xbb5443df	-0.0032389087
170	0x3df7a167	0.12091332
171	0xbce02f27	-0.027366234
172	0xbd83a1d4	-0.06427351
173	0x3dfb633d	0.122747876
174	0xbd86abea	-0.06575759
175	0x3dc5d2e9	0.096593685
176	0x3cd34965	0.025791833
177	0x3d1cf76e	0.038321905
178	0x3d228ae8	0.039683253
179	0x3b321040	0.002717033
180	0xbe21b31a	-0.15790978
181	0x3d29a011	0.041412417
182	0xbda45db5	-0.08025686
183	0x3cf50f1a	0.029914428
184	0xbd6a89df	-0.05726039
185	0xbd37d790	-0.04488331
186	0xbc8ee68e	-0.017443921
187	0x3c2b36e9	0.010450103
188	0xbda562d7	-0.08075493
189	0xbdc94ccc	-0.09829101
190	0xbdcef779	-0.101057954
191	0xbddf8a52	-0.109150544
192	0xbdb6b88a	-0.08921917
193	0x3dca8625	0.09888867
194	0xbd64bee6	-0.055846117
195	0x3d87d829	0.06633026
196	0x3dc6ecf8	0.09713167
197	0x3d45a92f	0.04825705
198	0xbdaa104f	-0.08303892
199	0x3db15a30	0.0865978
200	0xbd4e95a7	-0.05043569
201	0x3ccee236	0.02525435
202	0x3d2c915d	0.042130817
203	0xbda11477	-0.078652315
204	0x3c5680c4	0.013092224
205	0x3d96e288	0.07367426
206	0x3d0d51a8	0.0345017
207	0xbc257fbf	-0.010101258
208	0x3c4ff79c	0.012693312
209	0x3dd1f53b	0.10251852
210	0xbd82b9bb	-0.063830815
211	0x3cbd3542	0.023096684
212	0xbd2a92a9	-0.041643772
213	0xbce97579	-0.028498398
214	0xbd16ae73	-0.03678746
215	0x3d191fe9	0.037383948
216	0x3e0a06a6	0.13479099
217	0x3d5c35ee	0.05376237
218	0xbc3f4546	-0.011674231
219	0x3c830292	0.015992437
220	0xbcacf69d	-0.021113688
221	0xbca5a293	-0.020219123
222	0x3db4d604	0.08829883
223	0x3dd61258	0.104527175
224	0x3db78a58	0.08961934
225	0xbd2eae8d	-0.042646933
226	0x3dd48e8a	0.1037875
227	0xbd2dcf8c	-0.04243426
228	0x3d2e5020	0.042556882
229	0x3d9f67bf	0.0778346
230	0xbc1c5caa	-0.009543577
231	0xbb0e037e	-0.0021669562
232	0x3dcc9244	0.099888355
233	0x3d088f88	0.033340007
234	0xbc1c73cc	-0.0095490925
235	0xbc87459a	-0.01651268
236	0xbdf45795	-0.119307674
237	0xbd71051f	-0.058842774
238	0xbdcb2b35	-0.099203505
239	0x3bbf6b38	0.005841639
240	0x3e173663	0.1476684
241	0xbd9b5e3c	-0.07586333
242	0xbe048a4a	-0.12943378
243	0x3de1e078	0.11029142
244	0xbce86c95	-0.028372088
245	0x3dd306c0	0.10304022
246	0x3d720646	0.059088014
247	0xbe28e708	-0.16494381
248	0x3d84d186	0.06485276
249	0xbdb6d18e	-0.08926688
250	0x3d8a9ef9	0.06768603
251	0x3d7a1a35	0.06106015
252	0x3d873cb0	0.06603372
253	0x3cec3299	0.02883272
254	0x3dcf88c6	0.10133509
255	0x3dd12360	0.10211825

lstm.bias_ih_l0 f4 [200]
0	0x3d65258f	0.05594402
1	0x3dab9f25	0.08379964
2	0xbdbf2cce	-0.09334718
3	0xbd669f9c	-0.05630456
4	0x3da9832f	0.082769744
5	0xbceae537	-0.028673751
6	0x3d4f1dfe	0.050565712
7	0x3e219b56	0.15781912
8	0x3d9eb3c4	0.07749131
9	0x3e04b770	0.12960601
10	0x3c7b0ccc	0.015322875
11	0x3dbcdb01	0.09221459
12	0x3df40297	0.119145565
13	0xbd0a3fca	-0.03375224
14	0x3dad9410	0.08475506
15	0x3cfe6d95	0.031058112
16	0x3d6cc3d2	0.057803936
17	0xbcb9ed95	-0.022696296
18	0xbdcc068e	-0.09962188
19	0xbe1d8510	-0.1538279
20	0xbc28419b	-0.010269548
21	0x3d0b90b3	0.034073543
22	0xb8f44a20	-0.000116486335
23	0x3e2fda64	0.17173153
24	0xbcd531c4	-0.026024707
25	0x3dd31fff	0.10308837
26	0xbcc14876	-0.023594122
27	0x3e319ff4	0.17346174
28	0xbd987af0	-0.074453235
29	0x3cf10f4b	0.029426238
30	0x3b041dd2	0.0020159376
31	0x3d9bb8f4	0.076036364
32	0xbdd084e1	-0.10181595
33	0xbccc9995	-0.024975577
34	0xbd11b3cc	-0.03557186
35	0x3e2d18f9	0.16904058
36	0xbde787ef	-0.11305224
37	0xbc8811a5	-0.016609976
38	0xbcad553b	-0.021158805
39	0xbc768ad8	-0.015047751
40	0x3cd12cf0	0.025534123
41	0x3d0ead8f	0.034833487
42	0x3e26b53e	0.16280076
43	0xbda069c9	-0.07832677
44	0xbd3107bf	-0.043220278
45	0x3db8b4eb	0.09018882
46	0x3ddae327	0.10687857
47	0xbde3f545	-0.11130766
48	0x3dc411b9	0.09573693
49	0x3c64e937	0.013971618
50	0xbd4c3732	-0.049857326
51	0x3e20fe79	0.15722074
52	0x3dc5e148	0.096621096
53	0x3d756f3a	0.059920527
54	0xbd9c340c	-0.07627115
55	0x3c73c80c	0.014879238
56	0xbd6253d4	-0.055255726
57	0x3e13bbc6	0.14427099
58	0xbd5d0e83	-0.053968918
59	0x3dac3ee8	0.08410436
60	0x3ce6e677	0.028186066
61	0x3c3f0826	0.011659658
62	0xbc55673b	-0.0130251
63	0xbd4f089e	-0.050545327
64	0xbd3576ba	-0.04430268
65	0x3e2a6335	0.16639407
66	0xbd84adb4	-0.06478444
67	0xbd68c070	-0.056824148
68	0xbd145840	-0.036216974
69	0xbd2ee8eb	-0.042702597
70	0x3d3cd79d	0.046104062
71	0xbb253efa	-0.002521454
72	0xbd778c1c	-0.060436353
73	0x3c9e800b	0.019348165
74	0x3db35a97	0.08757513
75	0xbde8a99c	-0.113604754
76	0x3dc11074	0.09426966
77	0xbc712ca1	-0.014720113
78	0x3d4f03df	0.0505408
79	0x3e00e70d	0.12588139
80	0x3e004fc0	0.12530422
81	0x3d581f87	0.05276444
82	0x3c3e8314	0.011627931
83	0x3df3fa3b	0.11912962
84	0x3e2824ed	0.16420336
85	0xbdc40d99	-0.09572906
86	0x3d857721	0.06516863
87	0x3d97589f	0.0738995
88	0xbe148c1a	-0.1450657
89	0xbd01d430	-0.0316965
90	0x3c58d2ca	0.01323385
91	0xbaf74bc2	-0.0018867182
92	0x3dabf60e	0.083965406
93	0xbdb30d79	-0.08742804
94	0xbbf9627e	-0.007610618
95	0xbd3b27e2	-0.045692332
96	0xbd881efa	-0.06646533
97	0x3da0255e	0.07819627
98	0xbca1195f	-0.019665418
99	0x3c9a31c2	0.018822554
100	0x3d90dcb8	0.07073349
101	0x3a819724	0.0009886962
102	0xbe07bdb6	-0.13255963
103	0xbdbaaefd	-0.091154076
104	0xbdfdc57d	-0.123911835
105	0xbe081189	-0.13287939
106	0x3d5f19da	0.054468013
107	0xba9e286b	-0.0012066489
108	0xbcbf1fd4	-0.023330607
109	0x3df899e7	0.121387295
110	0x3d527c74	0.05138822
111	0x3d9d98fc	0.07695195
112	0xbdc6dd30	-0.09710157
113	0x3e1c6912	0.15274456
114	0xbc9b1b14	-0.01893381
115	0x3dc0fa2f	0.09422719
116	0x3da5ea76	0.081013605
117	0x3a59c318	0.00083069643
118	0xbd7d263b	-0.061804038
119	0xbdab4fb2	-0.0836481
120	0xbcdf7c4d	-0.02728095
121	0x3cb26c35	0.021780113
122	0xbd224fa4	-0.039626732
123	0x3e0f782c	0.14010686
124	0xbd030a3d	-0.031992186
125	0x3d7a5c1d	0.061123002
126	0xbd659c09	-0.05605701
127	0x3dc90aa8	0.09816486
128	0xbde2ad6b	-0.11068233
129	0xbdaf5602	-0.085613266
130	0x3b1459c0	0.0022636503
131	0xbded654d	-0.11591587
132	0xbbe9e6d7	-0.007138114
133	0xbe30ffad	-0.17285033
134	0x3e1442ee	0.14478657
135	0x3d51f95b	0.051263195
136	0xbd19a104	-0.037507072
137	0xbd97d7bd	-0.07414196
138	0x3b34ec82	0.002760679
139	0x3ccbdf5a	0.024886776
140	0x3deaea7f	0.11470508
141	0xba99b655	-0.0011727313
142	0xbe2b3aeb	-0.16721694
143	0xbacea805	-0.0015766626
144	0x3c5779c0	0.013151586
145	0xbdde777c	-0.108626336
146	0xbe1ca21a	-0.15296212
147	0xbdffa7a1	-0.124831446
148	0x3d1e6382	0.038669117
149	0x3d955432	0.072914496
150	0x3d4b26c9	0.049597535
151	0x3e298988	0.1655637
152	0x3d0f94a1	0.035053853
153	0xbcc3ea5b	-0.02391546
154	0x3bcf9a29	0.006335516
155	0x3d91f1e5	0.07126216
156	0x3d6b063d	0.057378996
157	0x3e2077b8	0.15670669
158	0x3acdff29	0.0015716302
159	0x3df704f8	0.120614946
160	0x3d4cc7c1	0.049995188
161	0xbe1a51c4	-0.15070254
162	0x3c8ede39	0.017439948
163	0xbc9a5162	-0.018837634
164	0xbcc8cdf1	-0.024512263
165	0xbc2431d6	-0.010021647
166	0x3c9c42d9	0.019074844
167	0x3dc93626	0.09824781
168	0xbd692bad	-0.056926418
169	0xbda6683b	-0.08125349
170	0x3d6c84da	0.057743885
171	0xbdeaf34f	-0.11472189
172	0xbdcfb7b6	-0.10142462
173	0x3e0066fa	0.12539282
174	0x3e3ca6cf	0.18423007
175	0xbc47ba97	-0.012190483
176	0x3e0dff59	0.13866939
177	0x3ccd8bb8	0.025091037
178	0xbb4aea40	-0.0030962378
179	0xbe015c9b	-0.12632982
180	0x3bab6109	0.0052300734
181	0xbcf33264	-0.029687114
182	0x3df1f710	0.118147016
183	0xbd8c2978	-0.06843847
184	0x3e0f42c9	0.1399032
185	0x3de0837f	0.10962581
186	0xbd676bc2	-0.05649925
187	0xb7b25580	-2.1259068e-05
188	0xbd25aa86	-0.040445827
189	0x3e0cb3e2	0.13740495
190	0x3dc8da94	0.098073155
191	0xbd5a9ea5	-0.05337395
192	0x3c19d20f	0.009388461
193	0x3de20832	0.110367194
194	0xbdb12ec2	-0.086514965
195	0x3d5a86f3	0.053351354
196	0xbba1c938	-0.004937317
197	0xbd69dfc5	-0.05709817
198	0x3dc6028a	0.09668453
199	0xbcaed54c	-0.021341942

lstm.bias_hh_l0 f4 [200]
0	0x3dba3098	0.090913
1	0xbdaaeedf	-0.08346342
2	0xbda200ce	-0.0791031
3	0xbd8b76ca	-0.068097666
4	0x3cf5fc60	0.030027568
5	0xbd807137	-0.06271594
6	0x3e30523c	0.1721887
7	0x3db11b31	0.086477645
8	0x3de09735	0.109663405
9	0xbd6439b6	-0.0557191
10	0xbd8c6aaa	-0.06856282
11	0xbd43dd94	-0.047818735
12	0xbd94bc19	-0.07262439
13	0xbd1053a8	-0.03523603
14	0x3d127c35	0.035762984
15	0xbd68e4e3	-0.05685891
16	0xbbe36a93	-0.006940195
17	0xbc00ec0a	-0.007868776
18	0xbc1a36f4	-0.009412516
19	0xbdbfb192	-0.09360041
20	0x3d0b8f1b	0.034072023
21	0x3dd31633	0.103069685
22	0xbdc995bb	-0.09843012
23	0x3cc05670	0.023478717
24	0x3df7bc3b	0.12096449
25	0xbc71628e	-0.01473297
26	0x3dbc4ad5	0.091939606
27	0x3c713af4	0.014723528
28	0xbd9d94fb	-0.076944314
29	0x3e208fb7	0.15679823
30	0xbda00aad	-0.07814536
31	0xbd3f398f	-0.04668575
32	0xbdff2f0d	-0.12460146
33	0x3ddaa6a3	0.10676315
34	0xbd5755c2	-0.05257202
35	0x3deebc21	0.116569765
36	0xbca00ee2	-0.019538347
37	0xbdb4983b	-0.08818098
38	0xbaa70470	-0.0012742411
39	0xbd9f7fb0	-0.07788026
40	0x3c9a18b8	0.018810615
41	0x3c7e33d1	0.015515284
42	0x3d026f4e	0.03184443
43	0x3e456729	0.19277634
44	0xbe0f5d65	-0.14000471
45	0x3d9f19bf	0.077685826
46	0xbd5ff739	-0.05467913
47	0x3dc6ea67	0.097126774
48	0xbd08e12b	-0.033417862
49	0x3d02e964	0.03196086
50	0x3c86dd17	0.016462846
51	0x3dc815f3	0.097698115
52	0x3df4a05c	0.119446486
53	0xbbf1327c	-0.0073607545
54	0x3e115654	0.14193088
55	0xbe15a820	-0.14614916
56	0x3e1c5039	0.15264978
57	0xbb926d22	-0.004468576
58	0xbcb6361b	-0.022242596
59	0x3c5e15e6	0.013555026
60	0x3c47b492	0.012189047
61	0x3da8f3f3	0.082496546
62	0x3dd9b5dd	0.10630391
63	0x3dd9cbef	0.106346
64	0xbdb4780e	-0.08811961
65	0xbca3babe	-0.019986507
66	0x3e0ab11b	0.13544123
67	0xbded4ec1	-0.11587287
68	0xbd0bbdc3	-0.034116518
69	0xbdbc44a4	-0.0919278
70	0x3dd39155	0.10330454
71	0x3d2ff3a4	0.042956963
72	0x3dfd10cf	0.123567216
73	0xbd9e5ba8	-0.07732326
74	0xbd4b909e	-0.049698465
75	0xbd2c2acb	-0.042032998
76	0xbc5b5d0e	-0.013388885
77	0x3d271e76	0.040800534
78	0xbd06c407	-0.03290179
79	0xbd89532a	-0.067053154
80	0x3db127f9	0.08650202
81	0xbcfe458f	-0.031039027
82	0x3d03c531	0.03217048
83	0xbd546f32	-0.051863857
84	0x3cd1195b	0.025524786
85	0x3e207819	0.15670814
86	0x3cffc0fb	0.03121995
87	0x3d8e9e28	0.0696376
88	0x3ceeb32a	0.029138166
89	0x3dd021d7	0.101627044
90	0xbd1cdafa	-0.03829477
91	0x3d16aacb	0.036783975
92	0x3d473b56	0.04864057
93	0xbc938ce5	-0.01801152
94	0xbe121972	-0.14267519
95	0x3dc787e1	0.09742714
96	0x3d8015f2	0.06254186
97	0xbdc5fa38	-0.09666866
98	0x3c8e2404	0.017351158
99	0x3c3a1552	0.011357622
100	0x3cf643f4	0.0300617
101	0xbdd39bb5	-0.10332433
102	0xbe08dc74	-0.13365346
103	0x3d91d6f5	0.07121078
104	0xbcec5cc7	-0.028852833
105	0xbdc81f8d	-0.09771643
106	0x3d952914	0.07283226
107	0xbde5ee0c	-0.112270445
108	0x3d703abb	0.05864976
109	0x3d6dedd6	0.058088146
110	0x3cb4a51f	0.022051392
111	0x3db37f84	0.08764556
112	0x3d4761ad	0.048677135
113	0x3dfe05d3	0.12403455
114	0xbd800f7e	-0.06252955
115	0x3ccd2329	0.02504118
116	0x3d5256a9	0.051352177
117	0x3e31ffa3	0.17382674
118	0x3ca49b72	0.020093653
119	0xbcfc840d	-0.030824685
120	0x3e15cfca	0.14630046
121	0xbdcba169	-0.09942896
122	0x3d52610c	0.051362082
123	0x3d628197	0.055299368
124	0xbd48fce4	-0.0490693
125	0x3da0d2ed	0.07852731
126	0xbd72e2c8	-0.059298307
127	0x3ce10b8a	0.027471323
128	0xbd8cdd29	-0.068781205
129	0xbd7def71	-0.061995927
130	0xbe0d1e59	-0.13781108
131	0xbd783316	-0.060595594
132	0x3d5a22e0	0.053255916
133	0x3dae684c	0.08515987
134	0xbd30fed8	-0.043211788
135	0xbde5d014	-0.112213284
136	0xbdc393e8	-0.09549695
137	0x3e2b7332	0.16743162
138	0x3c8fbe61	0.017546834
139	0xbdb9c1db	-0.09070178
140	0x3e06c774	0.13162023
141	0xbd92c274	-0.07165995
142	0xbe1d602b	-0.15368716
143	0x3d82431f	0.063604586
144	0xbd91e9ce	-0.07124673
145	0xbd9226e4	-0.07136324
146	0xbd1de68d	-0.03854995
147	0xbda2111f	-0.07913422
148	0xbd9bf4c9	-0.076150484
149	0xbd49942b	-0.04921357
150	0xbc95fc37	-0.018308742
151	0x3d45e4fb	0.048314076
152	0x3d214f20	0.0393821
153	0x3e1bdb7c	0.15220445
154	0xbdd339bd	-0.10313747
155	0xbd3f8967	-0.046761896
156	0x3e054154	0.13013202
157	0x3c83c71d	0.016086156
158	0x3de65f70	0.11248672
159	0xbdc0c214	-0.094120175
160	0x3bedf2f0	0.0072616264
161	0xbd98b4f4	-0.07456389
162	0xbd973628	-0.07383376
163	0x3dd9d2b1	0.10635889
164	0x3ccebdc4	0.025236972
165	0x3dcccce9	0.10000021
166	0x3e2aca5e	0.1667876
167	0xbb5bf2bb	-0.0033561427
168	0x3d624e4d	0.055250455
169	0x3d60aa80	0.0548501
170	0x3d6ed2ba	0.058306433
171	0xbd1bbe58	-0.038023323
172	0xbd3baf70	-0.045821607
173	0xbcf56c03	-0.02995873
174	0x3d41188d	0.047142554
175	0x3c6d98e9	0.014501789
176	0xbde3b360	-0.111181974
177	0x3d2dac83	0.042400848
178	0x3e18a590	0.14906907
179	0x3dd2ddeb	0.10296234
180	0x3e154274	0.14576131
181	0x3d228d21	0.039685372
182	0xbd51d5c3	-0.05122925
183	0xbd91da98	-0.071217716
184	0x3e1237aa	0.14279047
185	0x3e1fcd7a	0.15605727
186	0x3d7ceca6	0.061749123
187	0xbdce2f52	-0.100676194
188	0xbdc74a78	-0.09731001
189	0x3d04db7a	0.03243587
190	0x3df13ed8	0.117795646
191	0x3d8c551d	0.068521716
192	0x3e3b0ece	0.18267366
193	0xbdaa42cc	-0.08313522
194	0xbd3ce195	-0.04611357
195	0xbdc94f3f	-0.09829568
196	0x3e122929	0.14273514
197	0x3e1898a8	0.14901984
198	0xbcc6c52f	-0.024263946
199	0x3aa1e6f6	0.0012352157

lstm.weight_ih_l1 f4 [200, 50]
0	0x3d8a8c1c	0.06765005
1	0xbe27fb87	-0.16404544
2	0xbd7e724b	-0.062120717
3	0x3d8a4737	0.067518644
4	0x3daf5d23	0.08562686
5	0x3d595133	0.053055953
6	0xbcdb0a3c	-0.026738279
7	0xbe3cbd15	-0.18431504
8	0x3d94d2f7	0.07266801
9	0xbdb86e71	-0.0900544
10	0xbd7cfa5f	-0.06176221
11	0x3d1efb72	0.038814016
12	0xbdf24a0c	-0.118305296
13	0x3d152eae	0.03642147
14	0x3e301c31	0.17198254
15	0x3bd8bb0c	0.0066140946
16	0xbd59d883	-0.053184997
17	0x3dbe1832	0.09281959
18	0x3e3607ca	0.17776409
19	0x3db2db9b	0.08733293
20	0x3cbcf48e	0.023065832
21	0xbdd30c30	-0.10305059
22	0x3bd5749f	0.0065141465
23	0x3e09eee8	0.13470042
24	0x3daa6df8	0.08321756
25	0xbd904a52	-0.070454255
26	0x3dceec5b	0.10103675
27	0x3e014447	0.12623702
28	0xbda713a3	-0.08158042
29	0x3d9eaaa5	0.077473916
30	0xbe15d8d2	-0.14633492
31	0xbc9d6b98	-0.019216344
32	0xbccc35b2	-0.024927948
33	0xbe09d1b2	-0.13458899
34	0xbdc4d346	-0.0961061
35	0x3d85ea4e	0.06538831
36	0xbdf8abac	-0.12142119
37	0xbe1cf11a	-0.15326348
38	0xbe3ac3e6	-0.18238792
39	0xbe186bc9	-0.14884867
40	0xbdcfd196	-0.10147397
41	0x3ddbf9a6	0.10740976
42	0xbd96731f	-0.07346176
43	0x3de3418c	0.110964864
44	0xbe0198c2	-0.12655929
45	0xbcb14af5	-0.021642188
46	0xba1ef6c4	-0.00060639926
47	0x3d8c5934	0.06852952
48	0x3d8b2205	0.06793598
49	0x3da78414	0.08179489
50	0x3da7ec7e	0.08199404
51	0xbe22b71c	-0.15890163
52	0x3d462fae	0.048385315
53	0xbd9f834a	-0.07788713
54	0x3d0a137a	0.03370998
55	0x3d994881	0.07484532
56	0xbce8cc55	-0.028417746
57	0xbd14b599	-0.036305998
58	0x3dc7aa32	0.09749259
59	0x3cb6436d	0.022248948
60	0xbd8c706d	-0.06857381
61	0xbcab29b9	-0.020893918
62	0x3d3f1d62	0.04665888
63	0x3dea050c	0.11426744
64	0x3d6d5270	0.057939947
65	0x3d356488	0.044285327
66	0xbc1b8108	-0.009491213
67	0x3e0c1d41	0.13683034
68	0x3e205cb8	0.1566037
69	0x3d479300	0.048724174
70	0x3cd9a366	0.026567172
71	0x3d228a24	0.039682522
72	0x3e0f1f84	0.13976866
73	0xbdfaec34	-0.122520834
74	0xbd8307c6	-0.06397967
75	0xbd9f75aa	-0.077861145
76	0x3ddd76c8	0.10813671
77	0xbcae0ba1	-0.02124578
78	0x3da6e287	0.081486754
79	0xbdfe9838	-0.12431377
80	0x3e0589eb	0.13040893
81	0x3c544958	0.01295694
82	0x3d9c6b5a	0.07637663
83	0x3d91d734	0.07121125
84	0x3da547eb	0.08070358
85	0x3cb1b3af	0.021692125
86	0x3af54d2e	0.0018715018
87	0x3cd3230c	0.025773548
88	0x3dad8168	0.08471948
89	0x3d242431	0.040073577
90	0x3cf4419d	0.029816443
91	0x3be22c0e	0.0069022244
92	0x3d6c79d5	0.057733376
93	0xbda98869	-0.08277971
94	0xbe1ee839	-0.15518273
95	0xbdd472fd	-0.10373495
96	0x3cdf70fd	0.027275557
97	0xbce0cee2	-0.0274424
98	0x3c9b7fa6	0.018981766
99	0x3e06d718	0.13167989
100	0xbe0c57ca	-0.13705364
101	0xbda5c0a6	-0.080933854
102	0x3cac02ea	0.020997483
103	0xbdedf70f	-0.11619388
104	0xbda661e6	-0.081241414
105	0x3c7085d8	0.014680348
106	0x3d09a598	0.033605188
107	0xbca6d58f	-0.020365505
108	0x3e09f095	0.13470681
109	0xbb5c1045	-0.0033579033
110	0xbb6dc75f	-0.0036282165
111	0xbdac208f	-0.084046476
112	0x3d919ef4	0.07110396
113	0xbd71aa8d	-0.05900054
114	0xbcef2704	-0.029193409
115	0x3d8ce0f4	0.06878844
116	0xbc19caf4	-0.009386767
117	0x3deddf54	0.11614862
118	0xbd98bcb5	-0.07457868
119	0xbc5a586d	-0.013326746
120	0xbde66ed9	-0.11251611
121	0x3db34ae4	0.08754519
122	0x3ced4526	0.028963637
123	0x3dfd5d28	0.12371284
124	0xbe377c2c	-0.17918462
125	0x3d059afc	0.032618508
126	0xbdca04e5	-0.09864215
127	0x3e1b7dd8	0.15184724
128	0x3d7bd8dd	0.061486114
129	0xbdd6c09d	-0.10485957
130	0x3da03ee4	0.078244954
131	0xbd3521e1	-0.044221763
132	0xbc8f2746	-0.017474782
133	0x3d6cf991	0.057855193
134	0xbd283ffb	-0.04107664
135	0xbdcc4756	-0.09974544
136	0xbcabfe2b	-0.02099522
137	0x3d85ac21	0.065269716
138	0xbd0fd874	-0.035118535
139	0x3ca2f651	0.019892843
140	0x3d8ee81d	0.06977866
141	0xbd0efebc	-0.034910902
142	0x3d9a6358	0.075384796
143	0x3d6c91b7	0.057756152
144	0x3d9f4b99	0.07778091
145	0xbde8c341	-0.11365367
146	0x3db3450f	0.08753406
147	0xbca4eda6	-0.02013285
148	0x3de5ed81	0.11226941
149	0xbcf7697c	-0.030201666
150	0x3d9f37d8	0.07774323
151	0x3ce8b69b	0.028407386
152	0xbcbf333b	-0.023339858
153	0x3dc09dff	0.09405135
154	0xbdafab51	-0.08577598
155	0x3e135fb9	0.14391984
156	0x3df0e786	0.117629096
157	0x3dd42f3d	0.103605725
158	0xbdda56ac	-0.106610626
159	0xbd27a0dd	-0.040924896
160	0xbcd7dd18	-0.026350543
161	0xbc4d3d35	-0.0125268
162	0x3c42f394	0.011898894
163	0xbc9b91a8	-0.018990353
164	0x3d67743f	0.056507345
165	0x3deee685	0.11665062
166	0x3da721f2	0.081607714
167	0xbcd52dd5	-0.026022831
168	0x3de76470	0.11298454
169	0x3e04fa7f	0.12986182
170	0xbd86f9c3	-0.06590607
171	0xbd8e7173	-0.069552325
172	0xbd36be91	-0.044615332
173	0x3df884e5	0.121347226
174	0x3e145ed2	0.14489296
175	0x3dd4d741	0.10392619
176	0xbded33ca	-0.115821436
177	0xbda26853	-0.079300545
178	0x3d93abe3	0.07210519
179	0xbc1a6690	-0.009423867
180	0x3bd66a21	0.0065434133
181	0xbd23a86e	-0.03995555
182	0x3df5da19	0.120044895
183	0xbdb37319	-0.087621875
184	0x3d9b3c42	0.07579853
185	0x3c327272	0.010891544
186	0x3d6b99df	0.05751979
187	0x3da2d55f	0.079508536
188	0x3d6ca2a9	0.057772312
189	0x3d4070a7	0.046982434
190	0xbd4e3a5e	-0.050348632
191	0xbdeca393	-0.11554637
192	0x3d287157	0.041123714
193	0x3ddc745e	0.10764383
194	0xbdce0c6e	-0.100609645
195	0xbddfd9bc	-0.109302014
196	0x3d49e250	0.049288094
197	0x3ddcd182	0.10782148
198	0xbdae7fc0	-0.0852046
199	0xbe1f72ef	-0.15571187
200	0xbaf6e502	-0.001883656
201	0x3a9675ae	0.0011479163
202	0x3e02e638	0.12783134
203	0xbcac3d6c	-0.021025382
204	0x3dbd7669	0.092511006
205	0x3d90292e	0.070391044
206	0x3d5199bc	0.051172003
207	0xbdf0597b	-0.11735817
208	0x3e180209	0.14844526
209	0x3d093c4f	0.03350478
210	0x3c828798	0.015933797
211	0xbb848db5	-0.004045213
212	0x3dd66690	0.10468781
213	0x3e0c1f1b	0.13683741
214	0x3da3a41d	0.079902865
215	0x3c541317	0.0129440045
216	0xbdab515c	-0.083651274
217	0x3db401cc	0.08789405
218	0xbd7a039e	-0.061038606
219	0x3c1c7a17	0.009550593
220	0x3de5e4d4	0.11225286
221	0x3e02582c	0.12728947
222	0xbd3853a9	-0.04500166
223	0x3d256c33	0.04038639
224	0x3df56cb2	0.119836226
225	0xbd9be096	-0.07611196
226	0xbbc4fbb6	-0.0060114516
227	0xbccdf1d0	-0.02513972
228	0x3d80ca70	0.06288612
229	0x3cda8f4c	0.026679657
230	0x3e0570ac	0.13031262
231	0xbc33415c	-0.010940876
232	0xbd726f85	-0.059188385
233	0x3dd927be	0.10603283
234	0x3df6779f	0.12034535
235	0x3deb2a75	0.114827074
236	0x3dbbe328	0.09174186
237	0xbda7443a	-0.0816731
238	0x3d63d24c	0.055620477
239	0xbe18894a	-0.14896122
240	0x3ded56b9	0.11588807
241	0x3a897596	0.0010487314
242	0x3e0b005f	0.1357436
243	0x3e163194	0.1466735
244	0xbd493ebc	-0.049132094
245	0xbd07c5ed	-0.03314774
246	0x3d97a6a5	0.07404832
247	0xbda1e78c	-0.07905492
248	0xbe130374	-0.14356786
249	0x3d34597c	0.04403065
250	0x3d8686a3	0.06568649
251	0x3c756c16	0.014979383
252	0xbcf34084	-0.02969385
253	0xbddafe2f	-0.10693013
254	0x3da5cd33	0.08095779
255	0xbdcc5666	-0.09977417

lstm.weight_hh_l1 f4 [200, 50]
0	0x3cd5e780	0.026111364
1	0xbd6e743e	-0.058216326
2	0xbe022c7d	-0.12712283
3	0xbdc64245	-0.09680609
4	0xbc0b5085	-0.008503084
5	0xbc5fb1af	-0.013653203
6	0xbc6e489a	-0.014543677
7	0xbd93830e	-0.07202731
8	0xbe0ca2c1	-0.1373396
9	0xbdc66590	-0.0968734
10	0x3dc2b125	0.09506444
11	0xbdd9050c	-0.10596666
12	0xbe144f57	-0.14483391
13	0x3c864308	0.016389385
14	0xbc9e4584	-0.019320257
15	0x3ce65064	0.028114505
16	0xbd221ae8	-0.03957644
17	0x3d99f213	0.07516875
18	0xbb8b3aac	-0.0042489376
19	0xbdeed450	-0.11661589
20	0x3d41f4fc	0.047352776
21	0x3c115894	0.008871216
22	0xbe043f79	-0.12914838
23	0xbda8cc64	-0.082421094
24	0x3e1838e8	0.14865458
25	0xbb890b44	-0.004182251
26	0x3df5b791	0.11997903
27	0x3d79da26	0.06099906
28	0xbd267299	-0.040636633
29	0x3d1dc4ed	0.03851788
30	0xbdad1d64	-0.084528714
31	0xbd574416	-0.052555166
32	0x3e18ea63	0.14933161
33	0x3d8ad9ce	0.06779824
34	0x3ce3d677	0.027812226
35	0x3d061708	0.032736808
36	0xbd05b24b	-0.032640737
37	0x3da8108d	0.08206282
38	0xbe284cff	-0.16435622
39	0xbd1d2abd	-0.038370837
40	0x3dbb6e30	0.09151876
41	0xbda5aefe	-0.08090018
42	0xbd48d426	-0.049030446
43	0x3ddb0127	0.10693579
44	0x3df6f7c4	0.12058976
45	0xbd3f43d3	-0.04669554
46	0xbdbdeaa9	-0.092732735
47	0xbd3dec25	-0.046367783
48	0xbcb1a24c	-0.021683834
49	0xbbd5a67a	-0.0065200897
50	0x3d87ce48	0.06631142
51	0x3d4cef22	0.050032742
52	0xbe295e08	-0.16539776
53	0xbd122cca	-0.035687245
54	0x3db0a9c3	0.086261295
55	0x3c29e509	0.010369548
56	0xbd24de36	-0.04025098
57	0x3d257455	0.040394146
58	0x3c09ee53	0.008418637
59	0xbd9c9863	-0.07646253
60	0xbd6c9f88	-0.05776933
61	0x3c86fb8c	0.016477369
62	0xbc93a0ee	-0.018021073
63	0xbcec613f	-0.028854964
64	0xbc95f42c	-0.018304907
65	0x3dfcf229	0.12350876
66	0x3e1472d7	0.14496933
67	0x3c7cc3f0	0.0154275745
68	0x3d0d6d07	0.034527805
69	0x3d54bf5f	0.05194032
70	0x3e03b7e7	0.12863122
71	0x3dd5bd8f	0.10436546
72	0xbdacc302	-0.08435632
73	0xbd90fff7	-0.070800714
74	0x3e0d1116	0.13776049
75	0x3e2c7583	0.16841702
76	0x3d850e4c	0.064968675
77	0x3dfcf698	0.123517215
78	0xbd5c64ac	-0.053806946
79	0xbbb3463b	-0.0054710186
80	0xbdb35d27	-0.08758002
81	0x3d82a553	0.06379189
82	0x3c625b0a	0.013815651
83	0x3d264b29	0.040599022
84	0xbc7c7bef	-0.015410407
85	0xbe0ba406	-0.13636789
86	0x3cd6b65d	0.026210004
87	0x3caf45bd	0.021395558
88	0x3c894872	0.016758177
89	0xbddff32b	-0.109350525
90	0x3dadf4c1	0.08493949
91	0x3c2685c2	0.010163726
92	0x3cd4cbb1	0.025976034
93	0x3e252183	0.16126065
94	0x3d921891	0.07133592
95	0xbd05b80f	-0.032646235
96	0xbde8c545	-0.11365751
97	0xbdd098b8	-0.10185379
98	0x3d7de3cd	0.061984826
99	0xbdcf8342	-0.10132457
100	0xbca15738	-0.01969491
101	0x3da130ff	0.078706734
102	0x3de7e06e	0.113221034
103	0xbc1a6eeb	-0.009425859
104	0x3de0778a	0.109603
105	0xbdc4595f	-0.09587359
106	0x3da18f2b	0.07888635
107	0xbe0f51d2	-0.13996056
108	0xbcd83851	-0.026394041
109	0xbd16e061	-0.03683508
110	0xbd3fcce3	-0.046826255
111	0x3dbeda49	0.09318978
112	0xbdb52b44	-0.08846143
113	0xbe056df8	-0.13030231
114	0x3d94dcb1	0.07268656
115	0x3d8568df	0.06514143
116	0xbd864331	-0.065557845
117	0x3db1b8c5	0.0867782
118	0x3dcd69f5	0.10029975
119	0xbe0108ea	-0.12601057
120	0xbd69d72d	-0.057089973
121	0x3e0fc506	0.14040002
122	0xbc46a49d	-0.012124208
123	0x3db8ec92	0.09029497
124	0x3dd6d13a	0.104891255
125	0x3e0f83cb	0.14015119
126	0x3e145604	0.14485937
127	0x3d3ee3e5	0.046604056
128	0x3dac5306	0.08414273
129	0x3d1c04a3	0.03809036
130	0x3d911779	0.07084555
131	0x3c11fdb2	0.008910583
132	0x3da9a9ed	0.08284364
133	0xbd4960c5	-0.049164552
134	0x3da77059	0.081757255
135	0xbe177721	-0.14791538
136	0xbdefb398	-0.11704177
137	0xbde71e22	-0.11285044
138	0xbc8006a4	-0.015628166
139	0xbd9dc80c	-0.077041715
140	0x3db2e176	0.087344095
141	0xbd876a71	-0.06612099
142	0xbcaba15b	-0.020950964
143	0xbc757fa4	-0.014984045
144	0x3d27eab4	0.040995315
145	0xbb150879	-0.0022740646
146	0xbd5d99d6	-0.054101788
147	0xbdc19d65	-0.09453849
148	0x3c26d371	0.0101822475
149	0x3dd8418a	0.105593756
150	0xbda77770	-0.08177078
151	0x3e00cfe2	0.12579301
152	0x3da5ca85	0.08095268
153	0xbc1c48db	-0.0095388545
154	0xbe07ec8d	-0.1327383
155	0xbc841148	-0.016121522
156	0x3d13a24b	0.036043447
157	0xbd28cd82	-0.041211613
158	0xbda15171	-0.07876862
159	0xbdda3f8c	-0.10656652
160	0xbd9b297e	-0.075762734
161	0x3d47b1dc	0.048753604
162	0x3df2ea6e	0.1186112
163	0xbd2ed843	-0.042686712
164	0x3b2043b7	0.0024454424
165	0xbdc09565	-0.09403495
166	0x3d3706e1	0.044684295
167	0xbd859ad3	-0.06523671
168	0x3d7e1d2e	0.062039547
169	0xbd22974b	-0.039695065
170	0xbdca1cf1	-0.098688014
171	0xbda66abd	-0.081258275
172	0x3daece1b	0.08535405
173	0xbd253abd	-0.04033922
174	0xbddeb4bc	-0.10874316
175	0x3da03a25	0.0782359
176	0x3e021779	0.12704267
177	0x3dc2fa97	0.095204525
178	0x3df2e00a	0.11859138
179	0xbd7e720f	-0.062120494
180	0xbdbfe2bf	-0.0936942
181	0x3cc018f2	0.023449395
182	0x3cf82ffb	0.030296316
183	0xbd118e82	-0.035536297
184	0x3d150647	0.03638294
185	0xbd79660f	-0.060888346
186	0x3dc695fd	0.09696577
187	0x3d98a97f	0.07454204
188	0xbceae0f9	-0.028671728
189	0xbdfde3e7	-0.123969845
190	0x3d0c0aea	0.034190096
191	0xbc967357	-0.018365545
192	0xbde7bbda	-0.11315127
193	0x3ba29c9b	0.0049625165
194	0x3cb1c2c8	0.021699324
195	0x3d2b36c9	0.041800294
196	0xbc35be90	-0.011092797
197	0xbd291a9f	-0.041285153
198	0xbc3e99e6	-0.011633372
199	0xbc98c51c	-0.018648677
200	0xbba08c78	-0.0048995577
201	0x3d653024	0.055954114
202	0x3de4409e	0.11145137
203	0xbd0c9a64	-0.034326926
204	0x3a9c637d	0.0011931505
205	0xbe1505db	-0.14553015
206	0x3ca50cd9	0.020147728
207	0xbc3ec18a	-0.011642823
208	0xbb46966b	-0.0030302058
209	0x3dea7099	0.114472575
210	0xbd7ea14f	-0.062165555
211	0xbd7cdd83	-0.061734688
212	0xbc6e1c0e	-0.014533056
213	0xbd4e5328	-0.050372273
214	0xbdf5c518	-0.12000483
215	0x3e20cb4b	0.1570255
216	0x3d92b2a5	0.0716298
217	0xbcda3f6e	-0.026641574
218	0xbb1d9299	-0.0024043678
219	0xbd578f5b	-0.05262695
220	0xbe023317	-0.12714802
221	0xbd3d1336	-0.0461609
222	0x3d7c79f8	0.061639756
223	0x3d03ba07	0.03215983
224	0xbb071fc2	-0.0020618294
225	0x3dba4cf5	0.0909671
226	0x3e02375d	0.12716432
227	0xbd9a2e3f	-0.07528352
228	0xbdc0d775	-0.09416095
229	0x3e0b19d3	0.1358407
230	0xbd06323f	-0.032762762
231	0x3dbdf7fe	0.092758164
232	0x3d16d1c0	0.036821127
233	0x3e0be0bf	0.13659953
234	0x3dfc7b0d	0.123281576
235	0x3cfb1f28	0.030654505
236	0x3d7c38e1	0.06157768
237	0x3de1117e	0.109896645
238	0xbc6ea1e0	-0.014564961
239	0x3d0c5836	0.034263812
240	0xbd47ece8	-0.048809916
241	0xbd74396e	-0.05962508
242	0x3d239056	0.03993257
243	0xbde17fe6	-0.11010723
244	0x3d3b93b6	0.045795165
245	0x3c8b2cf2	0.016989205
246	0x3e024097	0.12719952
247	0xbd208c17	-0.0391961
248	0xbdf51247	-0.11966377
249	0x3d7ff565	0.062489886
250	0x3d50f066	0.05101051
251	0xbcb515b2	-0.022105072
252	0xbc00600e	-0.007835401
253	0xbdd959d6	-0.10612838
254	0x3c832914	0.016010799
255	0xbd73f4a2	-0.059559472

lstm.bias_ih_l1 f4 [200]
0	0x3d7f2aa1	0.062296513
1	0x3daa7701	0.083234794
2	0xbdd668cd	-0.10469208
3	0x3d491351	0.049090687
4	0x3d1d6c7d	0.03843354
5	0xbd13a7d1	-0.036048714
6	0x3bdfe7a4	0.0068330336
7	0xbd851f88	-0.06500155
8	0xbc6d6db5	-0.014491488
9	0xbd4ce478	-0.050022572
10	0x3d9cdb73	0.07659044
11	0x3e132e4b	0.14373128
12	0xbd50cb66	-0.050975226
13	0x3cd1b537	0.025599105
14	0x3ccd4e0f	0.025061635
15	0x3dab180b	0.08354195
16	0xbcb59a30	-0.022168249
17	0xbd784d06	-0.06062033
18	0x3e33fe9a	0.17577592
19	0x3deba766	0.11506538
20	0x3d86d2ac	0.06583151
21	0xbd7f97cb	-0.06240062
22	0xbd9f20d2	-0.07769932
23	0xbdef3a93	-0.11681094
24	0xbd207436	-0.039173327
25	0xbc4ca804	-0.01249123
26	0x3dc5bf99	0.09655685
27	0xbd3791f5	-0.04481693
28	0xbd4141ad	-0.047181774
29	0xbd437787	-0.047721412
30	0xbd0247e7	-0.031806853
31	0x3dcf72e7	0.10129338
32	0x3d4dd7ac	0.05025451
33	0xbd993948	-0.07481629
34	0x3c9ae1e1	0.018906536
35	0x3e311a38	0.17295158
36	0xbd84ce9c	-0.0648472
37	0xbcccae7d	-0.024985546
38	0xbdc6d3e2	-0.09708382
39	0x3db93f11	0.09045232
40	0x3d4b6f4c	0.049666688
41	0x3e014363	0.12623362
42	0xbdbf8b1c	-0.09352705
43	0x3e2a9d8e	0.16661665
44	0x3dfa3201	0.12216569
45	0xbdb59711	-0.08866704
46	0x3d892f51	0.06698478
47	0x3d99d6ad	0.07511649
48	0x3dc65888	0.09684855
49	0x3e39fced	0.1816289
50	0x3e149062	0.14508203
51	0xbe00d92b	-0.12582843
52	0x3d9d87df	0.07691931
53	0x3d5323ff	0.051548
54	0xbde8f6c2	-0.1137519
55	0x39f9cf84	0.00047647592
56	0x3d09b502	0.033619888
57	0xbe0576bc	-0.13033575
58	0xbb931864	-0.0044889916
59	0x3e0ed4a3	0.13948302
60	0x3bec94d0	0.0072198883
61	0x3dbad239	0.09122128
62	0xbe02fb96	-0.12791285
63	0xbd1191d2	-0.035539456
64	0xbe164e9d	-0.14678426
65	0xbc979e87	-0.018508209
66	0x3c94e4fd	0.018175596
67	0x3d646dc5	0.055768747
68	0x3e18f62a	0.14937654
69	0x3dc98929	0.09840614
70	0x3e1e2ed2	0.15447548
71	0xbdfcc0f4	-0.123414904
72	0xbceb1e4b	-0.028700968
73	0x3dccbea6	0.09997301
74	0xbdc72c6a	-0.09725268
75	0x3d6fd92b	0.058556717
76	0x3b959d44	0.0045658667
77	0xbcaf9521	-0.021433415
78	0x3cecc66b	0.028903207
79	0xbc6bce2c	-0.014392417
80	0x3d7ec045	0.06219508
81	0x3d9239a7	0.071399026
82	0x3de1d2e0	0.11026549
83	0x3c75673b	0.014978225
84	0x3cd2cd1c	0.02573257
85	0xbda3144c	-0.07962856
86	0x3e210d46	0.1572772
87	0x3c54bde4	0.012984727
88	0x3c8cdc75	0.017194966
89	0xbbf0b6bd	-0.007346003
90	0xbd2cba5b	-0.04216991
91	0x3d4690f1	0.04847807
92	0xbca6676e	-0.020312991
93	0x3e0758fa	0.13217536
94	0x3d6428d9	0.055703018
95	0xbd664b61	-0.05622423
96	0x3db85b60	0.090018034
97	0xbd61a66e	-0.05509036
98	0x3d9cf781	0.07664395
99	0x3d9475f4	0.0724906
100	0x3cec44d4	0.028841414
101	0xbd4bb292	-0.049730845
102	0xbd76fafc	-0.06029795
103	0x3d85a330	0.06525266
104	0xbd6012b7	-0.054705348
105	0x3d5ec4b0	0.054386795
106	0xbc85b962	-0.016323749
107	0x3db7074e	0.0893694
108	0xbd5195e8	-0.051168352
109	0xbd3a0ab1	-0.045420352
110	0x3dc316f2	0.09525861
111	0xbdcf622c	-0.10126147
112	0x3d3691d9	0.044572685
113	0xbcdd5d22	-0.027021948
114	0xbb913249	-0.0044310433
115	0x3d24e45a	0.040256836
116	0xbdd2ead1	-0.10298694
117	0xbe0827a0	-0.13296366
118	0x3d90fe68	0.07079774
119	0xbe15c5a1	-0.1462617
120	0x3dadcf40	0.084867954
121	0x3d20fb94	0.039302424
122	0xbda1eec4	-0.07906869
123	0xbd95a142	-0.07306148
124	0xbd7b8bdd	-0.06141268
125	0x3ddf542b	0.10904726
126	0x3e0d3d7f	0.1379299
127	0x3df39c1a	0.118950084
128	0xbd236104	-0.039887443
129	0xbc81f36d	-0.015863145
130	0xbd909074	-0.07058802
131	0xbd1e71e5	-0.038682837
132	0x3d91564e	0.070965394
133	0xbe168888	-0.1470052
134	0xbd5964e4	-0.053074732
135	0xbdaae02d	-0.083435394
136	0xbd852b1f	-0.06502365
137	0x3db5c858	0.08876103
138	0xbd7cdf0e	-0.06173616
139	0xbdab2fe5	-0.083587445
140	0x3ca126d2	0.019671831
141	0xbdc4aeb8	-0.096036375
142	0x3d96e4e3	0.073678754
143	0x3e20d40b	0.15705888
144	0xbcd79cea	-0.02631994
145	0x3d96102c	0.07327303
146	0xbcd03ad6	-0.02541868
147	0x3dd3eff4	0.10348502
148	0x3c54b9fe	0.012983797
149	0xbe0de633	-0.13857345
150	0xbd1ba3c6	-0.037997983
151	0xbda974e9	-0.08274252
152	0xbdcfdff1	-0.10150135
153	0x3dcaf382	0.09909727
154	0x3e04dd0d	0.12974949
155	0x3bbaaf38	0.0056971572
156	0x3da11d61	0.07866932
157	0x3e15e2a4	0.14637238
158	0x3d7b3b01	0.061335567
159	0xbdb4967f	-0.08817767
160	0xbdd18d27	-0.10232001
161	0x3e08a682	0.13344768
162	0x3dc44186	0.0958281
163	0x3ddf3141	0.10898066
164	0xbd486c07	-0.048931148
165	0xbd80be77	-0.06286328
166	0x3c5feabe	0.013666807
167	0xbc68f76b	-0.014219145
168	0x3e0319dc	0.12802833
169	0x3da04478	0.078255594
170	0x3dd79b22	0.10527636
171	0xbe27a453	-0.16371278
172	0xbd15349d	-0.03642713
173	0xbb6bf612	-0.0036004824
174	0xbdaec5bd	-0.08533809
175	0x3d9c1f92	0.07623209
176	0xbb3bb12a	-0.0028639534
177	0x3d384582	0.044988163
178	0x3ce63608	0.028101936
179	0x3df90801	0.1215973
180	0xbda15d6d	-0.07879148
181	0xbc6dbad7	-0.014509878
182	0x3d14af14	0.03629978
183	0x3df4b1b4	0.11947957
184	0x3c67625f	0.014122575
185	0x3da27863	0.07933118
186	0xbde67104	-0.11252025
187	0x3d164825	0.036689896
188	0x3cf7d6f5	0.030253867
189	0x3dee3726	0.116316125
190	0xbdb3727f	-0.08762073
191	0xbd282b2a	-0.04105679
192	0x3b6d8af9	0.0036246164
193	0x3d85d134	0.06534043
194	0xbddb5111	-0.107088216
195	0x3d6a5671	0.057211343
196	0x3dc97e5b	0.098385535
197	0xbda1f520	-0.07908082
198	0xbd7f965f	-0.062399264
199	0xbcaabbdb	-0.02084153

lstm.bias_hh_l1 f4 [200]
0	0x3e0fc026	0.14038143
1	0xbdcbebd9	-0.09957094
2	0x3dfadc7d	0.12249086
3	0xbd4a06b0	-0.049322784
4	0x3b7c80be	0.0038528885
5	0xbde66ebe	-0.11251591
6	0xbcd7de41	-0.026351096
7	0x3d743fba	0.059631087
8	0x3c993749	0.01870312
9	0xbd888b43	-0.06667187
10	0x3deede15	0.116634525
11	0x3d2cff82	0.04223586
12	0xbaf10c61	-0.001839053
13	0xbd812253	-0.06305375
14	0xbdee2ca1	-0.11629606
15	0x3d0cb497	0.03435191
16	0xba2ccc0e	-0.0006591686
17	0xbd4f903d	-0.050674666
18	0xbcb57099	-0.022148417
19	0xbdaa8815	-0.08326737
20	0xbced0778	-0.028934225
21	0x3daeb6a2	0.08530928
22	0x3cc068dc	0.0234875
23	0xbd991c18	-0.074760616
24	0x3dd67551	0.10471595
25	0xbbefb1d9	-0.0073149023
26	0xbddd1cdb	-0.10796519
27	0xbc98f3da	-0.018670965
28	0x3dfb1800	0.12260437
29	0xbe127e5e	-0.14306018
30	0xbe2ebec2	-0.17064956
31	0xbd484ea5	-0.048903126
32	0x3e1776f3	0.1479147
33	0x3e0e9f37	0.13927923
34	0xbdcaaf0a	-0.09896667
35	0x3e06a880	0.13150215
36	0x3de008c5	0.10939173
37	0xbd04b5f7	-0.032400098
38	0xbcd9126e	-0.026498046
39	0x3dc9bb94	0.09850231
40	0x3cc63f5f	0.02420014
41	0x3e130754	0.14358264
42	0xbd9cb9b0	-0.076526046
43	0x3dd33c6b	0.10314258
44	0x3d8e3d9c	0.06945345
45	0x3cf00d14	0.029303111
46	0xbc898a7c	-0.016789667
47	0x3e2ba4f6	0.16762146
48	0xbd946216	-0.07245271
49	0x3daa3c79	0.083123155
50	0xbdac7783	-0.084212326
51	0x3e080e74	0.13286763
52	0xbd9e8501	-0.07740212
53	0x3bf933f7	0.0076050716
54	0x3d2a54ef	0.041584905
55	0xbdeb0b76	-0.114767954
56	0x3e27f4a6	0.1640192
57	0x3c23440b	0.009964953
58	0xbd5ed4f4	-0.054402307
59	0x3d4d3340	0.050097704
60	0x3e050d77	0.12993418
61	0x3e00ddae	0.12584564
62	0x3c89225f	0.016740022
63	0x3cfb7f39	0.030700313
64	0xbdb776eb	-0.08958229
65	0xbd209461	-0.039204005
66	0x3dd59b56	0.104300186
67	0x3dccdf90	0.10003579
68	0x3e0347e9	0.128204
69	0x3d23fad3	0.040034126
70	0xbd86e532	-0.06586684
71	0xbb80cc23	-0.003930585
72	0xbc62fcd7	-0.013854227
73	0xbccaed2b	-0.024771294
74	0xbde407ce	-0.11134301
75	0xbcb6b414	-0.022302665
76	0xbd439014	-0.047744825
77	0x3d3368d2	0.043801136
78	0x3d768e8b	0.060194533
79	0x3dc3e7f4	0.09565726
80	0xbe1d72f5	-0.15375884
81	0x3d8a2a4b	0.06746348
82	0x3e2663bd	0.16248985
83	0x3d6cb08e	0.057785563
84	0xbdca65b2	-0.09882678
85	0x3d164680	0.036688328
86	0xbd80807b	-0.06274506
87	0x3d026870	0.03183788
88	0x3df4ed70	0.1195935
89	0x3e23974a	0.15975681
90	0xbd823ea2	-0.063596025
91	0xbcb6b7f8	-0.02230452
92	0xbe0205e9	-0.12697567
93	0x3e2a5719	0.16634788
94	0x3dd6ef99	0.104949184
95	0x3c5ab478	0.013348691
96	0x3d919aae	0.07109581
97	0x3d092850	0.03348571
98	0xbd8afc97	-0.06786459
99	0xbd171532	-0.036885448
100	0x3defc902	0.11708261
101	0x3d202baf	0.03910416
102	0xb9f6db42	-0.00047084136
103	0x3d337f6a	0.043822683
104	0x3d7bfaa9	0.061518345
105	0xbca2b60e	-0.019862201
106	0x3e007971	0.12546326
107	0xbdd8431f	-0.10559677
108	0xbcdc6779	-0.026904808
109	0xbdcbf6d9	-0.09959192
110	0x3d5233e2	0.05131901
111	0x3d6b3ce3	0.057431113
112	0xbe0bbefe	-0.13647076
113	0xbd7741c2	-0.060365446
114	0x3d204377	0.03912684
115	0xbc88eae4	-0.016713567
116	0x3dc5d625	0.096599855
117	0xbdb9edc1	-0.09078551
118	0x3dbe2b19	0.09285564
119	0xbdf9e6b6	-0.12202208
120	0x3e29e82d	0.16592474
121	0x3dc967a4	0.09834221
122	0xbacf83a3	-0.0015832077
123	0x3dd56044	0.10418752
124	0x3e1c9e8b	0.15294854
125	0x3cfdf352	0.030999813
126	0x3e2d3b0a	0.16917053
127	0x3e09dd4b	0.13463323
128	0xbd843d62	-0.0645702
129	0x3c9c1735	0.019054035
130	0xbd8254c2	-0.063638225
131	0x3da934ab	0.08261999
132	0xbd21409b	-0.039368253
133	0x3c875137	0.016518218
134	0xbd871b26	-0.06596975
135	0x3d963767	0.07334786
136	0xbd83a6a8	-0.064282715
137	0x3c771368	0.01508031
138	0xbdcf2164	-0.10113791
139	0x3e2a5bf2	0.16636637
140	0xbd08ea23	-0.033426415
141	0xbe322498	-0.17396772
142	0xbcee88a0	-0.029117882
143	0xbd810aff	-0.063009255
144	0xbb12375a	-0.0022310824
145	0x3d9f5cb8	0.077813566
146	0xbe08f389	-0.13374151
147	0x3d7c8769	0.061652575
148	0xbd96d941	-0.07365657
149	0x3d9405b2	0.07227649
150	0xbc384279	-0.011246317
151	0xbddb53e4	-0.1070936
152	0x3d26d771	0.040732805
153	0x3d2db699	0.042410467
154	0x3dc2a77d	0.09504602
155	0xbe05e951	-0.13077284
156	0xbd4cb074	-0.049972966
157	0x3daf08ae	0.085465774
158	0x3e2e549b	0.17024462
159	0x3db0ca47	0.08632331
160	0x3d036e7d	0.03208779
161	0x3df7cf8c	0.12100133
162	0x3d196111	0.037446085
163	0x3d827376	0.06369679
164	0x3d968d2c	0.07351145
165	0x3d7d8caa	0.061901726
166	0x3d896a78	0.067097604
167	0x399f9192	0.00030435302
168	0xbd9ba8a0	-0.07600522
169	0xbc468cda	-0.012118543
170	0x3deeff82	0.11669828
171	0x3a02c254	0.00049880636
172	0xbe17589a	-0.14779893
173	0x3d95265d	0.07282708
174	0x3dbfb692	0.093609944
175	0xbd021499	-0.031757925
176	0x3d822554	0.06354776
177	0x3df3a042	0.11895801
178	0xbdcb3d51	-0.099238046
179	0xbe18c5c4	-0.14919192
180	0xbbb6e223	-0.005581157
181	0xbd7bf68d	-0.061514426
182	0x3d34a750	0.044104874
183	0xbd880187	-0.06640916
184	0xbc3d5d41	-0.011557878
185	0xbb2638df	-0.0025363488
186	0x3d99ca5b	0.07509299
187	0x3d6b039c	0.05737649
188	0x3e0ba64d	0.13637657
189	0x3c9dfea0	0.019286454
190	0x3d852660	0.0650146
191	0x3e1f8d87	0.15581332
192	0xbc35a302	-0.011086227
193	0x3e33f1a6	0.1757265
194	0x3dd660d2	0.10467686
195	0xbcb81bdd	-0.022474224
196	0x3e150c8e	0.1455557
197	0x3c7e5597	0.015523336
198	0x3e0cd344	0.13752466
199	0x3d9b99b2	0.075976744

fc.weight f4 [1, 50]
0	0x3deefea2	0.11669661
1	0x3de1da6d	0.110279895
2	0xbd91e583	-0.07123854
3	0xbdcd7128	-0.100313485
4	0xbd32993d	-0.04360317
5	0xbba8f0c4	-0.0051556546
6	0x3d451423	0.048114907
7	0xbde153ea	-0.110023335
8	0xbe1ab52d	-0.15108176
9	0xbd5a098b	-0.053231757
10	0x3d234b1b	0.039866548
11	0xbd9b772b	-0.07591089
12	0xbccfa6ad	-0.025348032
13	0xbe056bcb	-0.13029401
14	0xbdc80f66	-0.09768562
15	0x3e0bed26	0.13664684
16	0x3d4d9f07	0.05020049
17	0xbe2c4ecd	-0.16826935
18	0x3d65684a	0.05600766
19	0xbe08eca5	-0.13371523
20	0x3e2bc0db	0.16772787
21	0xb9c5e11e	-0.00037742493
22	0x3da72636	0.08161585
23	0xbdc2fd3e	-0.09520958
24	0x3dbadf81	0.09124661
25	0x3e2bfcfc	0.16795725
26	0x3d0d0481	0.034428123
27	0x3cc20337	0.023683174
28	0xbdcaab40	-0.098959446
29	0x3d4e7040	0.05040002
30	0x3cf9f1e7	0.030510856
31	0x3d62e0a9	0.055390034
32	0x3d763182	0.060105808
33	0xbe0d3cfe	-0.13792798
34	0xbe2fa1c7	-0.17151557
35	0xbd47f3f7	-0.048816647
36	0xbd52e8f8	-0.051491708
37	0xbd48060b	-0.048833888
38	0xbdf043a3	-0.11731651
39	0x3e1061ac	0.14099759
40	0x3e172788	0.14761174
41	0xbdacb043	-0.08432057
42	0xbddc8b63	-0.107687734
43	0x3dd1b2ba	0.102391675
44	0xbc7d17b6	-0.015447548
45	0xbccecc14	-0.025243796
46	0xbe0fafda	-0.14031926
47	0x3e04f4cb	0.12984006
48	0xbe325f4c	-0.17419165
49	0xbd88cea2	-0.06680037
