Models/rushing_model.pth (torch, 136652 bytes, 9 tensors)

lstm.weight_ih_l0 f4 [200, 12]
000000 7e 99 b4 3c d5 5c ad 3b 3f 3e 03 3e 80 5c ed bd
       0.022045847 0.0052906075 0.12816714 -0.115899086
000010 cc 79 cc bc ce 47 12 3d f9 d8 84 3d fd 04 ae bb
       -0.024960421 0.03571301 0.06486697 -0.0053106532
000020 a6 44 bb bd 76 cd b6 3c f7 8a 07 3d 3b 9b 61 3d
       -0.09143953 0.022314768 0.03309151 0.05507968
000030 b4 83 20 3d ab c7 fd 3d 7a f1 2d 3d 8b 9c 16 3c
       0.039188102 0.12391599 0.042466618 0.009192596
000040 53 85 5b bc 15 4b c4 3d 7e 35 29 3b 4d 7a d5 bd
       -0.013398486 0.09584633 0.0025819237 -0.10423718
000050 30 f1 80 bd e5 ed 64 3c 4c f9 bf bd 89 13 dd 3c
       -0.06296003 0.013972734 -0.093737215 0.026986854
000060 fe c7 03 be 4a 92 a2 3b d7 51 c0 3d b5 38 1d be
       -0.1286926 0.0049612867 0.0939061 -0.15353663
000070 1b 0f da 3c e1 fd cf bd 55 27 eb 3d 4a f5 b3 bd
       0.026618531 -0.101558454 0.11482111 -0.087870196
000080 16 b8 27 3d 8d a6 b0 bc 8a f9 d2 bd 48 27 c6 bd
       0.040947042 -0.021563793 -0.10301502 -0.09675461
000090 dc 83 0b 3e bf 8b 10 be b2 0d de 3b eb c9 f9 bd
       0.13624519 -0.14115809 0.006776535 -0.12196716
0000a0 fc bf 79 3d 3c da d3 bd da 3c c7 3d 40 b8 d0 3d
       0.060974106 -0.10344359 0.097284034 0.10191393
0000b0 bd 98 12 bd fe c1 96 bb 3c 49 85 3d e2 fe 2f bd
       -0.035790194 -0.0046007624 0.06508109 -0.042967685
0000c0 18 59 da 3d a8 1e 15 3e 86 f0 e9 bd f9 e6 f8 3d
       0.106615245 0.14562476 -0.11422829 0.121534295
0000d0 61 aa 3a 3d da 45 bf bd 12 c3 fe 3d f2 35 d6 3b
       0.045572642 -0.09339495 0.124395505 0.0065371925
0000e0 2e 2e c5 bd 29 06 44 bd ef 9d 80 bd f8 9b c3 bd
       -0.09627949 -0.047857437 -0.062801234 -0.09551233
0000f0 83 a6 9b bd 8b fc b4 3d 69 2c e6 bd ae 19 3e bd
       -0.07600119 0.08837231 -0.11238939 -0.04641121
000100 d2 56 19 bc e2 b8 80 bd 0e c9 ba bc 2d 4a c3 3d
       -0.0093590785 -0.062852636 -0.022800948 0.09535632
000110 55 e4 b8 3d 67 2f dc 3c ee f7 87 3b 04 29 4a bc
       0.09027926 0.026878072 0.0041494286 -0.01233888
000120 7d 28 f0 bd b2 a4 b5 3d 15 f1 6b 3d 10 c7 86 bd
       -0.117264725 0.08869304 0.05760296 -0.06580937
000130 4d 2c ab 3d 1f 42 d4 bd 70 a0 55 3c 65 33 04 bd
       0.08358059 -0.10364174 0.01303874 -0.032275576
000140 1e 12 ae bd 71 51 de 3c d0 b7 8a 3d 7e f1 0c 3e
       -0.08499549 0.027138444 0.06773341 0.13763997
000150 43 69 18 3e 16 dc 6a bc 3e b8 8a 3d 42 0a 02 3d
       0.14883904 -0.014334699 0.06773423 0.031748064
000160 70 f1 af bd 0e 6a cf 3d 01 73 84 3c c2 6a 6f bd
       -0.085909724 0.1012765 0.01616812 -0.05845142
000170 ec 0e a3 bd 4f 0a 40 bd c3 f9 11 3d 57 80 9a 3c
       -0.079618305 -0.04688483 0.035638582 0.018860025
000180 c2 8a 97 3d 5f 82 cc 3c 32 ed 8e bd 16 30 1e be
       0.07399513 0.02496451 -0.06978835 -0.15448031
000190 84 5a a6 3d e9 fe da bd f7 b5 ee bd cb cd 59 bd
       0.08122733 -0.106931515 -0.11655801 -0.053174775
0001a0 b8 72 d5 3d c8 05 b0 3d 78 c9 fa 3d 2e 68 ee 3d
       0.104222715 0.08594853 0.12245458 0.116409644
0001b0 99 40 1c 3d ae db 59 bc e2 c9 e2 bd 63 a2 2a be
       0.038147543 -0.013297005 -0.11073662 -0.16663508
0001c0 63 42 08 3d f7 14 1a be 17 b7 aa bd 58 58 29 bc
       0.033266436 -0.1504706 -0.08335703 -0.010336004
0001d0 09 a2 08 3e 64 10 39 bc 53 c1 ac 3d 97 51 c0 3d
       0.13343062 -0.011295412 0.08435311 0.09390562
0001e0 57 ca 64 bd 4a c0 dc bd 5a f1 2d 3d 90 6f df bd
       -0.05585703 -0.10778864 0.0424665 -0.10909951
0001f0 c2 87 24 be ad 43 02 3c 78 3c 59 3d 1e 24 34 3d
       -0.16067412 0.0079507055 0.053036183 0.043979757
000200 9c 3e c5 bc 60 e1 fc bc 13 b6 99 bd 13 28 72 3d
       -0.024077706 -0.030869186 -0.07505431 0.05912025
000210 1d b1 1e be 77 95 cd bd ca 64 ed bd 3d 65 1e be
       -0.15497251 -0.10038274 -0.115914896 -0.15468307
000220 d6 d7 36 3c 8a 18 b1 bd d7 41 27 3d 7a e2 f9 bd
       0.011159858 -0.086472586 0.040834274 -0.122014
000230 da a3 76 3d fa 17 77 ba c9 a8 2a be 00 48 19 bd
       0.060214855 -0.0009425875 -0.16665949 -0.03742218
000240 82 85 82 3d 9a 5b c4 bd c8 55 81 3d cf 5f 11 3c
       0.06373121 -0.09587784 0.063151896 0.00887294
000250 a5 8a 02 bc 4c c0 0d be ce 8a 43 bd 4e c8 0a be
       -0.007967626 -0.13842887 -0.047739796 -0.13552973
000260 d3 50 dd bd 67 7a 67 3d 8d 96 84 3d fa 94 c0 3d
       -0.108064316 0.056513216 0.06474028 0.09403415
000270 4e 8e aa bb f5 72 0d be be 72 4b 3b 82 44 11 bd
       -0.0052049523 -0.13813384 0.0031043733 -0.035465725
000280 79 35 56 bc ee bd 99 3d 8a e3 49 3d e9 c1 9e bd
       -0.013074272 0.07506929 0.049289264 -0.07751829
000290 e4 bc 89 bd c8 cd 91 3d 01 b2 0b be 18 a1 47 3d
       -0.06725481 0.07119328 -0.13642122 0.048737615
0002a0 ef 20 40 3c 5e 77 b5 bd 74 cd f1 bd 5a e0 1b be
       0.011726602 -0.08860658 -0.11806765 -0.15222302
0002b0 d0 f5 45 3d 12 7c a0 bd d0 34 94 3d 05 c6 5b 3a
       0.04833013 -0.078361645 0.07236636 0.0008383694
0002c0 98 22 83 3d 06 5a 09 be fa 18 cd bd 7f 20 2f bd
       0.064030826 -0.13413247 -0.100145295 -0.0427556
0002d0 77 74 c7 3d 5f 8b 0e 3e 55 1a db 3d f6 1e c6 3a
       0.09739011 0.13920353 0.10698382 0.0015115428
0002e0 f2 58 be bd 3a 75 24 3d 9f 9d 97 3d c0 7e c5 bd
       -0.09294309 0.04015086 0.07403111 -0.09643316
0002f0 08 84 02 bd 39 d3 4c bc 8e 41 59 3d 34 15 0a 3e
       -0.031864196 -0.012501531 0.053041033 0.13484651
000300 37 46 f1 bd 87 d4 04 be 7c f4 bb 3d 50 e1 86 3d
       -0.117809705 -0.12971698 0.09177491 0.06585944
000310 f2 7b 1f 3d cc 32 55 bd f2 8c 0d bb c1 a9 d2 3d
       0.038936563 -0.052050397 -0.0021598903 0.10286284
000320 ca d4 d4 3b 28 ff 0f be 48 54 08 3d 59 73 79 bc
       0.006495093 -0.14062178 0.033283502 -0.015225255
000330 9e 23 a9 3d 71 3f 7c bd c9 2b 54 3d 46 d6 93 bd
       0.082587466 -0.06158394 0.05179957 -0.07218604
000340 0a 9e c1 bd 15 b3 8d bd a4 2d 21 be c8 74 9c bd
       -0.09453972 -0.06918923 -0.15740067 -0.07639462
000350 db db b8 bc e9 73 fa 3d 8a cd 08 be 82 f0 51 3d
       -0.022565773 0.12229139 -0.13359657 0.051254757
000360 e6 da 43 bd f3 4a 03 3d e8 43 87 bb 46 06 a0 3d
       -0.04781618 0.0320539 -0.004127968 0.078136966
000370 74 2e 0d be a7 a0 4f bd d8 bc 26 bc c6 d7 1a 3e
       -0.13787252 -0.05069032 -0.01017686 0.15121374
000380 e8 51 55 3d 86 99 be bb f8 95 ce bd 4e 32 b6 3b
       0.052080065 -0.0058166413 -0.10087198 0.005560196
000390 e9 52 8f 3c e9 4a 96 3d e2 cf c5 bc cf 68 42 bd
       0.01749559 0.07338507 -0.024146978 -0.047463235
0003a0 7c 57 ab bd f3 45 4a 3d ce 8d 11 be 49 38 9f 3c
       -0.08366296 0.049383115 -0.1421425 0.019436019
0003b0 0c c7 b6 3c 28 0a a6 3a 50 3e 8c bd ee 10 f9 bd
       0.02231171 0.0012667822 -0.06847823 -0.12161432
0003c0 cb a5 f4 bd 92 4a fb 3d 6f a7 cc 3d 89 f8 60 bc
       -0.11945685 0.122700825 0.09992873 -0.01373113
0003d0 bc bb 80 3d 3c da b9 bc 1f 5d 19 bc 44 54 8a bd
       0.062858075 -0.02268707 -0.009360581 -0.06754354
0003e0 47 ee b6 3b 1d 38 91 3d 82 02 0e bd 77 82 e4 3d
       0.005582604 0.07090781 -0.03467036 0.11157697
0003f0 98 09 b5 bd 85 f7 b0 3d 13 9b e4 bd 44 7b d6 3c
       -0.088397205 0.086409606 -0.111623906 0.026181825

lstm.weight_hh_l0 f4 [200, 50]
000000 3d f6 cb bc 00 17 bc 3d cb 77 0d be 25 ca f6 3c
       -0.024897689 0.091840744 -0.13815229 0.030125687
000010 1c 14 a2 3d c7 b5 ad bd 0c d1 05 3e 1a 5a ee bc
       0.07913992 -0.08481937 0.13068026 -0.029095698
000020 b3 b7 96 3c a1 0f df bd a6 89 37 bd 86 2d 8a 3d
       0.018398141 -0.10891653 -0.044809006 0.06746964
000030 3a 6f 7f bd df 4e 43 bd 48 c5 06 be 84 4d 3a 3c
       -0.062361933 -0.04768264 -0.13161194 0.01137102
000040 45 f1 05 3d ba c1 4f 3d 27 67 fa bb ec f1 80 bd
       0.032700796 0.05072186 -0.0076416912 -0.06296143
000050 f6 1b d2 bd ba d0 3d 3d cd 82 ec 3d 57 0c 11 be
       -0.102592394 0.046341635 0.11548386 -0.14164864
000060 5c b2 a2 3d 92 31 ed 3d 82 c8 ac bd 37 b6 aa bd
       0.079441756 0.115817204 -0.08436681 -0.08335536
000070 3d 2e 96 3d fc 3e 9c bd 66 19 4c 3d 48 fe d3 bd
       0.07333038 -0.07629201 0.04982891 -0.10351235
000080 09 3e b4 bd 80 b0 82 bd 50 82 9c bd 32 b8 02 3d
       -0.08800895 -0.06381321 -0.07642043 0.031913944
000090 04 e2 03 bd cc 88 67 bb 06 05 40 bb d6 34 1e 3e
       -0.032197967 -0.003532934 -0.002929987 0.15449843
0000a0 df 33 62 3d fa 6f b0 bc f2 7b 2d bd b2 d7 a5 3b
       0.05522525 -0.02153777 -0.04235453 0.0050611133
0000b0 60 44 09 be e5 3b c4 bb e2 19 cf bd ce 55 85 3c
       -0.13404989 -0.0059885853 -0.10112359 0.016276266
0000c0 e4 cc 97 3d 85 88 8b 3b 62 f7 41 3c b5 9c 04 3d
       0.07412127 0.0042582178 0.011838766 0.03237601
0000d0 f3 6d 75 3b 5f 8b 01 be e5 18 ff bd a6 cf d6 bd
       0.0037449568 -0.12650822 -0.1245592 -0.104888245
0000e0 8d 13 f1 bd 76 81 84 3d 28 16 05 3c f8 0a cd 3d
       -0.11771307 0.06470005 0.008122958 0.10011858
0000f0 9e 59 b3 3c c1 c7 fe 3d 4d 98 cc 3d 46 dd b4 bd
       0.021893319 0.12440444 0.099899866 -0.08831267
000100 aa ca 79 3d 5d ea de 3d 3b 5d 9a 3d 38 1b e9 bc
       0.06098429 0.10884545 0.075373136 -0.028455362
000110 38 8f 0d bd 6d 7a a3 3d b3 69 a8 bc bd 07 24 3e
       -0.034560412 0.07982335 -0.020558214 0.16018577
000120 58 30 61 3d 40 b3 a7 bd 7f 4c ef 3d 1d 02 c0 3d
       0.054977745 -0.08188486 0.11684512 0.09375403
000130 1c 8a c0 3d d4 80 88 3d 36 17 23 bd 51 d7 eb bd
       0.09401342 0.06665197 -0.039817058 -0.11515678
000140 b5 d6 bc 3d c4 75 cf 3c 62 ac 8a 3d de 5c ff 3d
       0.092206396 0.02532471 0.06771161 0.12468885
000150 92 be 5d 3d 4b 9f ba bd d7 f2 f4 3d 39 dc f3 bd
       0.05413682 -0.09112414 0.119603805 -0.119072385
000160 16 45 b7 bd a6 68 a1 bc f3 30 02 3e 51 17 0c 3e
       -0.08948724 -0.01970322 0.12713985 0.1368077
000170 ec 99 c5 3d 08 8e f3 bd a7 7f 7d bd 5a c3 eb 3d
       0.09648499 -0.11892325 -0.061889317 0.1151187
000180 96 73 c2 bc cf c6 0a be 91 1d 89 3d 36 a6 d7 bd
       -0.023736756 -0.13552402 0.066950925 -0.10529749
000190 d3 41 09 be 8f 1c b0 bd 1c 7b 05 3c 41 3b 10 3e
       -0.13404016 -0.08599197 0.008147027 0.14085104
0001a0 d0 ea d8 3d 22 f0 e3 3d ce 48 db bd 54 a6 0c 3e
       0.10591662 0.11129786 -0.10707246 0.13735324
0001b0 98 d5 f8 bd 7d b3 f6 3d 1d 5a c4 3d 2b 08 d6 3d
       -0.12150115 0.120459534 0.095875 0.10450777
0001c0 d4 03 d5 bd 01 05 35 3c 7c 42 ce 3d bb 3b 2c bd
       -0.10401121 0.011048556 0.10071275 -0.04204915
0001d0 34 d4 f9 bd 9d 27 84 bc ae 88 ab bc a8 8e c1 3d
       -0.12198678 -0.01613217 -0.020939197 0.09451038
0001e0 94 e6 be ba 17 80 df 3d e1 8b 88 bd 15 0f 42 bc
       -0.0014564567 0.10913103 -0.06667305 -0.011844416
0001f0 c5 f6 f7 bd c9 a8 c7 3d 62 4e 41 bd 2e 2e ca bd
       -0.121076144 0.0974899 -0.047193892 -0.09872089
000200 42 7d 44 3c cf c7 0e bd a8 5f d1 bd 5e af c6 bc
       0.011992754 -0.03485852 -0.10223323 -0.024253543
000210 34 18 a7 3c ea fe c0 bc 1a 0e 06 3e da 21 8a bd
       0.020397283 -0.023559052 0.13091317 -0.06744738
000220 85 a5 ab bd 23 8c e3 bd 78 b2 fb bd 2f 1a 55 3d
       -0.0838118 -0.11110713 -0.122898996 0.052026924
000230 10 e3 24 3d 5f 3b a4 3d da 20 d3 bd 55 70 9d 3d
       0.040255606 0.08019137 -0.10309 0.07687441
000240 b2 e8 d2 bd ab 0e 0a be 49 d1 bc bc c3 25 d1 bc
       -0.10298289 -0.13482158 -0.023049014 -0.025530702
000250 d4 d8 ef bd 64 4c 9b 3d 88 c5 34 3d 20 a8 9b 3d
       -0.117112786 0.0758293 0.044133693 0.07600427
000260 f8 12 00 be 13 a2 1c bc cc 58 92 3d 85 63 42 bd
       -0.12507236 -0.009560126 0.07145843 -0.04745819
000270 e6 e7 d9 bb 81 a5 ad 3d 92 b3 ec 3d 2b 7f 8b bd
       -0.006649959 0.08478833 0.11557688 -0.06811365
000280 24 65 b7 bd 5f ab c2 bd a5 94 73 bd ea 09 aa bb
       -0.08954838 -0.09505343 -0.05946793 -0.00518917
000290 32 26 84 3c b3 92 18 bd 3d f6 82 bd e9 b9 98 3d
       0.016131494 -0.03724928 -0.063946225 0.074573345
0002a0 a1 05 1e 3e 7e 3f 0b bd 36 81 be bd 59 1c 3e 3d
       0.15431835 -0.033996098 -0.09301989 0.046413753
0002b0 93 04 bd 3d 64 2c 84 bd b8 57 50 3d fd ed ce 3d
       0.09229388 -0.06453779 0.050864905 0.101039864
0002c0 96 a5 f4 bd 98 81 9b 3c 4a d7 14 3d f6 c8 04 3d
       -0.119456455 0.018982694 0.03633813 0.032418214
0002d0 2a 6f eb 3c 56 c8 37 bd c2 a9 e0 bd e5 b7 ac 3d
       0.02873953 -0.04486879 -0.10969879 0.084335126
0002e0 b7 3b 9a 3d f7 b5 b8 bd 31 0f 93 bd a2 cb ba bd
       0.07530921 -0.09019082 -0.07180632 -0.09120871
0002f0 31 3a ab bd c3 fb b7 3c 28 c6 88 3c 09 84 3f 3d
       -0.083607085 0.022458917 0.01669605 0.046756778
000300 df 6e c9 3d e3 42 f1 bd a8 6d a0 bb ca 6b e6 3d
       0.098356 -0.11780336 -0.0048958845 0.11251028
000310 e9 8a 9a bd 46 4e c8 3d 41 e3 ed 3d 04 b2 07 bc
       -0.07546026 0.097805545 0.11615611 -0.008282188
000320 88 d1 d5 bd f0 60 ef 3d 8b 7d ab bc e2 2a 80 bc
       -0.104403555 0.11688411 -0.020933887 -0.015645448
000330 d3 2a 98 bc 69 9a dd bd 95 7a 94 3d 33 40 bd 3d
       -0.018575108 -0.10820467 0.07249943 0.09240761
000340 3a 51 b8 3d 01 9d 06 3e c6 7a 6a 3d 90 59 63 3d
       0.08999868 0.1314583 0.057245992 0.055505335
000350 cd c8 4d bd 11 80 49 3c 29 6f f8 3c 91 17 39 3a
       -0.050240327 0.0122986 0.030326443 0.00070607016
000360 bf fa 2b 3d 0a 0e 0d 3d ea ea 77 bd de 67 8a 3d
       0.041987177 0.034437217 -0.060526766 0.06758092
000370 9e e0 b2 bd f0 36 71 bd 6b f4 f6 3b d1 28 4a 3d
       -0.087342486 -0.058890283 0.007536461 0.04935533
000380 15 c9 ac bd d0 44 99 bd b0 23 11 3d 05 4a 7f 3d
       -0.08436791 -0.07483828 0.035434425 0.06232645
000390 84 e0 e8 3d 83 64 10 3d 70 69 24 3d ae 53 31 3d
       0.11370948 0.035252105 0.040139616 0.043292694
0003a0 ce 2a 9b bd 9f 4c d4 3c 00 d0 f0 3b 32 af d7 bd
       -0.07576524 0.025915442 0.0073490143 -0.10531463
0003b0 4b 2b de 3d 12 9e 1b 3d 0b e9 f3 bd 84 e8 fc bd
       0.10848101 0.037992544 -0.11909684 -0.12349036
0003c0 c0 9f b8 bd d0 8d 30 3d 50 8f 33 3b 20 bb f4 bc
       -0.09014845 0.043103993 0.0027398653 -0.029874384
0003d0 21 70 3f bb 48 c9 2e 3c 5e 56 39 3c 41 1c 4f bd
       -0.002921112 0.010668106 0.011312095 -0.050564054
0003e0 ea 13 19 3e fa b5 aa bd 73 28 ee 3b 5f dd 55 bd
       0.14949003 -0.083354905 0.0072680055 -0.05221307
0003f0 17 16 de bd 49 fb 8b 3d a8 f8 1c 3c 8c 5e 7c 3b
       -0.10844057 0.06835038 0.009580769 0.0038508503

lstm.bias_ih_l0 f4 [200]
000000 7c 6a 9a bd 00 28 af bd 42 85 38 ba 65 38 3f bd
       -0.075398415 -0.08552551 -0.00070389 -0.04668464
000010 f5 b8 b7 bd 46 08 c9 bd 6e 7c fe bd cf b2 11 3c
       -0.08970825 -0.09816031 -0.12426077 0.008892729
000020 db bf 45 bc 45 04 f2 3d fa b9 71 3d 65 96 be 3d
       -0.012069668 0.118172206 0.05901525 0.09306029
000030 6a 02 b7 bd d8 66 ad 3b ad 77 05 3e 0d 06 4d 3d
       -0.08936007 0.005291801 0.13033934 0.0500546
000040 7d 6f b6 bd da 1e 97 bc 6c ea d2 3d 3d eb e3 3d
       -0.089079835 -0.018447328 0.10298619 0.111288525
000050 fb 2b 52 bb 9b e3 8d 3c 37 66 cc bb 1e 27 e8 3d
       -0.0032069671 0.017320445 -0.006237771 0.11335586
000060 62 2f 1e 3e 5a 60 c3 3c c7 16 cb bd 07 44 59 bc
       0.15447763 0.023849655 -0.09916454 -0.013260848
000070 80 fb 9d 3c 89 1b b3 3d ab 61 11 be ae 79 e0 bc
       0.019284964 0.08745486 -0.14197414 -0.027401771
000080 ad 49 04 bc 81 87 ed bd 0a b0 6b 3b 42 05 d3 bd
       -0.008074206 -0.11598111 0.0035963082 -0.10303737
000090 86 fd a7 bd 0c 28 06 3c 2a f0 7b 3d 88 17 b4 3d
       -0.08202653 0.008188259 0.061508335 0.08793551
0000a0 2c d8 c5 bd d1 2e b4 bd 19 8e e1 3d aa b6 a7 bd
       -0.09660372 -0.08797992 0.11013431 -0.08189137
0000b0 05 8a 8b bd f8 eb 8a bd 27 cf 4c 3d d5 0d 89 3d
       -0.068134345 -0.06783289 0.050002243 0.066920914
0000c0 02 4c 96 3d 8e 4a b1 bd dd a0 06 3e 1e 5c 03 be
       0.07338716 -0.08656798 0.13147302 -0.12828109
0000d0 9f c3 1b 3e d9 b2 c2 bc aa 2b bb bd 4d dc 61 3b
       0.15211342 -0.023766922 -0.09139188 0.0034463585
0000e0 06 32 03 3e 65 18 ef bd cd 19 27 3d 4b 6c 9d bd
       0.12812051 -0.11674575 0.04079609 -0.07686671
0000f0 9b 26 48 3c 3d b1 e4 bd 2d 29 97 bd 6a 8b e0 bd
       0.0122162355 -0.11166618 -0.073809005 -0.10964091
000100 2a 1b ff 3d 69 1e e3 3c 7a 8e cc 3d 56 b5 4e 3d
       0.12456353 0.027724462 0.09988113 0.050465904
000110 e4 f6 f9 3d 9d 0b d5 3d b9 59 ca bd cf be e2 3d
       0.12205294 0.10402606 -0.098803945 0.1107155
000120 7a ee 72 bd 2b 9a f7 3d d1 03 d5 3c f3 22 26 bd
       -0.05930946 0.12089952 0.026002796 -0.040560674
000130 d1 61 00 be 83 09 df 3d ff b7 61 bc d3 91 f9 3d
       -0.12537314 0.10890486 -0.013776778 0.12186017
000140 3c 7f 14 be 11 d8 8a bd e3 39 63 bd 90 b2 9b 3d
       -0.14501661 -0.06779493 -0.055475127 0.076024175
000150 3c eb 0a 3e c5 fc a3 bc fb a6 bf 3d d2 a8 14 3e
       0.13566297 -0.02001799 0.09358021 0.14517525
000160 b7 20 10 3e c6 65 90 bd 2d 9f da 3d cc 4f 8d bd
       0.1407498 -0.07050662 0.106748916 -0.06899986
000170 eb 9d cc 3d 2f 67 a7 3d 71 e9 64 bd ba 94 7b 3c
       0.09991058 0.081739776 -0.05588669 0.015355283
000180 ec 24 50 bd b3 60 b8 3d 78 92 f5 3d 2a a2 ac 3d
       -0.05081646 0.09002819 0.11990827 0.08429368
000190 23 3f 98 bd 97 4b de 3d 99 70 ff bc 21 53 92 3d
       -0.074339174 0.10854261 -0.03118162 0.07144762
0001a0 cd 6c 06 be 27 5c df bd ad 66 dc 3c bc a9 a4 bd
       -0.13127442 -0.109062485 0.026904428 -0.08040187
0001b0 6f bd 64 3d 36 50 a7 3d 32 68 b6 3d f8 44 fa bd
       0.05584472 0.08169596 0.089065924 -0.12220186
0001c0 89 1d 28 3e 45 87 06 3e a1 32 1c 3e c1 ab 95 bd
       0.16417517 0.13137539 0.15253688 -0.0730815
0001d0 49 33 b5 3d ed 0a 73 3b db 91 7f 3d 63 70 62 3c
       0.088476725 0.003708537 0.062394958 0.01382074
0001e0 60 8f 82 bd 89 65 8f 3d 35 88 76 3d f9 ab f5 bd
       -0.06375003 0.07001788 0.06018849 -0.11995692
0001f0 2f e3 bf 3d 91 5e 03 be be 29 74 bd 42 4a 8b bd
       0.09369504 -0.12829043 -0.05961012 -0.06801273
000200 e9 40 14 be a6 35 e0 3d 8f ce b4 bd 25 fc e3 bc
       -0.14477886 0.109477326 -0.088284604 -0.027830193
000210 ce 7e ee bc 4a 57 0b be 2d f0 9c bd 8f ad c9 bd
       -0.0291132 -0.13607517 -0.076629974 -0.09847557
000220 ac 39 0e 3d eb f5 12 be 49 e8 62 3d d4 5b ff 3d
       0.03472297 -0.14351623 0.055397306 0.12468687
000230 56 ac b8 bc 04 47 a7 bd 9f a9 00 be 35 4d 91 bd
       -0.022543114 -0.08167842 -0.12564705 -0.07094804
000240 b3 41 0f 3e 9e 89 45 bd 13 c7 d2 bd 78 84 db 3d
       0.13989906 -0.048226945 -0.10291877 0.10718626
000250 72 cf ad bd d2 a7 e8 3b 68 ec e1 bc 1b 7f 0a bd
       -0.08486833 0.007100084 -0.027578548 -0.033812623
000260 cf 92 02 3e 79 cb 58 3d 74 d8 64 bd 03 9b 02 3a
       0.12751316 0.05292842 -0.05587049 0.0004982205
000270 7e e3 10 be 1c 70 f1 3d 95 d3 2a 3d 30 77 89 3d
       -0.14149281 0.11788961 0.041705687 0.06712186
000280 37 6a da bd 0d 5a a7 3d d7 d3 47 bd 1f d3 f2 3d
       -0.1066479 0.08171473 -0.04878601 0.118566744
000290 6f cc 2c bd 4c 1b d2 bd 4e 6c 39 3d 00 76 2f 3e
       -0.04218715 -0.10259113 0.045269303 0.17134857
0002a0 5a 08 52 bd 11 eb ba 3d 89 f0 12 be 66 ac 85 bc
       -0.051277496 0.091268666 -0.1434957 -0.016317558
0002b0 6d 1e 9f 3d aa bc fe bc 14 0a cc 3d 38 a9 94 3d
       0.07769475 -0.031095821 0.0996286 0.072588384
0002c0 c0 17 03 be 54 d7 11 bd f6 4e ad bd 5c 93 3b 3d
       -0.12802029 -0.035605744 -0.08462326 0.04579483
0002d0 8a f4 7c 3c c9 07 b8 3d 63 ee bd bd 6f e2 71 bd
       0.015439162 0.0898586 -0.09273984 -0.059053835
0002e0 45 4a 1b bd 8c 0e 5a 3d 3c c8 52 3c 2f 95 0b 3e
       -0.037912626 0.05323653 0.012865122 0.13631128
0002f0 d9 46 87 bd f9 97 66 bd 8d e3 b7 bc e2 55 c8 bd
       -0.0660531 -0.056297276 -0.022447372 -0.09782006
000300 47 8e 16 3e e5 b1 a2 bd ef 1f ee 3d 82 4b 96 3d
       0.14702712 -0.07944087 0.116271846 0.07338621
000310 bb e4 dd bd 68 ad 4c bc b2 03 b0 3d dd d5 05 3e
       -0.108346425 -0.012492515 0.08594455 0.13069864

lstm.bias_hh_l0 f4 [200]
000000 ce f4 f0 3d ba 73 84 3d 75 58 a5 bd f2 f3 69 3d
       0.11765443 0.064673856 -0.080735125 0.05711741
000010 17 b4 c9 bd c2 28 be bd 0c 0b f0 bb f9 78 ca bc
       -0.098488025 -0.09285118 -0.0073255356 -0.024715887
000020 4d 4a d8 bd fa 9d 17 3d 29 06 98 bd 58 f9 a3 3d
       -0.10561047 0.037015893 -0.0742305 0.08006543
000030 87 ef bf bd 03 f5 d5 3d 3a 5f 51 bd 7c 63 7d 3b
       -0.09371858 0.10447123 -0.051116206 0.0038664034
000040 33 e5 7d 3d 06 40 30 bd 34 30 5e bd ef ef 90 bd
       0.06198616 -0.043029808 -0.05424519 -0.07077014
000050 11 db 51 bc 6e 6f d5 3d e6 12 77 3d a2 fc c9 bd
       -0.012808577 0.10421644 0.060320757 -0.09862639
000060 d8 6d b4 bd 0f 64 1d 3e 91 f9 80 bb 5b e3 83 bc
       -0.088100135 0.153702 -0.0039360006 -0.016099622
000070 10 58 1f 3d 05 a2 32 3d 84 2e d8 3d 41 7b a0 3d
       0.038902342 0.043611545 0.10555747 0.07836009
000080 bd 5c 2a 3d 69 6e 95 bd 32 81 76 3d d4 d4 9f 3d
       0.04159235 -0.0729645 0.060181804 0.078042656
000090 62 3e 63 bd 76 7b 64 bc 62 27 7e 3d a1 0f 0a bd
       -0.055479415 -0.013945451 0.062049277 -0.03370631
0000a0 db cc 1b 3e a1 05 1d 3e cd 2c 28 3e 3a 9a a6 3d
       0.15214865 0.15334179 0.1642334 0.08134885
0000b0 43 c0 1f 3e 24 ab c6 3d 35 d1 ec 3d bd 2a 66 3d
       0.15600686 0.09700611 0.115633406 0.056193102
0000c0 c6 51 9e bd d5 ad b1 bd 4e 40 df 3d 22 04 9e 3d
       -0.07730441 -0.08675734 0.10900937 0.07715632
0000d0 0e 4f cc 3b 01 a6 90 bd c6 94 86 bd a0 d2 87 3d
       0.00623501 -0.07062913 -0.06571345 0.066319704
0000e0 e9 63 f3 3d 27 bd 13 bd 90 ba 8b bd e1 52 8b bc
       0.11884291 -0.03606906 -0.06822693 -0.017007293
0000f0 07 9c 65 bd 69 cc a4 3d eb f6 f7 3c a8 73 87 bd
       -0.056057002 0.08046801 0.030269107 -0.066138566
000100 a4 79 c0 bc ac 29 32 bc 76 4e a7 3b 5e 48 26 bc
       -0.023495503 -0.010874193 0.005105789 -0.01014909
000110 78 1f c0 3d fa e8 62 3d 06 0a d4 bd 03 41 8d bd
       0.09381002 0.055397965 -0.10353474 -0.068971656
000120 c1 65 bd 3d 2c 2a 42 bd 78 9d e9 bd 0a 61 90 bd
       0.09247924 -0.0474035 -0.11406988 -0.07049759
000130 f9 53 10 be 6d c6 8e 3d 0d 73 a1 bc e5 28 8d 3d
       -0.14094533 0.069714405 -0.01970818 0.06892566
000140 7e df 9c bd 9d 5e 7d bd f5 49 e0 bd fa 91 08 3e
       -0.07659815 -0.06185781 -0.10951606 0.13336936
000150 2b 7b 0b 3d 80 9c 7b 3d f4 81 a3 bd b4 2a 95 3d
       0.03405301 0.061428547 -0.07983771 0.072835356
000160 50 29 05 bc c9 19 83 3d 49 ec db bd 96 a8 eb bd
       -0.008127525 0.064014025 -0.10738427 -0.115067646
000170 db f9 bf 3d 84 79 44 3d 30 23 07 3e 8e 45 06 3d
       0.09373828 0.04796745 0.13197017 0.032781176
000180 ca b5 c0 3d 05 f6 57 bd 08 c8 c4 3d e7 55 fc 3d
       0.094096735 -0.052724857 0.096084654 0.12321072
000190 bc c9 8a 3d ed b1 da 3c 45 54 8a bd 2c 4c 84 3d
       0.06776759 0.02669617 -0.067543544 0.06459841
0001a0 da 83 b4 bc 45 09 94 3c 42 2c dc bd 6d b8 e9 bc
       -0.022035528 0.018070826 -0.10750629 -0.028530324
0001b0 d4 99 20 be 6e 8d a0 3d a8 00 ed 3d cc 82 e4 bd
       -0.15683681 0.078394756 0.11572391 -0.1115776
0001c0 d7 a0 bb bd ab cb 16 bd 49 d3 a0 3d b5 71 e1 3d
       -0.09161537 -0.036815327 0.078527994 0.11008016
0001d0 99 82 ff 3d df 87 58 3d f3 2f 13 3d fe 28 a4 bd
       0.124760814 0.05286395 0.0359344 -0.08015631
0001e0 54 ed 4e 3d 6f d0 27 3e bb 1d d7 bd 17 dc ec bd
       0.050519302 0.16388105 -0.105037175 -0.11565416
0001f0 fe 69 b5 ba eb 52 1d be 6c bd 82 3d 3f e6 38 3d
       -0.0013840792 -0.15363662 0.063837856 0.045141455
000200 ef 81 0a be c4 92 ef 3c e3 31 a3 3d c2 71 6f 3d
       -0.13526128 0.029244788 0.079684995 0.058458097
000210 16 d3 01 be 77 dd 0a bd 2b 38 12 be 21 25 fd 3d
       -0.12678179 -0.03390261 -0.14279239 0.123605974
000220 a8 3c 19 3e 68 7f 9e 3d 3a 98 b4 bd 6a f3 27 3e
       0.14964545 0.077391446 -0.088180974 0.16401449
000230 8c 13 1f 3e d4 53 0d be 41 03 78 3d 9a f8 c1 bd
       0.155348 -0.13801509 0.06054998 -0.09471245
000240 60 c9 3e 3d 68 7e f3 3c 71 1c 06 bc d2 2a 11 be
       0.046578765 0.029723361 -0.008185492 -0.14176491
000250 7f d3 e2 bb fe 47 08 be d8 e3 d4 bc 29 7b 8e 3c
       -0.006922185 -0.13308713 -0.02598755 0.017392712
000260 98 dc aa bd 70 68 c0 bb cf 02 71 bc e2 17 91 3d
       -0.08342856 -0.005871825 -0.014710142 0.070846334
000270 f9 46 ea 3d e0 b0 c5 bd f3 92 99 bd 54 86 4f 3c
       0.11439318 -0.09652877 -0.074987315 0.012666304
000280 d1 6d af 3d 4e 02 92 bd 83 2c b1 3d fe 4c 2e 3b
       0.08565868 -0.07129346 0.08651068 0.0026596184
000290 3b e0 b4 bd 95 a3 ff 3d 93 63 a5 bd 12 92 c3 3d
       -0.08831831 0.12482373 -0.08075633 0.09549345
0002a0 a1 a6 28 3e 84 8b 01 3e d2 16 b8 3d a7 a7 39 3d
       0.16469814 0.12650877 0.08988728 0.0453259
0002b0 01 b5 f2 bd 68 a6 a1 bc 7d f1 a7 bc 2c 8e aa bd
       -0.1185093 -0.019732669 -0.020500893 -0.083278984
0002c0 83 df b5 3d 3c 3e 23 3e 94 4a ac bd d9 1e 87 bd
       0.08880522 0.1594171 -0.08412662 -0.065976806
0002d0 d0 ad a5 3d 7a 2e d8 3c d0 06 44 bc 99 4e 84 bd
       0.08089793 0.02638935 -0.011964515 -0.06460304
0002e0 2a a1 a8 3d 25 95 44 3d 7f 6b 78 bb 39 83 e9 bc
       0.082338646 0.047993798 -0.003790587 -0.028504955
0002f0 71 c6 6a 3d e1 70 d7 bd 37 8e 33 3c d7 a6 dc 3b
       0.057318155 -0.10519577 0.0109592 0.006733756
000300 56 24 a9 3d d0 d8 14 3e a2 6b 45 bd ec 7c 18 3e
       0.08258884 0.14535832 -0.04819835 0.14891404
000310 1f 54 8e 3d 25 bc 6d bd 78 71 fd bc 49 08 0a 3d
       0.069496386 -0.058040757 -0.030937895 0.033699308

lstm.weight_ih_l1 f4 [200, 50]
000000 fe e8 7b 3a 8f 17 a2 3c 3a 32 e5 bd bf b5 23 3e
       0.00096096087 0.019786624 -0.111912206 0.159873
000010 50 41 9a bd bb e6 82 bd 17 a7 ee bc 12 fb 35 3d
       -0.075319886 -0.063916646 -0.029132409 0.044428892
000020 a4 13 de 3d f0 f2 cd bd da 8e ab bd b5 55 0c be
       0.1084359 -0.10056102 -0.08376856 -0.1370457
000030 6a bb f2 bd 7f b2 ad 3d a3 f9 f5 3c d0 35 d5 bd
       -0.11852153 0.08481311 0.030026263 -0.104106545
000040 a8 d7 0d bd 5f 5d 86 bd e4 d1 82 3d a4 1c 27 3a
       -0.034629494 -0.06560778 0.0638769 0.0006374812
000050 e8 8d b5 3c bf 07 8a bd fc 70 93 3c b4 5c 19 be
       0.022162393 -0.06739759 0.017998211 -0.1497677
000060 af df 4b 3c c1 e6 b2 bd 08 f7 85 bd 2f e4 eb 3d
       0.012443467 -0.08735419 -0.06541258 0.11518132
000070 f7 8e 4c 3d 2f d8 e2 3d b0 c4 02 3d 73 41 5b 3d
       0.04994103 0.1107639 0.031925857 0.053529214
000080 fd 90 2b bd 5f 81 0f be d4 3c 00 3d 18 ef 3b 3d
       -0.04188632 -0.14014195 0.03130801 0.045882314
000090 1a 55 1d 3e ad d3 b2 3b 3f e3 ce bc 02 69 48 bd
       0.15364495 0.0054573626 -0.025254844 -0.04892827
0000a0 6a 91 42 3a ae 73 9f bc 7e e5 8c 3d 95 7f ee 3d
       0.0007422181 -0.01946434 0.0687971 0.11645428
0000b0 ea 9e 27 bb 06 2a 18 3e 40 a7 59 3d 20 b0 28 3d
       -0.0025576898 0.1485978 0.053138018 0.04118359
0000c0 9e fc 37 3d 38 37 ec bd f4 85 ae bd 77 f0 d0 bd
       0.04491865 -0.1153397 -0.08521643 -0.10202115
0000d0 dd 61 30 3c 2e 70 87 bd 72 de bc bc ec 89 be bd
       0.01076552 -0.066131935 -0.023055289 -0.0930365
0000e0 e3 17 db 3d 01 48 56 3d ea 26 9a 3c 06 49 ca bc
       0.106979154 0.052314762 0.018817384 -0.024693023
0000f0 10 6d be b9 1a 28 91 bc 85 8e ac bd 0d 72 23 3e
       -0.00036320882 -0.017719317 -0.08425621 0.15961476
000100 72 ac 94 bd e2 9c 54 3c 92 d0 0b bd 5f c2 f4 3d
       -0.07259454 0.012976857 -0.034134455 0.11951136
000110 23 bd df bd c4 19 c7 3d 04 8d dd bc 15 18 bc 3d
       -0.10924747 0.09721711 -0.02704478 0.09184281
000120 37 03 85 bd 75 ac 86 bd 1d f3 27 bd bb f3 cf 3d
       -0.06494754 -0.06575862 -0.041003335 0.1015391
000130 2f 31 17 3e 93 a3 07 3e 8e 56 1f bd a2 d7 98 bd
       0.14764856 0.13245992 -0.038900904 -0.07463004
000140 e9 d8 cc 3d a2 8b 8c bc 22 c0 d0 bc fa c0 af 3d
       0.1000231 -0.017156426 -0.025482241 0.08581729
000150 a7 a7 7b 3d d7 72 16 3e bf fb 5b 3d f5 7a d4 bd
       0.061439183 0.14692245 0.05370688 -0.10375015
000160 78 98 e7 bd da 87 a5 bc d9 d2 8f 3d b6 ae d0 3d
       -0.11308378 -0.02020638 0.07022638 0.101895735
000170 3e 3c 0f be 3c 8e 8d bd 97 de e6 3d f8 65 f2 3c
       -0.13987824 -0.06911895 0.112729244 0.029589638
000180 62 7a ca bd c5 40 72 bd 8f c2 90 3c 0f 52 fc bb
       -0.09886624 -0.0591438 0.017670898 -0.007700212
000190 4d 6a 18 3d 70 55 84 3c 05 11 c5 bc 5f aa 44 bd
       0.03721075 0.016154021 -0.024055967 -0.04801404
0001a0 98 5b 0d 3e 41 3b 03 3e c8 6e 8a 3d 89 f3 b9 bd
       0.13804471 0.12815572 0.06759411 -0.09079654
0001b0 cd 1f 25 bd 5f a4 12 be 23 0c e1 bd 58 28 12 3e
       -0.04031353 -0.14320515 -0.10988643 0.14273202
0001c0 02 7b e6 bd cc 7c ad 3d 2e 12 f9 bd 8e a3 fa bd
       -0.11253931 0.08471069 -0.121616706 -0.12238227
0001d0 3e d6 c1 bd 96 33 28 be 2c 96 19 3d 77 80 ff bb
       -0.094646916 -0.16425928 0.03749673 -0.0077972966
0001e0 ec 87 ad bd dc 39 17 be b4 bb 24 3d f6 19 94 3d
       -0.08473191 -0.14768165 0.04021807 0.07231514
0001f0 c5 bd c3 3d da df c4 bd 8e a4 44 bd 87 c0 1e be
       0.0955768 -0.09613009 -0.048008494 -0.15503131
000200 3c 39 ee bd 82 30 f9 bd 14 ce be 3d 3d df 8a 3b
       -0.1163201 -0.12167455 0.0931665 0.004238038
000210 02 2d 18 3d 8a ca e6 39 66 1e 46 3b d2 1f 46 bc
       0.037152298 0.00044019922 0.0030230521 -0.0120925475
000220 15 73 b0 bd 24 bd 70 bc d6 e1 88 bd 7a f4 fa bd
       -0.086157 -0.014693532 -0.066837 -0.122536615
000230 b1 68 a4 3c fe 30 9d bd bd b4 80 bd 92 57 e2 3d
       0.020069452 -0.0767536 -0.06284473 0.11051859
000240 55 22 e3 bd ff 94 07 3d 72 8c 01 3e 65 78 e2 3d
       -0.11090533 0.033101078 0.12651232 0.1105812
000250 cc fd 1e 3d f9 fb af bd af 7e 25 bd d9 54 fc bc
       0.03881626 -0.08592982 -0.040404018 -0.030802177
000260 19 65 9d 3d eb 33 08 bc fa d5 2a be fe 7c c5 bd
       0.076852985 -0.008313159 -0.16683188 -0.09642981
000270 30 3f 67 3d d0 c3 85 3d 8b 25 ad 3d 92 4f 26 3e
       0.056456745 0.06531489 0.084544264 0.16241291
000280 75 2a 47 3c 5d a1 15 3d a6 85 f9 bd 48 e3 ba bd
       0.012156119 0.03653084 -0.121836945 -0.09125382
000290 ff b6 1d 3e 90 c4 93 bd c3 3a 8a bc 51 63 17 3e
       0.15401839 -0.07215226 -0.016873723 0.1478398
0002a0 c3 eb bc 3d ef 61 56 3d b3 e2 2c 3e b1 f4 a5 3d
       0.092246555 0.05233949 0.16883354 0.08103312
0002b0 09 24 e1 bc a5 16 f4 bd 71 fa bb bd 6a 7d 24 be
       -0.027483003 -0.119183816 -0.09178627 -0.16063467
0002c0 df 4b 55 bd 1e 5d 10 3e 46 19 5e 3d 05 ca f4 bc
       -0.05207431 0.14098021 0.05422332 -0.029881487
0002d0 87 af b8 bb 4d b2 07 bc 24 82 87 bd a9 fc e5 3d
       -0.005636159 -0.008282256 -0.06616619 0.11229832
0002e0 cc b0 88 3d 35 8f 15 bc 0a b1 86 3d f6 a3 1b be
       0.06674346 -0.0091283815 0.06576736 -0.15199265
0002f0 2d 27 75 3c 60 ef c5 3c 60 ab 6d bd 3f 9f 8e bd
       0.0149629535 0.024161994 -0.058024764 -0.069639675
000300 39 8d 90 3d a4 f4 ec 3d 6f e7 91 bd 0e 71 89 3d
       0.07058186 0.11570099 -0.071242206 0.067110166
000310 9c b1 43 bd fc 35 20 be 88 4a f6 bd ad d2 22 be
       -0.047776803 -0.15645593 -0.120259345 -0.15900679
000320 67 02 81 3d b5 1e e2 bd 68 c1 b4 3d ad 79 13 be
       0.06299286 -0.11041013 0.08825952 -0.14401884
000330 c1 48 f7 3c 30 e2 15 bd 1c 4d 69 bc 0d d7 07 3e
       0.030186059 -0.036592662 -0.014239576 0.13265629
000340 e6 2d b8 bd 61 9a 9a bc 04 35 90 bd db 5c c1 bb
       -0.089931294 -0.018872442 -0.07041362 -0.005900962
000350 16 38 85 3a 33 37 09 bc 7a 61 ab ba fb 60 98 3d
       0.001016381 -0.008374977 -0.0013075315 0.074403726
000360 84 74 b4 3d ce 62 d3 bb ce a3 a6 bc 26 af 11 be
       0.08811286 -0.0064509874 -0.02034178 -0.1422697
000370 9c 56 fd 3d 67 5b 19 3d 68 be f7 3d a4 13 23 3b
       0.12370035 0.037440684 0.12096864 0.0024883533
000380 92 94 0c be fc 60 f1 bd 7a 43 36 3d 91 f4 17 3e
       -0.1372855 -0.117860764 0.044497944 0.14839388
000390 91 6f 06 be 76 99 e0 3d d4 90 d1 bc 63 3d 1a 3e
       -0.13128497 0.1096677 -0.025581755 0.1506248
0003a0 ac bd ff bd 4a 75 92 3d a0 eb f3 3d e0 81 55 bd
       -0.12487349 0.07151277 0.11910176 -0.05212581
0003b0 b8 c9 e2 bd 8b 24 39 bd 7d e5 1e bd b8 63 6e 3d
       -0.11073631 -0.045200866 -0.038793076 0.058200568
0003c0 a7 b0 bc 3d 05 25 bd bc a0 bd 8e 3d 6d ee b5 3d
       0.09213381 -0.023088941 0.06969762 0.08883367
0003d0 08 d6 8b bd 22 59 36 bd 19 92 82 3d 7a a1 fc bb
       -0.068279326 -0.044518597 0.06375522 -0.007709679
0003e0 9d 63 ee 3d e2 bd e0 3c ba e6 65 bd 07 70 be bd
       0.116400935 0.027434293 -0.05612824 -0.09298711
0003f0 a5 76 26 3d 37 e1 25 bd 67 bc 66 3d 47 44 da 3c
       0.040640492 -0.040497985 0.05633202 0.026643885

lstm.weight_hh_l1 f4 [200, 50]
000000 77 81 e0 bc c4 4d 29 3c 25 19 c3 bc e0 f0 e8 3d
       -0.027405484 0.010333482 -0.0238157 0.11374068
000010 2f 86 8d 3d 92 a0 05 bd aa 17 b8 3d 48 67 03 bb
       0.06910359 -0.032623835 0.089888886 -0.0020050574
000020 56 e8 b8 bc 65 ce 96 3d 23 22 28 bc 50 39 a2 bd
       -0.022571724 0.073635854 -0.010262045 -0.07921088
000030 90 94 af bd a2 24 8b bd 50 aa 95 bd 0a d5 7b bd
       -0.08573258 -0.067940965 -0.07307875 -0.061482467
000040 e0 d8 b7 bd f9 8d 02 3e 31 04 89 3d aa 1b 66 3d
       -0.089769125 0.12749471 0.066902526 0.056178726
000050 cd 58 ab bd 1d 20 8c 3d a5 2d 19 be 5f 2f c6 3d
       -0.08366547 0.068420626 -0.14958818 0.09677004
000060 ee 74 80 3d 30 72 ad bb 6f fd ca bd 3b f8 80 3c
       0.062723026 -0.005293153 -0.0991162 0.015743366
000070 98 b0 7e 3d 8e 18 0c 3e d4 17 1f 3e 0e 01 2c be
       0.06218013 0.13681242 0.15536433 -0.16797277
000080 7f e4 a2 bb b6 79 85 3c b1 a4 94 3d 59 25 b3 3d
       -0.0049710865 0.016293388 0.07257975 0.08747358
000090 11 91 dc 3d e3 fc 41 3c f7 ce f8 3d 26 f6 22 be
       0.10769857 0.011840078 0.121488504 -0.1591421
0000a0 31 da 1f bd 2a d3 ba bd fe 6e 80 3d c3 05 1b 3e
       -0.039026443 -0.091223076 0.0627117 0.15138917
0000b0 c7 ee 03 3e a0 58 81 37 be 22 cc bc ac 01 c3 bd
       0.12884055 1.5419268e-05 -0.02491891 -0.09521803
0000c0 b1 c0 56 3d fc b0 14 bd f1 08 c9 3d d5 b2 c2 bb
       0.05242986 -0.036301598 0.098161586 -0.0059417286
0000d0 d1 3b 37 3d df 4d 54 bd 1e 17 86 3c 14 f5 5f 3d
       0.04473478 -0.051832076 0.016368445 0.054677084
0000e0 a2 a4 fe 3d 61 51 06 3e fa 4b 76 bd 90 c7 10 be
       0.12433745 0.13116981 -0.06013105 -0.14138627
0000f0 c1 19 36 3d 38 24 ff 3d 4c 17 0f 3e b4 6c 42 bd
       0.044458155 0.1245808 0.13973731 -0.04746695
000100 56 5d 1d be b1 b7 8e 3d 06 c5 d2 bc 78 7a 01 be
       -0.15367636 0.0696863 -0.025728714 -0.12644374
000110 6e 64 67 bb 49 3c 13 bd cb b8 eb 3d 31 fa a3 3c
       -0.0035307663 -0.035946164 0.11509856 0.020016761
000120 8e eb 06 bb 00 c7 8f bc d3 df e4 3d be 0c 57 bd
       -0.002058718 -0.017550945 0.111755036 -0.052502386
000130 4d 4c 9a bd 6a aa c7 3a 3b a3 46 bd 32 ad d6 3d
       -0.075340845 0.0015233282 -0.048495512 0.10482253
000140 d8 18 42 3d e7 b9 b2 3d 81 c1 45 bd b5 47 07 3d
       0.047386974 0.08726864 -0.048280243 0.03302737
000150 62 97 0a bb 33 e6 55 bd 07 16 1b 3e 9c 8f 04 3e
       -0.002114736 -0.05222149 0.15145122 0.12945408
000160 91 0d 12 3e 76 74 27 3a 24 d0 30 bd e4 cd 16 3e
       0.14262988 0.00063878985 -0.04316725 0.14726979
000170 f8 dc 33 bc 8c b7 81 3d 6e c4 d8 bd 9f be b6 3d
       -0.010977976 0.06333837 -0.10584341 0.08923077
000180 4b cf ba 3c 76 bb 98 3d f2 b8 95 3d 09 2d 0a 3e
       0.022803923 0.0745763 0.07310666 0.13493742
000190 1a b6 9b bc 9e 47 f3 3d df 3c 03 3d 7f 03 8d bc
       -0.019007731 0.11878894 0.032040473 -0.017213581
0001a0 1d 37 f4 bd 15 dd e8 3d 59 b8 96 3d 8d b4 01 be
       -0.119245745 0.11370293 0.0735938 -0.12666531
0001b0 5d 12 f7 bd 4b 01 0a 3e 37 a3 fb bd 42 fe 79 3d
       -0.120640494 0.13477056 -0.1228699 0.061033495
0001c0 af fe b4 3d 5c a9 03 be b5 03 fa 3d 0d 13 0d be
       0.088376395 -0.12857574 0.12207738 -0.13776799
0001d0 9e 5c 98 3d 2b c1 5e bd cc 81 af 3d 83 7a 0a 3e
       0.0743954 -0.054383438 0.08569679 0.13523297
0001e0 d2 ec 67 bc 4c 0c 8c bd 15 d2 37 3c 56 ac 1f be
       -0.014155583 -0.06838283 0.011219521 -0.15593085
0001f0 2b e3 ca bd 4d e5 aa 3d 99 74 4a bb 50 da b4 3c
       -0.0990661 0.08344517 -0.0030892252 0.022076756
000200 e6 80 cf bd 4a 30 c3 bd a2 44 12 bd 4b bc af bc
       -0.10132007 -0.09530695 -0.035709985 -0.02145209
000210 5a 0d f9 bc 51 8c 91 3d 65 15 a4 3d 35 d5 aa 3d
       -0.030401874 0.07106841 0.08011893 0.08341447
000220 36 db d8 3d 67 57 1c bd ed dd cf bd 98 90 db bc
       0.10588686 -0.03816929 -0.10149751 -0.026802346
000230 8e a4 af bd 6d cb e3 bd 64 43 0b 3d fd 3f c6 bd
       -0.08576308 -0.11122785 0.033999816 -0.096801735
000240 c8 a2 1a be dc df b5 3d 63 3a df 3d 4f 45 0e 3c
       -0.15101159 0.088805884 0.10899808 0.008683517
000250 eb 91 d3 3d 2c 91 82 3d 85 83 81 bd 1d d5 91 3b
       0.10330566 0.063753456 -0.063239135 0.004450454
000260 7d 65 cc bd 6a d1 0e bd 9e 2f 08 be dc 69 86 3c
       -0.09980295 -0.03486768 -0.13299415 0.0164079
000270 0f 97 80 bb 0f 29 08 3e 5c 22 48 3d bb 27 ad 3d
       -0.0039242576 0.13296913 0.048860893 0.084548436
000280 bd 7f 5f bd 12 06 0d 3d 36 7a 95 3a 0a 96 e8 bd
       -0.05456518 0.034429617 0.001140422 -0.11356743
000290 1b eb 0d be 41 19 dc bd d4 0b 4a bc de d3 d9 3d
       -0.13859217 -0.10747004 -0.012331922 0.106361136
0002a0 62 87 49 3d 0b e7 0d 3e 58 c7 b5 bd d4 e0 a0 3d
       0.049201377 0.13857667 -0.088759124 0.078553826
0002b0 8d 6c 8d 3d 04 1e 2a 3d 5b b8 e1 3d 2b c0 be bd
       0.0690547 0.04153253 0.11021491 -0.09313997
0002c0 c8 38 0b be 01 a4 21 bd b3 0b 2d bd 18 57 9b 3d
       -0.13595879 -0.039463047 -0.042247485 0.07584971
0002d0 32 a9 95 bd 04 07 31 bd 83 e0 21 bd 58 14 ee bd
       -0.07307662 -0.04321958 -0.03952075 -0.11624974
0002e0 1a 51 cd 3d 68 b3 03 3e 59 92 9a bd 5f 70 ae 3d
       0.100252345 0.12861407 -0.07547445 0.08517527
0002f0 88 38 d5 bd 6f 93 b6 3c 53 eb bb 3d 54 01 bf bd
       -0.10411173 0.022287099 0.09175744 -0.09326425
000300 93 7f 8f bd 2c f3 6e bd 57 75 b5 3d ed 3b 9f 3d
       -0.07006755 -0.058337376 0.088602714 0.07775102
000310 59 6e 16 be fc 9c 22 bc 75 60 39 3d 57 a3 c6 bd
       -0.14690532 -0.009925123 0.045258004 -0.09699123
000320 de be e0 3d 9d b4 14 3a 1d 23 98 3d e0 ee 21 bd
       0.10973905 0.00056726654 0.07428572 -0.03953445
000330 18 a4 e4 bd 14 38 07 be c7 34 5b bd 16 29 ab bc
       -0.11164111 -0.13204986 -0.05351713 -0.020893615
000340 08 62 97 bd fb 5a 01 3d fa e4 8b 3d e2 53 05 3e
       -0.07391745 0.031580906 0.06830783 0.1302028
000350 06 5c eb 3d 11 a2 d8 bd 30 a7 c0 3d b7 38 83 bb
       0.114921615 -0.10577787 0.094068885 -0.0040045637
000360 b2 40 1b 3d c2 12 8f bd ba d1 9b 3d 9e 4f c9 bd
       0.037903495 -0.06986 0.076083615 -0.09829639
000370 5e 15 16 bb 69 4c 9a 3d 7f 75 b4 bd 73 00 f7 3d
       -0.002290092 0.07534105 -0.08811473 0.120606326
000380 d0 1b 04 3d cf 41 f8 3d 00 cb d7 bb 7e d0 d1 3d
       0.032253087 0.12121927 -0.006585479 0.10244845
000390 36 fe 13 bd e0 6e 49 3b 40 a7 51 3d d7 4b 8d 3d
       -0.036131106 0.0030736253 0.051184893 0.06899231
0003a0 40 d8 83 bc fb 71 6e bd fa b1 73 bd 10 b8 f0 3d
       -0.016094327 -0.05821417 -0.059495904 0.11753857
0003b0 6c 46 d0 bc bb a0 ba 3d 7a d3 b9 3c ce 66 24 3d
       -0.025424205 0.09112688 0.022683848 0.040137105
0003c0 71 9b e7 bc 39 e6 83 3d e0 38 f5 bd c5 9f f6 bc
       -0.028272362 0.06440396 -0.11973739 -0.03010548
0003d0 ce 76 00 be f9 6a 34 bc 8f 99 03 3d 0a e9 ed 3d
       -0.1254532 -0.011011832 0.032128867 0.11616714
0003e0 50 30 8a 3c 5f 93 65 bc 25 fa c7 3d bc 1f 1d 3c
       0.01686874 -0.014012187 0.09764508 0.009590086
0003f0 a8 e5 96 bd 74 f9 bc bc a0 01 70 bd 74 d9 2c 3d
       -0.07368022 -0.023068167 -0.0585953 0.042199567

lstm.bias_ih_l1 f4 [200]
000000 07 e2 bf bd e8 d8 ce 3d 14 ae e8 bc a1 ba 2e 3e
       -0.09369283 0.10099965 -0.02840332 0.17063381
000010 68 32 21 3d 8b 52 20 bd 8b 0e f5 3d f9 63 9e bd
       0.03935471 -0.03914122 0.119656645 -0.07733912
000020 91 22 20 3e 20 9f f7 bd 2e 0a 3a 3d 2b 2a e8 3d
       0.15638186 -0.120908976 0.045419864 0.11336168
000030 8e 2a 93 bd 4c 44 97 3c bd 9e 6f bd a4 00 86 bd
       -0.07185851 0.018465184 -0.058500994 -0.06543091
000040 0b be 75 3d 1e 76 67 bd 29 7c b3 bd c8 8d f3 3c
       0.059995692 -0.05650913 -0.08763916 0.029730693
000050 78 94 01 bd ea d1 4d 3c 18 7f b1 bd f5 30 39 bd
       -0.03163573 0.012562254 -0.08666819 -0.045212705
000060 22 09 00 3d 34 bd 4c 3d a0 85 f0 3b 1f 24 02 3e
       0.03125871 0.049985126 0.007340148 0.12709092
000070 71 d6 bf 3d 38 74 01 3d 57 ea 2f 3e d5 6a a9 3c
       0.09367073 0.031604975 0.17179237 0.020680824
000080 77 87 6d 3c 70 86 98 bc 5b 01 87 3d 7f 8b 18 be
       0.014497629 -0.018618792 0.065920554 -0.14896964
000090 7c ae a8 bc 30 dc 02 be f1 86 1e 3e f6 81 4b bb
       -0.020591013 -0.12779307 0.15481164 -0.0031052805
0000a0 9f fa cb 3d 4d 32 83 bc 9c c3 e2 3d 34 91 b1 bd
       0.099599116 -0.016015196 0.11072466 -0.086702734
0000b0 ac 20 35 bc dd 9c 53 bd 66 40 2d 3c d3 5f 1b 3e
       -0.011055153 -0.05166327 0.010574436 0.15173273
0000c0 92 ff 68 3d 8b ff aa bd 14 88 ef bc 74 68 e4 3a
       0.056884356 -0.08349522 -0.029239692 0.0017426149
0000d0 48 ce 2a 3d 2b 72 12 3e a9 06 e2 bc 7f 85 e6 3d
       0.04170063 0.14301364 -0.027591066 0.11255931
0000e0 c7 4f 98 3d 0c 71 77 bd 79 0b c1 3d 84 ac 11 3e
       0.07437091 -0.060410544 0.09426016 0.14225966
0000f0 14 4b f6 3d a0 ba 84 bd c4 52 75 bd 5f 33 42 bc
       0.12026039 -0.064809084 -0.059893385 -0.011853068
000100 f0 06 1e be 3d a8 55 3d 16 09 36 3d 72 11 08 3e
       -0.15432334 0.052162398 0.04444226 0.13287905
000110 b1 f3 f1 3d b7 3d fb 3d 10 06 cd b8 88 71 06 be
       0.118140586 0.122676305 -9.776291e-05 -0.13129246
000120 01 23 82 bd 5e f5 2a 3e 40 d7 9a 3d ce 01 2b 3c
       -0.06354333 0.16695163 0.07560587 0.010437442
000130 52 58 55 bc 28 ec ea bd 80 e6 dc 36 30 e4 8a 3d
       -0.0130215455 -0.114708245 6.5833447e-06 0.067818046
000140 68 73 16 3d 39 22 12 3d eb c1 cb 3c c0 9c 63 bd
       0.036731154 0.03567717 0.02487274 -0.05556941
000150 48 49 28 3e 06 87 4b bd 9d 00 f4 bd e3 68 d7 3c
       0.16434205 -0.049689315 -0.119141795 0.026295131
000160 9b 76 d2 bd 52 ec ff 3d 71 85 f0 3d 2f ef 2a 3d
       -0.102765284 0.124962464 0.11744202 0.04173201
000170 8e 4c ce bc dc 87 80 bd 84 82 ac 3b 27 ad 18 3e
       -0.025182988 -0.06275913 0.005264582 0.14909802
000180 90 5d 23 bd 04 54 a9 3c dc 4c b0 bc a0 ef 18 3e
       -0.03988415 0.020669945 -0.021521024 0.1493516
000190 f8 60 20 bd 78 18 b3 3c ec 90 89 bd 01 1e ad bc
       -0.039154977 0.021862254 -0.06717095 -0.021132471
0001a0 91 fd 6a bc b5 2c ff bd 58 a8 f5 bc c0 1d c7 3d
       -0.0143426815 -0.12459699 -0.0299875 0.09722471
0001b0 7c 80 8c bd f4 76 aa bc 55 99 34 bd 35 ed 6b 3d
       -0.06860444 -0.020808674 -0.04409154 0.057599265
0001c0 60 15 5d 3d 9d c8 86 bd 78 93 56 bd 6c 15 8c bd
       0.053975463 -0.06581233 -0.05238673 -0.068400234
0001d0 d7 77 da 3d 59 a2 4e bc 81 e0 a6 bc c0 c7 8e ba
       0.10667389 -0.012611949 -0.020370724 -0.001089327
0001e0 32 05 08 3e fe 85 83 bd 11 cb 1c be af 68 ac 3d
       0.13283232 -0.06422041 -0.15311839 0.08418404
0001f0 5b f7 c3 bd f3 d8 00 bd fa e6 9e 3d 37 b2 ef bd
       -0.09568664 -0.0314569 0.07758899 -0.11703914
000200 2e 57 1a 3e c4 e7 f3 3d bb a8 d2 3d d6 d3 d7 3c
       0.15072319 0.1190944 0.10286089 0.026346128
000210 9f 68 0b bd 8a 6d 12 bd 40 a0 bc 3d 5d 87 c3 3c
       -0.03403532 -0.035748996 0.09210253 0.023868257
000220 04 cf 2b bd 53 5e 96 bd b1 b9 25 3e cc 2d 8f bc
       -0.041945472 -0.0734221 0.16184117 -0.017477892
000230 02 3f c2 3d 15 2d ec 3d 48 96 b7 bc cc d9 0c 3e
       0.09484674 0.11532036 -0.022410527 0.13754958
000240 0a 52 08 3e c8 18 0b be 63 0f d1 bc a7 59 f4 3c
       0.13312545 -0.13583672 -0.025520032 0.029827906
000250 91 60 a7 bc 4d ce 3e 3d ac ce 65 bd 1c 2e 61 3d
       -0.020431789 0.046583463 -0.0561053 0.054975614
000260 47 58 c2 3d ea 1e db bd d9 ba 84 3b fb 95 ca 3c
       0.09489494 -0.10699256 0.0040505943 0.02472972
000270 eb 97 3c 3d b5 15 c6 3c b7 cc 83 3d 77 22 95 bb
       0.046043318 0.024180273 0.06435531 -0.0045512277
000280 58 03 86 3d a4 e0 b9 bd 41 53 ab bd 06 53 dd bd
       0.065436065 -0.0907605 -0.08365489 -0.10806851
000290 c4 84 14 be 80 05 2a 3d 81 1e d2 3d a3 bc e5 bd
       -0.14503771 0.04150915 0.102597244 -0.1121762
0002a0 86 ee fd 3d 4c fc 7c bd 04 15 6b 3d ef 52 9f 3d
       0.1239901 -0.061764047 0.05739309 0.0777949
0002b0 ae 3c 20 3e 8a 76 a2 bd 96 5d df bd cf 23 4f bd
       0.15648147 -0.07932766 -0.10906522 -0.05057126
0002c0 33 a0 46 bd 06 49 07 3d f2 02 8e 3d a8 7f f8 3d
       -0.04849262 0.033028625 0.069341555 0.121337235
0002d0 48 93 d0 ba 45 5f 0d 3e 49 39 b5 bd 3f 46 c0 bc
       -0.0015913034 0.13805874 -0.08848817 -0.023470996
0002e0 4f a3 29 3e e2 c4 27 3d 0c 22 c8 3b 53 e9 f5 3c
       0.16566204 0.040959246 0.0061075743 0.030018484
0002f0 f3 60 b2 bd c9 f7 95 bd 5e 84 db 3d e4 e0 bc 3c
       -0.08709898 -0.07322652 0.107186064 0.023056455
000300 d3 c6 bd bc b4 cd 1c 3e d0 cb 38 3d 7a 33 ab 3d
       -0.023166096 0.15312845 0.045116246 0.08359428
000310 0b f9 0a bd 88 38 95 bd a2 64 0c 3e a2 43 26 3d
       -0.033928912 -0.07286173 0.13710263 0.040591843

lstm.bias_hh_l1 f4 [200]
000000 53 ab bd bb 2c 50 f6 3d 85 7c dd bd 16 eb 60 bd
       -0.0057882457 0.1202701 -0.10814766 -0.054911695
000010 8f 79 e6 3d da 12 0f bc da fa f3 3d 81 c4 00 3e
       0.11253654 -0.008732522 0.119130805 0.1257496
000020 22 56 93 3d 99 d5 60 3d e5 11 4e 3d 79 5d f1 3d
       0.07194163 0.054891203 0.050310034 0.117854066
000030 54 a9 51 bd bd d3 18 be 45 3f 80 bd cb 99 04 3e
       -0.051186875 -0.14924522 -0.06262068 0.12949292
000040 5f a9 fb bc 64 2e 5c 3b a8 bd 1b be f9 ed d2 bd
       -0.03072041 0.0033596987 -0.15209067 -0.10299296
000050 08 ee bb bd 5a 18 76 3d f8 18 a9 bd 60 cb d9 3d
       -0.0917626 0.060081817 -0.082567155 0.10634494
000060 d7 e4 84 3b 78 be 1a 3e e9 ef ec bd bb 1e c5 bd
       0.0040556 0.1511172 -0.11569197 -0.09625002
000070 c7 dd 86 3d 74 e6 55 3d a4 02 d6 3d 23 fe d6 3d
       0.065852694 0.05222173 0.104497224 0.104976915
000080 73 81 1e 3d 35 aa 02 be 9d 67 30 bd 25 4a 87 3d
       0.03869767 -0.12760241 -0.043067563 0.06605939
000090 86 65 53 3c 41 83 f2 3d 2f 87 35 3d e8 ab c2 bc
       0.012902623 0.11841441 0.044318374 -0.023763612
0000a0 69 5b d8 3d f7 aa 1e be 92 0f 1e 3e 50 54 a1 3d
       0.1056431 -0.15494905 0.15435627 0.078774095
0000b0 83 59 f5 3d fb bc bf 3d 77 09 23 3d 51 38 41 bb
       0.11979964 0.09362217 0.03980395 -0.002948303
0000c0 9f c3 ce 3d c1 93 4e 3d 34 eb 22 3e 77 ae 1e bc
       0.100959055 0.050433878 0.15910035 -0.00968515
0000d0 41 31 9e 3d d2 50 9d 3d 49 e3 ca bc 6e a1 d1 bc
       0.07724238 0.07681431 -0.024766581 -0.025589671
0000e0 d5 c8 b3 bd 33 b3 f1 3d 3b 5f f4 bc eb d8 a6 bd
       -0.0877854 0.11801758 -0.029830566 -0.081468426
0000f0 11 e1 24 bd 3b 20 19 3e 14 33 a4 bc 08 db 97 bd
       -0.040253703 0.14953701 -0.020043887 -0.07414824
000100 8e 4d d9 bd 89 67 f5 bd fc 65 94 bb ba 43 01 be
       -0.106104955 -0.119826384 -0.004528759 -0.12623492
000110 30 a0 01 be a7 a6 aa bc 15 6f 1e 3d 7b 36 d2 bd
       -0.12658763 -0.02083142 0.038680155 -0.102642976
000120 81 27 89 3d 95 57 81 bd 52 42 a9 3d d6 01 f9 3c
       0.06696988 -0.06315533 0.08264603 0.030396383
000130 6d 9e 88 bd bf de 0c 3e e5 5d 94 bd cc c6 4f 3d
       -0.06670842 0.13756846 -0.072444715 0.050726697
000140 bf ca 2a 3e 6e 77 0d bc 5f 0b eb bd 25 1a fc 3d
       0.16678904 -0.008634431 -0.11476778 0.12309674
000150 42 78 b0 3d 78 63 5a bd 6e 64 1a bc 74 75 7f 3c
       0.08616687 -0.053317517 -0.009423358 0.015591968
000160 5b 3f c6 3d 3b 61 a2 3d 00 43 0e be 6e b8 d2 3d
       0.09680053 0.079287015 -0.13892746 0.102890834
000170 64 83 68 bd 14 47 0e 3e 2d 51 b0 bd 19 df be bd
       -0.05676593 0.13894302 -0.08609233 -0.09319896
000180 f0 70 45 3d c8 fa 39 3d 3b e5 af bd 7d 49 4b bd
       0.04820341 0.04540518 -0.08588644 -0.04963063
000190 ae d2 1c 3e d1 c5 14 bd 30 55 aa bd dd 16 ef 3d
       0.15314743 -0.036321465 -0.083170295 0.11674283
0001a0 cc d1 a6 39 f1 c8 a0 bd b0 c2 a5 3d 12 89 ad bd
       0.00031818298 -0.078508265 0.08093774 -0.0847341
0001b0 cc ae fe 3d 42 9a 06 bd c5 d0 7f 3d d9 7c fa 3d
       0.124356836 -0.032861955 0.062454958 0.12230844
0001c0 39 b4 a3 3d de b6 cc 3d 20 a0 26 3d d2 cd c3 3d
       0.07993359 0.09995817 0.04068005 0.095607415
0001d0 a1 bd 0d be b6 13 36 bd 4d 9e fe 3d 76 21 44 bd
       -0.13841869 -0.04445239 0.12432537 -0.047883473
0001e0 d1 65 06 3e 5f a3 e1 bd 34 ff 9c bd aa 0b 13 3e
       0.13124777 -0.11017489 -0.07665864 0.14359918
0001f0 26 da 94 3c d1 d8 04 be 8c 68 b4 bd c8 4b c7 3d
       0.018170428 -0.12973334 -0.08809003 0.09731251
000200 82 b2 9d bd 11 3b 25 3d 22 3a 3a 3d 63 ad 95 bd
       -0.07700063 0.040339533 0.045465596 -0.073084615
000210 e0 aa 8d 3d 90 c0 55 3d 3c 52 fb 3d 40 c8 4e bd
       0.069173574 0.052185595 0.12271544 -0.050483942
000220 3f ae a9 3d 76 aa ff 3c 62 79 fc 3d f3 8f 0c be
       0.08285188 0.031209212 0.123278394 -0.13726787
000230 c4 d9 64 3d c9 82 03 be a1 37 8c bd 80 bd 45 3d
       0.05587174 -0.1284286 -0.06846548 0.048276424
000240 de 49 8a 3d f9 60 a7 3d 02 e6 03 be a4 44 2c 3e
       0.0675237 0.08172793 -0.1288071 0.1682306
000250 bf a8 4d bc bd cb 0a 3e db 54 02 bd ec 9b 97 3d
       -0.012552439 0.13554282 -0.031819206 0.074027866
000260 50 24 a2 3b 90 94 50 3d b9 3c 2f 3d ef 87 01 3b
       0.0049481764 0.05092293 0.04278252 0.001976486
000270 ce bf d7 3d 9b 57 81 bd 32 f9 04 3e f3 44 51 bd
       0.10534631 -0.063155375 0.12985685 -0.051091146
000280 99 a4 15 3e 38 b4 d5 3d da 80 fa 3c ec 0d a6 bd
       0.1461357 0.104347646 0.03057902 -0.08108124
000290 da 0d cc bd 01 b7 b4 3c 98 6f 28 3e 19 f5 78 3d
       -0.099635795 0.02205992 0.1644882 0.06078062
0002a0 b3 18 cc 3d ea 59 f7 3d eb f4 b7 bd 95 c3 d3 3d
       0.099656485 0.120776966 -0.08982261 0.10340039
0002b0 28 ee 28 3e 1f cd 06 3e a0 51 ac 3d e6 2f 88 bc
       0.164971 0.13164185 0.08414006 -0.016624402
0002c0 51 f6 06 3d 46 fa f1 3d 12 9a 5c 3b da bb 48 bd
       0.03294975 0.11815314 0.003366117 -0.049007274
0002d0 ae 56 8e 3d 62 3d e2 3d 49 e6 c5 bd 62 cf f4 bc
       0.069501266 0.11046864 -0.09663064 -0.029884044
0002e0 06 ba 86 3c 45 a4 87 3b c2 27 8c 3c 13 88 7b 3c
       0.016446125 0.0041394555 0.017108802 0.015352267
0002f0 69 ff ba 3d dc 14 b6 bd 0e 50 2e bd 78 82 9d 3d
       0.09130747 -0.08890697 -0.042556815 0.076909006
000300 fa 77 86 3d d8 77 c3 3d 40 82 0b 3e 96 86 ba 3d
       0.065658525 0.09544343 0.13623905 0.091077015
000310 95 02 de bd 95 17 10 bd a8 8a ba 3c 26 d6 9d bd
       -0.10840336 -0.03517874 0.022771195 -0.07706861
