Models/rushing_model.pth (torch, 136652 bytes, 9 tensors)

lstm.weight_ih_l0 f4 [200, 12]
00000000: ab15 d33d a108 1c3d d3e0 2dbb f115 5e3d
00000010: 0a06 03be af20 903d 92d7 0ebe 6372 0b3e
00000020: f988 5f3c 4f88 c93d 0bb0 ec3d 3bc0 6abd
00000030: e439 b8bc a320 e03d 788e 08be 0d56 06be
00000040: 6cac dd3a c583 0b3e 586e 57bb 4e5c 723d
00000050: 5f50 09bd 8b60 853d e14c a13d 3227 f33d
00000060: e855 c1bc 31be c7bd d2d0 e6bd 0bb3 903d
00000070: 7cfa ce3c 15f7 2fbc c659 f83d 4e25 0d3d
00000080: d1d8 883d 188d c03d 40cd 603b beef 573d
00000090: 404e 64bd d9c5 083d 1364 003e 15e8 b1bd
000000a0: 556a 33bd fc6c ac3c fcd1 0c3e cb24 bcbd
000000b0: c80e 9fbd c0aa fdbd 57ea 36bd 0e89 2dbd
000000c0: 2e35 633d bf93 a63d 22e4 e43d f0b5 a53c
000000d0: ed1c 71bb dee7 67bc 04ab 2a3d fa8a cebd
000000e0: d8c2 d73d 3837 30bc 747e 41bc 0d9e 5cbc
000000f0: 25b1 06bd 323e 62bd 6464 9abd 9692 d03d
00000100: 10c0 803c ed5a 653d 1b10 e4bd c486 bbbd
00000110: e3dd 8c3d 8a92 cf3d 88e9 08be 5223 0c3e
00000120: a58c 98bd ff59 293c 5ddf 9f3d afe4 40bd
00000130: 01d4 01be f04c a339 c333 fe3d a487 c5bd
00000140: 6415 d9bd 4ff6 653d b1c2 76bd 1dfd 1a3e
00000150: 8642 86bc fc18 e6bb 9121 b23c 307f 62bd
00000160: 5a19 c8bc dcae 14be a148 843d fee3 bf3c
00000170: fd70 03be 9e39 993d 19c0 283d 1a3f 033a
00000180: 0a41 fbbd 38a5 01bc ce88 86bd b117 65bc
00000190: 8459 bb3d 4a6f bdba 5d5c fdbd 233e bb3d
000001a0: bc18 23be ede2 893d 0ffa 0c3e 0e8c e6bd
000001b0: 7548 0dbe a57e b13b 000e 48bd 0d4b cc3d
000001c0: 911d 0fbc c034 b8bd 491d d33d 6007 f43d
000001d0: cc12 133e b796 59bd 6473 dfbd 484a cd3b
000001e0: 7767 9dbd cfdc ad3d 7bec efbc f0d7 9a3c
000001f0: 11d1 343d 65fc c43d a9c5 bdbd 874f 393d
00000200: 9aec 9e3b 4bf0 ef3d 2ab2 e93d ca53 bdbb
00000210: 4e17 18bd 9c62 4dbc 4e7a 20be ea0e e43d
00000220: d5d1 febd 3619 c83d 979c c03c f6a0 22be
00000230: 9a07 7abd 73c3 e23d f698 95bd bd03 a93d
00000240: f525 1fbe 4583 f9bd 6f35 833d 74f5 853c
00000250: 6942 a63d 520c 64bc df5c e2bc 2553 2e3d
00000260: 7e2c e6bd ce1f 4f3d 647f 8f3d cdd3 abbc
00000270: 6605 92bd da29 93bd 6ee6 013b 2769 63bb
00000280: 63b8 663c 930e a43d c151 073d c98a d23d
00000290: da30 753d 8765 eb3d 8a6f 3c3d a792 b23d
000002a0: 97a4 3b3d f13a 973d 9286 443d 3fc9 673d
000002b0: 2856 863d 6e55 a1bc 8482 40bd b308 293a
000002c0: 7549 9bbd ec25 f43b 29f0 0abd 5298 8f3d
000002d0: 011b 3d3d e698 c739 13e3 27bd 357b c5bc
000002e0: a037 e2bd ba44 303d 652f febd f1d1 10be
000002f0: 7280 b73d 406e a7bd 750a b33d c7b1 9f3c
00000300: 4576 56bd 1b6b cd3d 7031 88bc ced9 d33d
00000310: d133 af3d 0f83 4ebd 0a33 8d3d cf4e 44bd
00000320: 20a8 8abd e3e5 bd3d eb18 d8bd ed57 04be
00000330: 718d 7a3d 02c9 b5bb a63c 693d 4dfc c2bc
00000340: a4e3 a13d 28e9 5e3d 08e4 9c3d 2f38 873d
00000350: de08 cc3d 6666 d73d 95e5 04bd 6d00 e5bb
00000360: 7203 ea3c 63c9 01be c1b9 acbd 6521 1dbd
00000370: 76e8 a63d 13c3 793c a6ae 90bd 837d 19be
00000380: d186 b83d 96a2 003e f534 edbd 3237 0b3c
00000390: c0dd 9dbc e867 f33d 9d0e 053d a39b f9bd
000003a0: 9d82 3a3d 7a20 773d 1b39 46bc f19f 8abd
000003b0: 2710 80bd 62ba 3e3d ba12 d73c 109a 9abd
000003c0: f6f6 1e3d 7048 a0bd 478a 073e 751a a5bd
000003d0: 8f2b 6b3d 980d 83bd 54f1 eb3c 555a ffbd
000003e0: 7d1e d53d 0c3f 093d e6dd e4bd 5c07 8a3d
000003f0: 0d7d a43d f66b 02be 697d 80ba ef21 213e
0.10306867 0.038094167 -0.002653171 0.054220144 -0.12795272 0.07037484 -0.13949421 0.13617854
0.013643497 0.09840452 0.11557015 -0.05731223 -0.022488542 0.10943725 -0.13335598 -0.13118763
0.0016912348 0.13624485 -0.0032872166 0.05917006 -0.033523913 0.06512555 0.078759916 0.1187271
-0.023600534 -0.09753073 -0.11270298 0.070654 0.025265925 -0.010740061 0.12126498 0.034459405
0.066819794 0.094019115 0.0034302026 0.05271887 -0.055738688 0.033391807 0.12538175 -0.08686844
-0.043802578 0.021048062 0.13751978 -0.09186705 -0.07766491 -0.123860836 -0.044657078 -0.042367034
0.055470638 0.08133649 0.111763254 0.020228356 -0.0036790923 -0.014154403 0.041667 -0.100851014
0.1053521 -0.010755353 -0.011809934 -0.013465417 -0.032883782 -0.055235095 -0.07538679 0.10184209
0.015716583 0.055994917 -0.111358844 -0.09156564 0.06878259 0.10135372 -0.13370335 0.13685349
-0.07448701 0.010336398 0.07806275 -0.04709309 -0.1267853 0.00031147106 0.124122165 -0.09645012
-0.10599783 0.0561431 -0.060244266 0.15135618 -0.016389143 -0.0070220213 0.021744521 -0.055297077
-0.024426151 -0.14519829 0.06459165 0.023424145 -0.1283607 0.07481693 0.041198824 0.0005006656
-0.122682646 -0.007912926 -0.06569062 -0.013982699 0.09147933 -0.0014452722 -0.123711325 0.09142711
-0.15927404 0.06732736 0.13767265 -0.11257182 -0.13797171 0.0054167085 -0.048841476 0.09975252
-0.0087350765 -0.08994436 0.1030832 0.11915469 0.14362639 -0.05312225 -0.10910681 0.0062649585
-0.0768575 0.084893815 -0.029287567 0.018901795 0.044144694 0.09618453 -0.09266216 0.04524186
0.0048499824 0.11715754 0.11410935 -0.0057778107 -0.0371316 -0.012535717 -0.15671656 0.11135657
-0.12442366 0.097704336 0.023512168 -0.15881714 -0.061042406 0.11072435 -0.073045656 0.08252666
-0.15541823 -0.12183241 0.06406676 0.016352393 0.081181355 -0.013918953 -0.027632175 0.04255976
-0.11238955 0.05056744 0.0700672 -0.020975018 -0.07129936 -0.07185717 0.0019821185 -0.0034700127
0.014082047 0.08010592 0.03303695 0.102803774 0.05986104 0.11493974 0.04600481 0.08719378
0.045811262 0.07384289 0.0479799 0.056588408 0.06559402 -0.019694056 -0.04699947 0.00064481347
-0.0758237 0.0074508097 -0.03392044 0.07011475 0.04616833 0.00038070156 -0.04098804 -0.024106601
-0.11045766 0.043034293 -0.124113835 -0.14142586 0.08960046 -0.081753254 0.08742229 0.01949395
-0.052358884 0.10030194 -0.016625136 0.10344277 0.08554805 -0.050417956 0.068945006 -0.04792672
-0.067703485 0.09272363 -0.10551628 -0.12924166 0.061170045 -0.0055476436 0.056942604 -0.023801947
0.07904747 0.054421574 0.07660681 0.06602513 0.09962629 0.10517578 -0.03244551 -0.006988576
0.028566096 -0.12674479 -0.08433867 -0.038361926 0.08149807 0.015244263 -0.070645615 -0.14989285
0.09010089 0.12562022 -0.115823664 0.008497046 -0.019270778 0.11885053 0.03248464 -0.121878885
0.04553472 0.060333706 -0.012098576 -0.06768788 -0.06253081 0.046564467 0.026254047 -0.07548916
0.03880974 -0.07826316 0.13236342 -0.08061687 0.057414588 -0.06399077 0.028801598 -0.12468401
0.10406206 0.03350739 -0.11175136 0.06739685 0.08031664 -0.12736496 -0.0009803 0.15735601

lstm.weight_hh_l0 f4 [200, 50]
00000000: bc38 633d 8ffe e5bd a383 e9bc 4840 0d3d
00000010: a2fa 063e 7319 96bd 82e2 973d f3c7 5fbc
00000020: 0fd3 98bd 8138 e53d 3c49 97bd 1b36 10be
00000030: 82ce 783d 8ad5 c73d 56b2 e4bd 6117 e23c
00000040: ab47 fabd 322b cabc 0e4e dd3d f07f 0bbb
00000050: 528c a9bd 69ba 643d 1f84 5d3d 2f34 b7bd
00000060: b694 163d 9bd8 f3bc 11e4 0fbe b560 013e
00000070: 01a5 0b3e ed23 2c3d 601e 183d b0da e6bc
00000080: fb11 0fbe 85f6 133e b33b 4b3d 2c79 9cbd
00000090: e64a c0bd 0566 e4bd 584f a3bd 8037 10bd
000000a0: 2a03 f83b 16ae da3c e818 1e3c 6ac4 2bbd
000000b0: 2191 a43b 217b 1ebe 9a64 e6bd 4872 f33d
000000c0: bc18 ce3d 18cb 55bd 5218 4fbd 3d69 fcbd
000000d0: 2932 f03b 8433 dd3c aacf d03d 5b54 81bc
000000e0: 5be1 abbd 0de3 71bd 387b a0bd e62f 62bd
000000f0: c926 1b3d 1be9 c93b 0ccb 823d e969 a33d
00000100: 65c7 a83d cc39 5bbd 89cb 9abc 74c6 023e
00000110: 4121 fdbc fea1 643d e370 e33c 4570 423c
00000120: b893 e63d 18db 6cbd 914e b2bd a801 e4bd
00000130: b30b e3bc dd2d 36bd c5bd aa3d c5ad 85bd
00000140: 512a 973d db2b e2bc 1d4b 273d d53b 90bc
00000150: 68eb 673a 5230 b0bd 9c6c 803c 2af3 b9bd
00000160: 58fe a0bd 4986 ea3c 904f 23bd 856a 8abc
00000170: c1c7 c9bd 61c8 08be 7be6 6c3d 27a3 e6bd
00000180: 2c54 96bc fef1 09be bf77 8a3d 0896 073e
00000190: f760 ddbc 8217 0dbd 017f 633d 0049 02bd
000001a0: cf4b d83d 8588 153d cbbb e3bd c93f 67bd
000001b0: 7f2e a8bd dcb5 20be ca7a b53d fdda 14bd
000001c0: c209 68bd 9a36 e83d 05f5 4d3b 78f6 2d3d
000001d0: a384 cdbd 988f 8dbd f2b7 ac3d 7ab1 4f3d
000001e0: d0a2 b7bd 53b2 7cbb f426 a0bd 78be edbc
000001f0: b1f7 89ba 4c23 853d 90a8 0f3d d18a 9a3d
00000200: f99b 65bd 210d b6bd 7483 f43c 6f97 0dbe
00000210: 204d c7bd 6d99 0d3e 02d9 e4bd 84fd 1bbd
00000220: 527a e63d d0fe 57bd 8013 d8bd c718 183d
00000230: 28c8 183c 2de5 973d 3a0c c43c 7c5d 2fbd
00000240: ab14 02be 1ed4 0a3a 00fa 5f3c 6652 59bd
00000250: 6427 ba3c 0de6 f5bc 4df8 e4bd 14fc 60bd
00000260: 4f3b de3d 1288 a23c ce0f d2bc 423a 8a3d
00000270: a8b4 643d bc27 ba3d e51d 4c3d ba56 ce3d
00000280: 92f0 973c 25a2 22bc e9ce 08be 1e0b d2bd
00000290: 4ebc 06be ff43 1bbd 3095 053e a76a 06be
000002a0: 8c7c 013e 6e24 f43d 02a1 43bc 47dc 54bc
000002b0: e602 eebd 97e9 c3bc acdd 1a3e 49f6 fbbc
000002c0: f824 9bbd 8d9a 17bd b4c7 58bb 5615 c03d
000002d0: 945f 4e3c 1590 50bc c914 e2bd 666b 183d
000002e0: a77f 93bc b31d 65bd 81f1 25bd 14f8 083e
000002f0: e4f0 c83d 0cf5 403d 20dc 83bd 1ebc eabd
00000300: c829 093e b23a bdbd 99ba 683d ce09 2e3d
00000310: e6b3 58bd 4465 513b 4d8f ee3d 4e6d 3ebd
00000320: ef1b f63b 447b ee3d fbad 6bbc 1bb3 733d
00000330: c902 0a3d d75f fe3c bc8a f9bd c4d2 71bd
00000340: e777 82bd 0b1e 8a3d c557 0abd 2b46 babd
00000350: f1a4 1c3d 33fd 343d 549b 0fbd d54c ee3c
00000360: 653d 00bd 6367 303c 8632 b4bd 14bb 00be
00000370: c9b7 e43b 19b9 c6bc 31ef 05be 11e2 b5bd
00000380: 334c b83d 6f44 9f3b 9926 673b 7690 d43d
00000390: 983c 4a3a 1b76 9d3a 3a13 e73c 38a4 af3d
000003a0: 52fa bfbd 44de b53d 3b39 cdbd e7de f83d
000003b0: 986c 2c3c 12b5 a6bc 1487 a9bd 929b b1bd
000003c0: 913e c2bd d1f1 d33d b079 dc3d 8a35 633c
000003d0: ed0e 5fbd d7eb a13c 1646 683d 172f e23d
000003e0: a1c1 b5bc a3c9 04be 5ab7 c73d 1405 e13d
000003f0: 7a5c 953c b09e 8ebc b9d1 77bd 1cd0 c7bd
0.055474028 -0.11230194 -0.028505152 0.03448513 0.13181546 -0.07329073 0.0741625 -0.013658511
-0.07462131 0.11192418 -0.07387015 -0.1408314 0.060743816 0.09757526 -0.111668274 0.027599039
-0.12220701 -0.0246788 0.108059034 -0.0021285973 -0.08278717 0.055841837 0.05408108 -0.089455
0.036762916 -0.029766371 -0.14051844 0.12634547 0.13637163 0.04202645 0.037138343 -0.02818045
-0.13971703 0.14449508 0.04961748 -0.07640299 -0.09389286 -0.11152271 -0.07974118 -0.03520918
0.0075687366 0.026694339 0.009649493 -0.041935362 0.0050221835 -0.15476657 -0.11249657 0.11887032
0.100633115 -0.05219564 -0.050560303 -0.1232476 0.0073301983 0.027002104 0.10195859 -0.015787294
-0.083925925 -0.059054423 -0.07836002 -0.05522146 0.037878785 0.0061618215 0.06386384 0.07979185
0.082411565 -0.053521916 -0.018895881 0.12771016 -0.030899646 0.05581855 0.02776379 0.011867587
0.11258644 -0.05782613 -0.087063916 -0.111331284 -0.02771554 -0.044477332 0.08336977 -0.065272845
0.07381118 -0.027608803 0.040843118 -0.017606655 0.0008847029 -0.08602966 0.015676789 -0.09079583
-0.07861012 0.028628485 -0.0398708 -0.016896496 -0.09852553 -0.13357688 0.05783699 -0.112615876
-0.018350683 -0.13471219 0.06761121 0.13240826 -0.027023776 -0.034446247 0.055541042 -0.0318079
0.10561334 0.03650715 -0.11119803 -0.056457315 -0.082119934 -0.15694374 0.08861311 -0.036341656
-0.05664993 0.113385394 0.003142656 0.04247138 -0.10035064 -0.06912154 0.08433522 0.050706364
-0.08966601 -0.0038558438 -0.0781993 -0.029021487 -0.0010526088 0.06500873 0.035072863 0.075460084
-0.05605695 -0.08889223 0.029847838 -0.13827299 -0.09731507 0.13828059 -0.111742035 -0.03808357
0.112537995 -0.052733243 -0.10550594 0.037133005 0.009325065 0.07416759 0.023931611 -0.042813763
-0.12703197 0.000529589 0.0136704445 -0.053057097 0.022723861 -0.030016923 -0.11180172 -0.0549279
0.10851156 0.019840274 -0.025642302 0.06749393 0.05583635 0.0908961 0.049833197 0.100751355
0.01854733 -0.009926354 -0.1336018 -0.10256027 -0.1315777 -0.037906643 0.13045192 -0.13126622
0.12645167 0.11921011 -0.011940243 -0.012991971 -0.116216466 -0.023915095 0.15123624 -0.030757086
-0.075754106 -0.037012625 -0.0033078017 0.093790695 0.01259603 -0.012729664 -0.11039121 0.037211798
-0.018005205 -0.055936527 -0.04051352 0.13375884 0.09811571 0.047108695 -0.0643847 -0.11461662
0.13394845 -0.09239711 0.05681858 0.04248982 -0.05290594 0.0031951228 0.11648426 -0.04649096
0.007510654 0.11644605 -0.014384742 0.05949698 0.033694062 0.03105156 -0.121846646 -0.059038892
-0.06370526 0.067440115 -0.03377511 -0.09095415 0.038243238 0.044186782 -0.03506024 0.02908937
-0.03130855 0.010766837 -0.08798699 -0.12571365 0.0069799167 -0.024258183 -0.13079526 -0.08881009
0.08998909 0.004860453 0.0035270809 0.10379116 0.00077147176 0.0012013348 0.02820741 0.08576244
-0.09373917 0.088802844 -0.100206815 0.1215189 0.010523938 -0.020350013 -0.08277717 -0.08672251
-0.0948459 0.10348857 0.107653975 0.013867745 -0.054457594 0.019765778 0.056707464 0.11044138
-0.022187056 -0.12967543 0.097517684 0.10987297 0.018232573 -0.017409652 -0.06050274 -0.097564906

lstm.bias_ih_l0 f4 [200]
00000000: 5c88 003d 095b f93d 9baa 193e adec d63d
00000010: b5e4 c1bd 5265 2a3e a0b9 993d 88a2 c53d
00000020: f838 0a3e fe29 243d 3a92 7f3d 4491 8f3d
00000030: bb08 b63c 9585 c83d 0229 b9bc eeea 6f3c
00000040: c756 173e b847 2c3e 5162 253e 8c7c a73d
00000050: 97fe 3a3d 8bcd 003e 6ac9 bb3d bcca f83c
00000060: 5df2 8d3d a9ed 8a3d 9230 1abd d955 ccbd
00000070: 1574 a63d 0ed9 fbbd c9d6 af3d 2a35 5d3d
00000080: 2507 373d 1099 703d 06c9 bd3c 90f1 e5bd
00000090: 4ed3 393b ec81 373b d6e5 c83c c2ec a53d
000000a0: 75a8 98bc 488f df3d 9dc7 d1bd 1d52 c4bd
000000b0: 6957 de3d 97a7 0e3d a5b7 31bd c7d1 4ebc
000000c0: eebd dbbd 2d9c 8ebc dae5 d9bd ea1b d6bd
000000d0: 63b7 a9bd ea5a 20bd 604e b93d e3a7 74bd
000000e0: 992e 033e 6389 74bd ed2d 213e 5eaf 1bbd
000000f0: e89f 82bd b29b f2bd 77de 1f3e 6640 59bc
00000100: 42f5 8d3c 79e2 173d fff7 57bc 6816 223e
00000110: 69a2 46bc 3f8e 03bc a56d 99bd d275 c3bd
00000120: b27e 213d 9f18 adbd d7dc af3d fce3 1cbe
00000130: 88e1 1a3c 061e 84bd 3350 1b3e d882 e8bc
00000140: 3173 d3bd c6c1 fdbc 587f 9fbd a4d8 33bd
00000150: 2a3c 8a3d ca1c c13c 42ce bfbd cccb b53d
00000160: fe49 843c be86 1b3e 49b8 5c3c c406 993d
00000170: 4293 50bd e1de af3d 6c50 a13d 6b64 5cbd
00000180: 07e6 21bd 80f2 6bbc c774 233e 5773 9dbd
00000190: 927e a93c 3d2e ec3d f9ac 1fbe ccd3 01be
000001a0: 554a d6bd 6a5e 1f3e 78ba 583d 0e30 9c3d
000001b0: 5050 343c 95ef 67bd bd0d 3c3d 9021 a1ba
000001c0: 497a 6fbb dc12 e5bd e069 bd3b ddb5 883d
000001d0: 82df 393b 8da1 c5bc 30ac e5bd f167 16be
000001e0: 9fde 983d 4088 593d 4ddd 6cbd 0ff9 c4bd
000001f0: b744 833d 0d9a 963d 2f92 0b3d 9d5f d2bd
00000200: 9603 25bd 66cc 243d 19b6 0a3e 6b12 f6bd
00000210: 7f59 363c 137d c9bd 3234 973d 3fb2 333d
00000220: 15de cb3c 9ce0 e73d 87bb 083e 66dc 8fbd
00000230: 5e38 f5bd 42c0 523d 44dc 483d f781 fd3d
00000240: 7a5a 823d 771a de3c 9c16 abbd 7f17 a2bd
00000250: 6eda 26be 84ba 4dbb f722 ea3d a8b2 da3d
00000260: 2efa a83d b7fe 22bd d251 d8bd 9650 6a3d
00000270: b33d b3bc d93e abbc cde1 883d 9f42 0f3e
00000280: 371d 68bd ac83 b53d 99aa 0ebd 8381 07bc
00000290: 0a25 e8bd 710f d9bd 34af 163c 7399 aa3c
000002a0: c9b0 c9bc 4679 813d 0625 88bd 6f32 a3bd
000002b0: 6795 2f3c 66dc b0bd b179 b3bd 90ed cdbd
000002c0: c389 873d 9f2a 5abd 4896 a53d 700c e53d
000002d0: 86c7 66bd 67aa 5bbd 883b d9bd 57c1 313c
000002e0: 4709 c43c d7ed 65bd 4f29 c13c 097f 063e
000002f0: cf3c 96bd 1027 4dbd 4174 163e e37b 77bd
00000300: 4d48 d8bd cbab 683d 51a3 d3bd 5acb 10be
00000310: 29fc 38bd 540b 0abd f2d2 013e 2624 123d
0.031380042 0.12175567 0.15006487 0.10494361 -0.094674505 0.16640213 0.07506108 0.09650141
0.13498294 0.04007911 0.062395312 0.07010129 0.02222096 0.09791104 -0.022602562 0.014643414
0.14779197 0.16824234 0.16150786 0.08178052 0.045652952 0.12578408 0.09169276 0.030370109
0.06930993 0.06783611 -0.037643977 -0.09977312 0.0812761 -0.12297259 0.08585889 0.05400578
0.044684548 0.05873972 0.023167145 -0.11227715 0.0028354707 0.0028001023 0.024523657 0.081017986
-0.018635014 0.109160006 -0.10243151 -0.09585974 0.10856516 0.034827795 -0.043388028 -0.012623257
-0.107295856 -0.017408455 -0.10639544 -0.10454543 -0.08286931 -0.039149202 0.09048152 -0.05973042
0.12810744 -0.059701335 0.15740176 -0.03800904 -0.06378156 -0.11846103 0.15612207 -0.013259983
0.017328862 0.037081216 -0.0131816855 0.1582886 -0.012123683 -0.00802952 -0.07491616 -0.09543957
0.039427467 -0.08451962 0.08587044 -0.15321344 0.009453185 -0.06451039 0.15167312 -0.028382704
-0.103247054 -0.030976187 -0.07787961 -0.043907776 0.06749757 0.023573298 -0.093655124 0.08876762
0.016148563 0.15188119 0.013471671 0.074719936 -0.050921686 0.08587433 0.078766674 -0.053806704
-0.03952601 -0.014401078 0.15962516 -0.07688015 0.020690236 0.11532257 -0.15593328 -0.1267845
-0.104633965 0.1556336 0.052912205 0.07626353 0.011005476 -0.056624968 0.04591154 -0.0012293328
-0.0036541393 -0.11185238 0.0057804435 0.06675313 0.002836198 -0.024124885 -0.11214483 -0.14688088
0.074643366 0.053108454 -0.057828236 -0.09617817 0.06409591 0.073536016 0.03407496 -0.10272143
-0.040286623 0.040233992 0.13546027 -0.12015232 0.011129736 -0.09838309 0.07383002 0.04387116
0.02488617 0.11322138 0.13352786 -0.070244595 -0.11973642 0.051452883 0.049038187 0.123783045
0.06364913 0.027112229 -0.08353922 -0.07914638 -0.16294262 -0.003139169 0.1143245 0.10678607
0.08250843 -0.039793696 -0.10562481 0.05720576 -0.021880006 -0.020903992 0.06683693 0.13990258
-0.056668486 0.08863005 -0.034830663 -0.008270624 -0.1133519 -0.10598648 0.009197045 0.020825123
-0.02462043 0.06321959 -0.06647687 -0.07968604 0.010716773 -0.08635788 -0.08763445 -0.10055077
0.06618073 -0.053263303 0.080853045 0.11184013 -0.056342624 -0.053629305 -0.10607058 0.0108493185
0.023930205 -0.056135025 0.023579268 0.13134398 -0.07335817 -0.05008608 0.14692785 -0.060420882
-0.10560665 0.05680446 -0.103338845 -0.14140072 -0.045162354 -0.03370221 0.12678126 0.035679005

lstm.bias_hh_l0 f4 [200]
00000000: 678d 153e 50f7 f63d dce5 6ebc 7e44 d1bd
00000010: 07d5 c53d 445b e0bd d8be 523d 11ef a23d
00000020: f74a 0e3d 7a7c ab3d e746 f4bd e9e7 ddbc
00000030: 186e bf3d fc30 a0bd 50ec dbbd 920d 9ebd
00000040: 4139 183e c234 0c3c 2139 553d f025 b53d
00000050: 4dce cabc ab6d 24bd 5a94 43bc b93a 00be
00000060: 7ec2 573d 6b51 e73c dd5c e6bd eb02 583d
00000070: f4a7 923d fdcd 0cbe c1d1 ce3d e39c 7bbd
00000080: 2d27 023d 8659 05be 5b57 043e 4751 b1bd
00000090: a3fb 883a 9849 e1bd 3fb6 883c 526a d53d
000000a0: 57f5 d33d a712 39bd c5c2 8ebd e803 863d
000000b0: 2009 083e 617e a8bd 18df da3d 41e3 d53d
000000c0: 9fba 403d 7a1a 4fbc a649 c1bd 9f66 9dbd
000000d0: 1a57 cebc b0f9 26bc 58b0 8cbd b0a0 fa3d
000000e0: 0047 20bd d7b0 e33d b75c 8dbd 484a f33c
000000f0: 93e5 fcbd 4d3f e2bd c920 743d f4a5 11be
00000100: 60e1 b6bb b86d 0d3e 128b 4f3d 4a9f 643d
00000110: 549d 213e a6e7 a83d 4921 193d af4d 6c3c
00000120: 8c91 243e 63d9 e0bd 83f8 71bc d1e7 983d
00000130: ece0 923c d515 d7bd ecc3 843d 9c7e d3bc
00000140: 9bee d53d a0d2 003c 2a86 98bd 2caa de3d
00000150: 7e75 c53d eb28 8cbd 63ec e43d 756a 6cbd
00000160: 98c5 073d bb19 fa3c 651e 9e3d b620 a23d
00000170: 32de 883d 909f 183e 9d5d b5bb 1dd9 a9bd
00000180: 5795 c03c 6be4 b03d 16cc c83c fefe 82bd
00000190: 9a8a 633d b3d3 9b3d 4bda 973c b07c fd3d
000001a0: a6dc 733c 35b5 dbbc 1691 20bd 72f1 11be
000001b0: fd54 c83c 90f4 e9bb 040b adbd 2842 c9bd
000001c0: 2648 f73d cbdb f63d 9516 a3bd b964 ed3c
000001d0: e029 c13c 6742 eebd 438c 5f3c 50a2 623d
000001e0: 1514 abbc 8049 513d 9cef fbbd 52ad 08bd
000001f0: fd51 c13c 43dc af3c fb75 393d c413 0bbe
00000200: cca2 903d 20cd bebd b3aa 4e3d 3e1d ff3c
00000210: 2737 303d 6060 063e b045 833d a913 d6bd
00000220: ec66 eabd 46f8 0e3d cab4 e73d 24d6 a2bd
00000230: c409 e63d 6f83 983d 471a ffbd 825d 293d
00000240: 4537 7e3b 82ee 58bd 6dfc 77bd a5c3 093d
00000250: f10f 03be 90b9 06be ff1a a1bd 52ca fc3d
00000260: a947 29bd 28b4 d6bd 1193 fa3b 81e9 2bbd
00000270: 5323 a23c c00e ee3d ec91 88bd 90c7 6e3c
00000280: aac5 123e 746c 40bd cf4c 99bd 2b09 a53d
00000290: 9164 fa3d aad9 273e 8d9a 89bd 9a6d cfbd
000002a0: ef97 e93d 1164 d1bc 83e7 5cbd 0012 753c
000002b0: a60d 88bd 81fa 223d 35c6 f93d d2dc bb3d
000002c0: 8226 153e 666c a3bd 8935 133e 3355 a3bd
000002d0: e18b e8bd da6e 213e 0fbb 0e3d 80b6 26bd
000002e0: a8f0 54bd 169c 9abd a4ce febd 2e3f d83d
000002f0: 849c 78bd 6f70 fb3d 5d1e 203e 36ea d63d
00000300: 95de fa3d 9921 1a3e 9909 ab3d 880c 8f3d
00000310: b3a0 173e f586 25bd c2b3 db3d 6205 ac3d
0.14604722 0.1205889 -0.01458117 -0.10218142 0.09659772 -0.109549075 0.051451534 0.079557545
0.03473946 0.083733514 -0.11927586 -0.027088122 0.093471706 -0.07821843 -0.107384324 -0.07717432
0.1486559 0.0085575 0.052056435 0.08845127 -0.024756575 -0.04014365 -0.011937225 -0.12522401
0.052675717 0.028237065 -0.11248181 0.052737158 0.07160941 -0.13750453 0.10098601 -0.061428916
0.031775642 -0.13022432 0.12923948 -0.086580805 0.001045097 -0.11000365 0.016688464 0.104206696
0.10349529 -0.045183804 -0.06970743 0.06543714 0.13284731 -0.0822723 0.10687083 0.10443736
0.047052976 -0.01264059 -0.094378754 -0.07685589 -0.025188018 -0.010191366 -0.068695724 0.1223768
-0.03913021 0.11117714 -0.069024496 0.029698506 -0.12348475 -0.1104723 0.05960158 -0.14223462
-0.005581066 0.13811386 0.050669737 0.055815972 0.15782672 0.082473084 0.03738526 0.014422818
0.16071147 -0.10978963 -0.0147687225 0.074660905 0.017929517 -0.10502211 0.06482682 -0.025817208
0.10445901 0.007862717 -0.07447465 0.108723015 0.096415505 -0.06843742 0.111779 -0.057718713
0.033147424 0.030529847 0.07720641 0.07916395 0.066830054 0.14904618 -0.005534841 -0.08293364
0.02350871 0.08637317 0.024511378 -0.06396292 0.055552103 0.07608738 0.018536707 0.12377298
0.01488415 -0.026819805 -0.039200865 -0.1425226 0.024454588 -0.00713975 -0.08449367 -0.098270714
0.12074308 0.12053641 -0.079632916 0.028978692 0.023579538 -0.11633759 0.013644281 0.055330575
-0.0208836 0.051095486 -0.12301561 -0.033368416 0.023598665 0.021467334 0.04527853 -0.13581759
0.07062301 -0.09316468 0.05045576 0.031141873 0.043021347 0.13122702 0.06409776 -0.104529686
-0.11445412 0.03490474 0.1131378 -0.07951 0.112323314 0.07446944 -0.12456184 0.04134894
0.0038790267 -0.052961834 -0.060543466 0.033633847 -0.1279905 -0.13156724 -0.07866477 0.12343277
-0.041328106 -0.10483581 0.007646926 -0.041970734 0.019792235 0.11623907 -0.066684574 0.014573947
0.14333215 -0.04697843 -0.07485353 0.08058389 0.12226213 0.16391626 -0.06718931 -0.10128327
0.11405932 -0.02556041 -0.053931724 0.014957905 -0.06643228 0.03978968 0.12196008 0.091729775
0.14565471 -0.0797966 0.14375891 -0.07975235 -0.11354805 0.15764943 0.03484636 -0.04070139
-0.05198732 -0.07549302 -0.12441757 0.105589256 -0.06069614 0.122773044 0.15636583 0.10493891
0.122494854 0.15051879 0.0835144 0.06984812 0.14807396 -0.04041191 0.107276455 0.08399464

lstm.weight_ih_l1 f4 [200, 50]
00000000: 1290 c1bb 6a46 9bbd eb3c 85bd 8ff1 3ebd
00000010: 6f4f b6bb 7a83 95bd d1c9 0a3c 4b40 29be
00000020: b5e0 efbc 0cce b8bc 8659 09be 97b7 fc3c
00000030: 4bbf 2d3e 3ba3 e5bd de76 a93d 02cd 853d
00000040: 4a6a b7bc e621 b1bb 346a 14be 4364 04be
00000050: 834b c4bd b915 16bb f8dd 09be 39b8 ca3d
00000060: d743 babd a686 853d 628c b33d 93f0 e0bd
00000070: 2644 d73d 44cf 003e 1d5d 2cbd 808e e1bd
00000080: 6106 84bd 6cfa 133e 983d cf3d 300c ef3c
00000090: 0f0a e93c 70fd e63d 7fed ba3d 5f1e 913d
000000a0: 03aa b73d efe1 a6bc 6db5 d43d 9034 dcbd
000000b0: 0e77 0dbe 994c b0bc e154 73bc b769 c13d
000000c0: 3e45 06be 2d69 d3bd e768 0e3d 8f10 013e
000000d0: 5624 903d 95e8 6b3d eb7b 3c3d 4fa9 99bd
000000e0: 1303 1cbd 52b3 08be 2fc0 5fbd 313f 123d
000000f0: 973b 213d 968e a1bd 8f81 8b3d 5da2 803d
00000100: df2a 01be 26f3 0a3e 9e62 a7bd ad76 88bd
00000110: 1427 b5bc 0bb9 4c3b 461f c2bd bd11 ba3d
00000120: fdc1 ac3b cd0d 3bbd c618 a3bd ec17 1e3d
00000130: c01e 433d 1a1e 11bd 2c71 acbd dfe5 3b3d
00000140: 29c2 5fbd e744 d3bd 3242 843d 21bf 8cbd
00000150: 62f9 c03d ad65 b23d a583 12be 6b3d a43c
00000160: a811 703d 28af 263d 082a c7bc e433 07be
00000170: 99ca 193d e706 a4bd 0239 ab3d cf71 09be
00000180: 8c71 d73d 7b5f 583d 2f78 d2bd 85a9 acbd
00000190: cca2 b33d bd33 5abc 5e3f 873d aff6 50bd
000001a0: 8029 8bbd 2b1d 7f3c 991e 3a3d 6cf7 dc3d
000001b0: 9b4a 9bbd e680 85bd 6458 26be 894a e13d
000001c0: e80e 063e 4146 043e 85ea 98bd dedb 21bd
000001d0: a52a 003e edc1 51bd 0b76 d2bc c922 e5bd
000001e0: e4e8 6dbd 4740 2c3e 467a 00be 3d84 20bc
000001f0: 0790 8fbd 3fba adbc cbfa f2bd 2a59 2dbe
00000200: de61 bebd 77fc f3bd dce9 a3bd 81e8 07be
00000210: b292 8abd f2e6 59bd 4e66 2ebd 4523 fcbc
00000220: 1305 723d fa63 983d 3131 b43c 53fc c83c
00000230: c527 6a3d 22d6 893d 2066 5e3d d032 1ebd
00000240: f564 07bd a71e 353d fd37 6e3d 321c d83d
00000250: 361f 163b be6d 013e 7a3b d5bd f57d 093b
00000260: 3a42 60bd 0264 f2bd ae04 9bbb 2e81 0c3e
00000270: ce1e a3bd d25a 3a3d b775 0dbe 6db0 543d
00000280: b9a0 cabd c36b 8abd e331 0c3e 1ad3 b93d
00000290: 6994 e4bc 67aa 85bd 04c9 873d 9fae 87bc
000002a0: ae33 06be bb41 abbd 26ba 1d3d c411 863d
000002b0: ca41 2ebd 8031 f8bd 9e25 0cbe 14ce 293d
000002c0: 2644 893d 31bd 593d 6d28 aabd 0889 a3bd
000002d0: 2dfd b93d b184 ce3d 9c7d cabd ab6c d7bd
000002e0: 9794 d9bc a2b0 073c b327 1dbe dbcb ca3d
000002f0: 1c7a 893d ed95 c03d 71cd 8abd 7392 85bd
00000300: 009b cebd cd7f 0e3d a105 e83c fab7 e53d
00000310: 8ac5 25be 281a d5bd b9f0 1cbe 5af1 7b3d
00000320: ec6f fabc b07e c8bd 1677 b8bd 9dfe ad3d
00000330: 2828 25bd 0b3d dfbd daff 23bc 9d39 04be
00000340: 2fb9 9f3d a746 8ebd d672 3a3d 5339 96bd
00000350: 4d1a 0cbe deaf e03d 8045 de3d fc2d 813c
00000360: 377b 003e 03c9 9abd 3b34 0a3e cdeb d4bd
00000370: 386d fb3d 450b 0dbe 28db 95ba 4c13 c2bd
00000380: 9bd8 f5bd c08c fe3d 5a98 09be 23da 093d
00000390: a878 823c d987 ffbd 8cd7 0cbd 0bc6 aebd
000003a0: 294d 9d3d 8b82 8b3d a054 46bd 5033 e3b9
000003b0: d667 0c3e ba8d 3a3c 6c12 833d be21 8f3d
000003c0: 1961 f5bd 2e2a 17be d9c1 88bc cf89 cbbd
000003d0: 4d88 cabd 77ac 29bd e484 153c 8425 32bd
000003e0: 9538 253d 0711 fc3c 84c0 8ebc cb6e e43d
000003f0: 4cca f8bd 8247 46bd 87ee c8bc 494d 373d
-0.005907067 -0.0758179 -0.0650576 -0.046617087 -0.0055636684 -0.07300468 0.008470968 -0.16528432
-0.029281953 -0.022559188 -0.13413057 0.030849261 0.16967504 -0.11212774 0.08274625 0.06533243
-0.02238955 -0.0054056523 -0.14493638 -0.12928872 -0.09584715 -0.0022901131 -0.1346358 0.09898419
-0.09094971 0.06519823 0.0876701 -0.10983386 0.10511045 0.12579066 -0.042080987 -0.11013508
-0.06446529 0.14450997 0.1011917 0.029180616 0.02844718 0.11278808 0.0912733 0.07085871
0.08967974 -0.020371405 0.10386167 -0.10752213 -0.13814947 -0.0215209 -0.01485178 0.09443992
-0.13112351 -0.10322795 0.03476801 0.12603973 0.070381805 0.057594854 0.046016615 -0.07502996
-0.03808887 -0.13349655 -0.05462664 0.035704795 0.03936347 -0.07888524 0.06811821 0.06280968
-0.1261401 0.13569316 -0.081731066 -0.066632606 -0.02211336 0.0031238224 -0.09478621 0.090854146
0.0052721486 -0.04566746 -0.079637095 0.038597032 0.047636747 -0.035429098 -0.08420023 0.04587352
-0.054628525 -0.103158765 0.06457938 -0.068723924 0.09422566 0.08710799 -0.14308031 0.020048818
0.05861059 0.040694386 -0.024312034 -0.13203388 0.037546728 -0.08009129 0.08360483 -0.13422321
0.10519704 0.052825432 -0.102768295 -0.08430771 0.087712854 -0.013317999 0.06603883 -0.051016506
-0.06795025 0.015570919 0.045439336 0.107893795 -0.07582589 -0.06518726 -0.16244656 0.110005446
0.13091624 0.12917425 -0.07466606 -0.039516322 0.12516268 -0.051210333 -0.025691053 -0.11188275
-0.05808343 0.16821395 -0.12546644 -0.009797153 -0.07009893 -0.021206973 -0.11864241 -0.16928545
-0.092960104 -0.11913388 -0.080035895 -0.13272287 -0.06766261 -0.053198762 -0.042578034 -0.030778537
0.05908687 0.07440944 0.021996113 0.02453438 0.057166833 0.06730296 0.054296613 -0.038622677
-0.033055265 0.044218685 0.058158863 0.10552253 0.0022906787 0.1263952 -0.10411735 0.0020979617
-0.05475066 -0.11835481 -0.0047307825 0.13721153 -0.0796486 0.04549677 -0.13814436 0.051926065
-0.09893937 -0.06758835 0.13690905 0.090734676 -0.027902799 -0.06526642 0.066301376 -0.016562758
-0.13105652 -0.083621465 0.038507603 0.06546357 -0.04254321 -0.121188164 -0.13686225 0.041456297
0.067024514 0.053158943 -0.08308492 -0.07985121 0.090814926 0.100839026 -0.09887239 -0.10518774
-0.026560111 0.008281859 -0.15347175 0.099021636 0.06712744 0.09403596 -0.06777466 -0.065220736
-0.10088158 0.03478985 0.028322997 0.11216731 -0.16188636 -0.104053795 -0.15326203 0.061509468
-0.030570947 -0.09789789 -0.09007089 0.08495829 -0.0403215 -0.10900315 -0.01000973 -0.12912603
0.07798993 -0.069470696 0.045519672 -0.073351525 -0.13681908 0.10971044 0.108531 0.015768997
0.12547003 -0.07557871 0.13496487 -0.10396538 0.12276691 -0.1377383 -0.0011433112 -0.09476337
-0.12004205 0.1242919 -0.13437024 0.033655297 0.015926674 -0.12477083 -0.03438525 -0.085338674
0.07680733 0.068120085 -0.04842055 -0.00043335045 0.13711485 0.011386329 0.06399998 0.06988858
-0.119814105 -0.14762184 -0.016693996 -0.09938394 -0.098892786 -0.04142424 0.009125922 -0.04349281
0.040337164 0.030769838 -0.017425783 0.111539446 -0.1214796 -0.04840804 -0.024527801 0.04475144

lstm.weight_hh_l1 f4 [200, 50]
00000000: 48c5 00be 0326 ecbc e391 8cbd 1662 1c3e
00000010: 6972 38bd f67a a7bd c496 923c a8d1 f9bd
00000020: 7fdd cbbb f9a9 debd c740 6f3d 7864 f9bd
00000030: 3d1d 3d3d c82b 2a3d 874c 523d b91c 213d
00000040: 7f7e 3b3d 62cd 293d 3206 423d 348f d2bd
00000050: 66cc ccbc e501 b43d 03b6 12bc 292e 0f3d
00000060: 9971 18bc 6edb 0ebe b5a0 103e 1702 edbd
00000070: 29e6 6a3d c337 c7ba d677 f03b ae3d 1a3e
00000080: db56 eabc e3f2 883d b936 073e f959 623c
00000090: 7d4b 9a3d 5178 13bd ec06 c03d a10d be3c
000000a0: fcdf d8bd 94f5 0f3d 2825 d13c 5c74 953c
000000b0: c503 86ba 7766 803c c86c 693d 821b 913d
000000c0: a11b a1bd bc53 fdbd e562 aebd 00ec 4dbd
000000d0: 34bc 073e 81d3 afbd c1b3 8abc 9824 b13d
000000e0: 529f 89bd 199d d93d f9e6 e83c 757e c4bd
000000f0: 1258 553d ec58 973d e3f6 76bd 2ce2 91bd
00000100: 9b67 063e 9f6c e0bc 24cb b1bd 1b87 a6bd
00000110: 7e94 b5bd c968 2abc 6074 9abd ba17 88bd
00000120: 9e85 95bd 588a eebd 1d26 fc3d 7d2c 25bd
00000130: 6dc1 283e 2acf b7bc a6fa 353d 655b a83d
00000140: 9e48 cb3d 7aed d6bd 85f2 66bd 8f91 5b3d
00000150: 7b94 153e 809b c63d a3fd 0ebe 5c81 193e
00000160: 322d bc3d b236 a0bd 5019 bfbd fc69 a33b
00000170: f5c2 86bd c65c 97bd bd10 8b3d 1c45 0cbc
00000180: e5b6 8a3c 4a83 cbbd 2f01 033e 03ed b23d
00000190: dc54 edbc fbff 28bd 3fdb e13b 66df 013e
000001a0: 256f fd3d 5404 313d dcec 533b 8e61 60bd
000001b0: 362a 273d 10a1 f33d a50b dc3d 526a 013d
000001c0: 8bde c2bd ab21 273e 771d f7bd c113 fdbb
000001d0: b30d b7bd a51d f23b b4b0 a0bd 9fef dfbd
000001e0: 429c df3d cd38 1abe 565c 2abe 055c 93bc
000001f0: da0e c33c 7cf8 c03d cd17 d53b 8da9 913d
00000200: 47aa b7bd 15fd de3d d51d d0bd 92a1 f1bd
00000210: 8577 2cbd 8817 943c a68f 113e ba15 1cbe
00000220: d962 d63d 645b 24bd e5d7 ee3b 81ab 243e
00000230: e2bb 403c 4c59 8f3d cb2c bdbd a009 f43a
00000240: ada2 103d befa 18bd 9a67 b23d 19fa 1f3d
00000250: dcc7 203e 14c9 073e ad5f 903d 6786 953d
00000260: 0d78 143e 1613 1cbd f3de debd 31fb 113e
00000270: 733e f83d 09d1 b13d fab1 abbd 0736 9c3c
00000280: dee0 dcbd d318 37bc 7d8c 923d c05b 1c3e
00000290: 3af2 8dbd 1f8b fcbd d00f ba3d b5f5 1abe
000002a0: 7991 0dbe bcc3 8f3d 7a84 a13a 76d0 84bd
000002b0: aed4 d0bd 58a5 84bd 4f05 05bc 95a9 fa3c
000002c0: 08de 59bd da47 cebd 0de8 95bd 8b46 7abc
000002d0: 55e2 0a3d 65c9 eebc b323 0e3e 615f 45bd
000002e0: a023 a1bd 06ed 813d f6ab 84bd 6ce9 e1bd
000002f0: f924 78bd 7967 f53d 347d 3abd d229 76bd
00000300: f405 2f3d 1edf 63bd 8078 d93b bf4d 8a3d
00000310: 8d3a 0abd 199e 88bd c2eb ea3d 8127 d4bc
00000320: 00af fd3d 9bcd 33bd 6279 063d 47ac 43bd
00000330: 736c ff3c 2320 ba3d 8eef 6abd 686b bfbd
00000340: 6caa 89bd 2be2 ce3c 3315 023c 2f4a 033e
00000350: c07c a53d 716f b7bd e12c b8bd 1003 8e3d
00000360: 6134 bd3d 2c75 573c a72a b73d f4db 0cbd
00000370: 693c 103e ce90 b73d 2b74 1d3d a9c8 19bd
00000380: 5666 cfbd b522 473d 9571 55bd d2f3 df3c
00000390: a759 b73d df67 b7bd ccdc 6139 df65 0abe
000003a0: 38e3 aabd c0a2 67bc d5b5 e6bd a547 07be
000003b0: 7250 793d f5af e0bd f486 babb c8d9 e13d
000003c0: 7188 0c3e 0567 81bd d657 e6bd 4426 413d
000003d0: 0d96 08be 61db 2bbd 7757 ccbd a2d6 f33d
000003e0: 77bb 283d f737 073e 5fe0 133e 727b bbbd
000003f0: a44c 343c a8dd 133d f0b6 79bd 6115 8abd
-0.12575257 -0.02882672 -0.06863763 0.15271792 -0.045030985 -0.0817775 0.017894156 -0.12198192
-0.0062214728 -0.108722635 0.058411386 -0.12177366 0.046170462 0.04154566 0.051342513 0.039334033
0.045774933 0.041455634 0.04736919 -0.1028122 -0.024999809 0.08789424 -0.008954528 0.03495613
-0.009304428 -0.13950893 0.14123805 -0.11572664 0.057348404 -0.0015199113 0.0073385043 0.15062591
-0.028605869 0.06686952 0.13204469 0.013815396 0.075339295 -0.036003415 0.0937632 0.023199858
-0.10589597 0.03514631 0.025530413 0.018243961 -0.0010224512 0.015673859 0.056988508 0.07085325
-0.07866598 -0.12369487 -0.085149564 -0.050273895 0.13255388 -0.08585263 -0.016931416 0.08649558
-0.06719841 0.10625667 0.028430449 -0.09594432 0.052085944 0.073900074 -0.060294043 -0.07123217
0.1312546 -0.027395545 -0.08681324 -0.08131238 -0.08866213 -0.010400959 -0.07541728 -0.066451505
-0.07300876 -0.11647481 0.12311957 -0.04032563 0.16480036 -0.02243765 0.04442849 0.08220557
0.0992596 -0.10494514 -0.05638363 0.053605612 0.14607422 0.09697628 -0.13963942 0.14990753
0.09188308 -0.07822932 -0.09331 0.0049869996 -0.06580154 -0.07390742 0.06790302 -0.008561399
0.016932914 -0.09937151 0.1279342 0.08736613 -0.028971128 -0.041259747 0.0068925912 0.12682876
0.12374715 0.04321702 0.0032337224 -0.054780535 0.04081174 0.118959546 0.107444085 0.031595536
-0.09515103 0.16321437 -0.12066167 -0.007723302 -0.0893816 0.007388788 -0.078462034 -0.10934376
0.10918476 -0.1506073 -0.16636786 -0.017988214 0.023810793 0.09422395 0.0065030814 0.07112417
-0.08968025 0.10888115 -0.1016194 -0.11798395 -0.04210617 0.018077627 0.14214954 -0.15242663
0.104680724 -0.04012622 0.00728892 0.16081049 0.011763545 0.06999454 -0.09237059 0.0018618591
0.03531139 -0.0373485 0.08711167 0.03905687 0.1570124 0.13260299 0.07049499 0.07301026
0.1449892 -0.03810414 -0.10882368 0.14255978 0.12121286 0.086824484 -0.08383556 0.019068731
-0.107850775 -0.011175352 0.07155702 0.15269375 -0.06930967 -0.12331223 0.09085047 -0.15132792
-0.13825025 0.07019755 0.0012322806 -0.06485073 -0.101968154 -0.06476849 -0.008118941 0.030598441
-0.05319026 -0.10072298 -0.07319651 -0.015275608 0.033907253 -0.029148767 0.13880806 -0.048186664
-0.07868123 0.06344037 -0.064781114 -0.1103085 -0.060582135 0.119826265 -0.04552956 -0.060098477
0.042730287 -0.055632703 0.006636679 0.0675311 -0.033747245 -0.0667078 0.114707485 -0.025897743
0.12386894 -0.043897253 0.032830603 -0.04777172 0.031179642 0.09088161 -0.057357363 -0.09346658
-0.067219585 0.02525433 0.007939625 0.12821268 0.08080435 -0.08956803 -0.08992935 0.06934178
0.09238506 0.013150495 0.08943682 -0.03438945 0.14085545 0.08963166 0.038440865 -0.03754488
-0.10126941 0.048617084 -0.052110273 0.027337942 0.08952647 -0.08955359 0.00021539925 -0.13515423
-0.0834412 -0.014137924 -0.112651505 -0.13210924 0.060867734 -0.10971061 -0.005692357 0.110278666
0.13723923 -0.063184775 -0.11247222 0.047155634 -0.1333849 -0.041957263 -0.0997762 0.11906172
0.041194405 0.13204943 0.1444106 -0.09154405 0.011004601 0.03610006 -0.06096548 -0.06742359

lstm.bias_ih_l1 f4 [200]
00000000: 0ad7 243e f77e e1bd cb17 343d af67 203c
00000010: b566 febd 5fb4 41bd 22ea 1abe 8ccc 803d
00000020: be53 c53d 75cb cfbc b3de a73d ec27 a3bc
00000030: f994 033e 66ca 38bd e0c4 933d d214 81bd
00000040: c2a2 d3bd b6a3 dfbc 8dea 1b3e a7a5 e2bd
00000050: 0ce4 253e bbb8 b3bd 6000 e2bd d67e 673c
00000060: 261e 923d 7e3c 1c3e 7d16 aabd aa6a 043d
00000070: 19b4 cfbd 6ddc ecbd fc9f 99bd d7fe 113e
00000080: 46fa 03bd c438 bdbd 3999 57bc 3031 93bd
00000090: c5c5 383d 48af 26bc 87a9 1d3e 9dd7 a83d
000000a0: 0518 3d3d 5f29 203e a719 87bd ba82 063e
000000b0: 4eb5 a63d 2ab4 6e3d 5e94 a13d cfd7 f83c
000000c0: 07c3 013e 351c 3abd b677 513d a134 ec3d
000000d0: d1b8 813d 55e3 88bb aede 31bc 8f44 ba3d
000000e0: 4ec8 6cbd 8008 203e 3b7a eabc e4f6 99bd
000000f0: f424 f5bc 20f4 07bd b6e5 d43d 83de 9cbd
00000100: 1356 ea3d cf56 203e dd96 efbd b521 393d
00000110: edca 32bd cdd5 f3bd 6863 efbd df58 273e
00000120: 9fe6 1fbe 8dc5 6f3d a686 b6bc 4b1d b13d
00000130: b98e 0a3e bec8 b43d e653 34bc af03 d6bd
00000140: e7dd 66bd 7773 9dbc c13d dd3d b712 a6bd
00000150: 01b2 333d ec9f 243d cfcb 793d 8f4c 233e
00000160: 84a5 81bd 0894 a73d 34bd 943c ba52 9e3c
00000170: 4ee4 073e 1fc0 8d3c ebad 04be d880 403d
00000180: 6db7 aabd 5cc0 71bc 028b b83d 9c05 683d
00000190: e803 8c3d f016 0f3c d2e7 f83d 4a8d 753d
000001a0: 5949 bf3d 8311 a93d 505d fbbd f78f 293d
000001b0: b5c8 f63c c307 09bc 8a94 3ebc ed14 ad3d
000001c0: 4bfa e0bd 3abc ae3d 13d9 26bd 5de9 cfbc
000001d0: 2126 f9bd 20ed de3b f553 a1bd 4b24 0c3e
000001e0: 92fe 24be 580e 02bc 46ef a4bd c436 7b3d
000001f0: 622c e73d 3363 06be e2d0 ce3c b5ce 17be
00000200: 4b48 953d 0a34 fd3c 9c42 0cbe 14d8 e13c
00000210: 1668 f23d 0e79 f4bb 4ec6 0e3e 47b6 6abd
00000220: aefb f9bc 2949 25bd f0f4 0ebe bdb7 043e
00000230: 417e 3f3d aaa0 0c3e ecf8 703d ebfb f73d
00000240: c06c 073d 0ab5 f3bd 98bb 683c f7c1 62bd
00000250: 9144 cf3d c303 58bd 665e d93d 49ba b73d
00000260: 979b 1a3d 0313 ce3d e054 523d d489 c13d
00000270: dec1 b33c 0b55 893d 7151 993d 672e d13d
00000280: d4a2 013e 3895 913d 06cf 58bd 8d9f d2bd
00000290: 6b91 e8bd 3adb 81ba 954a 99bd 1a89 a5bd
000002a0: 5259 cc3d 53b5 ddbd 4aec c2bd ae9f 883d
000002b0: 003b a03d 5f0b 073e b359 f4bd 8de8 cb3d
000002c0: 379c df3c 1026 0f3c 4b39 bc3d 097e 90bc
000002d0: 3f4e b43d 812a 8d3d bb05 8fbc 222b 993d
000002e0: df00 843d 0fc8 c9bd 9b79 19be 66fa c2bc
000002f0: f0fd 9d3d 992f ebbd 0e2b 843d c5eb d63d
00000300: cd16 1d3e 7905 d43d 9a59 1fbe 5294 903b
00000310: 1422 603c fc69 d83c 1a9d 09bd c903 103e
0.16097656 -0.11010545 0.043968003 0.009790345 -0.124219336 -0.047291156 -0.15128377 0.06289014
0.09635113 -0.02536557 0.081967734 -0.019916497 0.12849797 -0.045114897 0.07215285 -0.06302799
-0.10333778 -0.027299743 0.15226193 -0.11066752 0.16200274 -0.08775469 -0.11035228 0.014129361
0.071346566 0.15257451 -0.083050705 0.032328285 -0.10141773 -0.115654804 -0.07501218 0.1425737
-0.0322211 -0.09239343 -0.01315909 -0.07187116 0.045110483 -0.010173626 0.15396701 0.0824425
0.046165485 0.15640782 -0.0659669 0.13135806 0.0814005 0.058277287 0.07889627 0.030376343
0.12672053 -0.045437057 0.051139556 0.11533476 0.06334079 -0.0041774907 -0.010856314 0.09095108
-0.057808213 0.15628242 -0.028622737 -0.07517794 -0.029924847 -0.0331918 0.103953764 -0.07659628
0.114421986 0.15658115 -0.11698697 0.04519816 -0.043650556 -0.11906014 -0.11688882 0.16342495
-0.15615319 0.05853801 -0.022281002 0.08648165 0.13531007 0.08827351 -0.011006331 -0.10449921
-0.056363966 -0.019220097 0.10802794 -0.08109038 0.04387093 0.040191576 0.060985383 0.15947174
-0.06330398 0.081825316 0.018156625 0.019326556 0.13270685 0.017303525 -0.1295697 0.046997875
-0.08335767 -0.014755335 0.09010889 0.056645975 0.068366826 0.008733496 0.12153591 0.059949197
0.09340162 0.08255293 -0.12273657 0.04139706 0.030125001 -0.008363667 -0.011632094 0.08451257
-0.109852396 0.08531995 -0.04073436 -0.025379831 -0.12165476 0.00680317 -0.07877342 0.1368572
-0.16112736 -0.00793799 -0.0805345 0.061331525 0.11287762 -0.13123779 0.025246087 -0.14824946
0.072891794 0.030908603 -0.13697284 0.027568854 0.11836259 -0.00746072 0.13942835 -0.05730274
-0.030515518 -0.040352974 -0.13960624 0.12960716 0.046751264 0.13733163 0.05883114 0.121085964
0.033062696 -0.11899765 0.014204882 -0.05536076 0.101205 -0.052737962 0.10613708 0.08971078
0.03774604 0.1006222 0.051350474 0.09450117 0.021943029 0.06705674 0.07486237 0.10213929
0.1265977 0.07108539 -0.052931808 -0.10284338 -0.11355861 -0.0009907254 -0.074849285 -0.08082791
0.09977974 -0.108256005 -0.09517725 0.066710815 0.07823753 0.13187931 -0.11931171 0.09956465
0.027296169 0.008737102 0.09190615 -0.017638223 0.08803987 0.068928726 -0.017458787 0.0747893
0.06445479 -0.09852611 -0.14987795 -0.02380104 0.0771445 -0.11483688 0.064535245 0.10494188
0.15340729 0.10352606 -0.15561524 0.0044122124 0.01368 0.026417725 -0.03359709 0.14063944

lstm.bias_hh_l1 f4 [200]
00000000: f816 603b 609d b8bd 1776 c4bc 083a 113e
00000010: b417 b8bb 381c 723d e1c9 4fbd 84f8 ce39
00000020: a4d6 b63c abeb 913d e880 333d e189 11be
00000030: dd8c ee3d c64e a5bd afb2 96bd 4ade 013e
00000040: 681f aebd 1e22 90bd d7d1 bc3c 6062 c3bd
00000050: fad9 62bd edd6 88bd 66c3 923d 847c 1bbd
00000060: 46c2 1fbd f82e 0ebd 76a0 7abd f231 1b3e
00000070: 685d 7ebd e7fd 87bd cdc0 53bb b017 5b3d
00000080: e960 1bbe ff26 403d 0805 b6bd 0491 543d
00000090: b182 033d aa7c 9cbc f90d 6abd 8e7d f1bd
000000a0: 208f a53b 5b5e debd 7b21 81bd 3747 d33d
000000b0: e522 123b d33a 243e efb6 1d3e 0c18 0e3d
000000c0: 3833 9d3d 24c6 6e3d 0e28 bebd 4fc0 3bbd
000000d0: 2cc1 84bd f956 5cbd 0056 83bd 0bc6 e03d
000000e0: df43 c23d 6a34 973d dc7e 0bbd 5465 403d
000000f0: 64fe b53d 2ca8 7a3d 6db1 9d3c 82ee 503d
00000100: 1380 8abd abb4 ca3d a2d8 9bbd ce41 fcbc
00000110: 833f 3a3c f20d 0b3e e2d3 8cbd aea6 f03d
00000120: eb32 e23d c508 6cbd 890d e43b 6e6f 133e
00000130: a3a7 6e3c cc2f 933d b646 023e b544 d3bd
00000140: d0ad e33d 738a e5bd 93cc ddbd 09d8 893d
00000150: 0651 c93d 1d35 af3d ac15 1cbe ddf9 bcbd
00000160: 9deb 0f3e 8258 0d3e feba 7dbc a18c 813d
00000170: 11d9 e63d cae1 cd3d 38c7 a83d ceff 893d
00000180: 3e93 46bd 40a4 aebd 1a86 f43d b530 92bc
00000190: 8fdc 22be d85e 573d 50bf ed3d 3b81 7f3c
000001a0: a97f 98bd 3ff0 d73d 1578 0dba 81c1 06be
000001b0: f638 80bd 62f1 a53d 1997 ab3d d5d9 f3bd
000001c0: 64e6 03be 0d8f 243c 014f 843d 65b9 193e
000001d0: c74b bd3d 84fc b4bd 9b98 17be 16e7 103e
000001e0: d842 b7bd 2e1b 20be 760f debd 767d a7bd
000001f0: 32cf ed3d 3225 1abe 90a9 9dbc 5bd7 18bd
00000200: 5850 43bc 77d5 c9bd 0930 1abe 6965 553c
00000210: ec9d 083d a00a 2abc 94ad c3bd e2ce d93c
00000220: 916a fbbd 26c6 1b3e f1bd 1bbe ed40 5a3d
00000230: e22f 32bd bf00 d1bc 8fa7 09be 280e 193e
00000240: d91f 3f3d b82b e13d c1f7 18be b187 73bd
00000250: 0ed6 a4bd ab8b 9eba 5735 243c 53fc be3d
00000260: 8c66 e33d 7d33 d03d 5c6e 373a 1d26 b03c
00000270: 725b eabd 03d3 41bd 347f a83c 736e f53d
00000280: 964e bfbd 9bdc 333c 16ca 1ebd 2ba2 533d
00000290: 4d0e b8bd b553 8dbd e601 0fbd 2bff 203d
000002a0: 6fcd 023e 0b36 52bd 73a9 2b3d b32b 8bbd
000002b0: 066a 513c bb28 a1bd df35 433d e937 bf3d
000002c0: 6784 963c 9da4 173d c705 783d 71b8 05be
000002d0: 6f3b 0abd f889 12bc a23b f5bd cafb ea3d
000002e0: 2019 d33d 921a d23d 16ad c3bd 70d6 063e
000002f0: ca30 d33d 3427 32bd 3a03 b03d aa00 683d
00000300: 6ed1 103d cec4 c83c 7634 a9bc a3ca c1bd
00000310: 929e a53c bfd2 eabd 178b b53c d411 233e
0.0034193378 -0.09014392 -0.02398209 0.14182293 -0.00561806 0.059108943 -0.050729636 0.0003947654
0.022319146 0.07125028 0.043824106 -0.14212753 0.11647961 -0.080716655 -0.073583 0.12682453
-0.08502084 -0.07037757 0.023049278 -0.09540248 -0.05538366 -0.06681619 0.071661755 -0.037960544
-0.039003633 -0.03471276 -0.061188184 0.15155771 -0.062100798 -0.06640225 -0.0032310963 0.053489387
-0.15173687 0.04691219 -0.088876784 0.05189611 0.03210706 -0.019102413 -0.05714223 -0.11791526
0.005052462 -0.108578406 -0.06305214 0.103163175 0.002229863 0.16038065 0.15401815 0.0346909
0.07675785 0.05829443 -0.092849836 -0.045837697 -0.06482157 -0.05379388 -0.064128876 0.10975274
0.09485602 0.07383044 -0.03405653 0.046971634 0.08886412 0.061195537 0.019249642 0.05100871
-0.067627095 0.09897741 -0.07609679 -0.030793097 0.011367681 0.13579538 -0.06876351 0.117505416
0.11044868 -0.05762555 0.0069596213 0.14397976 0.014566335 0.07186851 0.12722287 -0.10315839
0.111171365 -0.11208048 -0.10830035 0.067306586 0.09829907 0.085550524 -0.15242642 -0.09227345
0.14054723 0.13803294 -0.015486477 0.06325651 0.11271871 0.100528315 0.08241123 0.06738244
-0.048480265 -0.08527422 0.1193964 -0.017845491 -0.15904449 0.052580684 0.116087556 0.015594776
-0.07446224 0.1054387 -0.0005396617 -0.13159753 -0.062608644 0.08102681 0.08378429 -0.119067825
-0.12880856 0.010043872 0.06460381 0.15012129 0.09242969 -0.08837226 -0.14804308 0.14150652
-0.08948296 -0.15635368 -0.10842793 -0.08178227 0.11611785 -0.15053251 -0.019245893 -0.037314754
-0.011921011 -0.09855168 -0.15057386 0.013024666 0.03335373 -0.01037851 -0.09554592 0.026587907
-0.12276185 0.15212306 -0.15209176 0.053284574 -0.043502696 -0.025513051 -0.13442825 0.14946806
0.04666123 0.10994667 -0.1493826 -0.059455577 -0.0804864 -0.0012096068 0.010022483 0.09325471
0.11103544 0.101660706 0.0006997341 0.021502549 -0.11443223 -0.047320377 0.020568468 0.11983957
-0.09341161 0.010977889 -0.038766943 0.051668327 -0.08987103 -0.069007315 -0.03491392 0.039305847
0.12773679 -0.05132107 0.041909646 -0.06795444 0.012781626 -0.07869097 0.047658797 0.09336836
0.018373681 0.03702222 0.060552385 -0.1305864 -0.033748087 -0.008944027 -0.11974265 0.11473806
0.103075266 0.10258974 -0.09554498 0.13167739 0.1031204 -0.04349442 0.085943654 0.05664126
0.035355978 0.024507906 -0.020654898 -0.09462478 0.020217214 -0.11465978 0.02216105 0.1592477

fc.weight f4 [1, 50]
00000000: ba1c f8bd 14a7 073e f789 083d 5e03 063e
00000010: 9f5a 77bd e804 b0bd 7e4b 15bc 04bc 06be
00000020: 8caf 51bd 6ab3 ee3d ed7f 0f3e 69ce 893d
00000030: 408b 863c fb98 ba3d 3561 24bc 9174 b53d
00000040: eb10 f3bd 52d0 a83d c5e1 1bbe ca29 183d
00000050: c795 3cbd 16a5 cbbd 5465 1c3d ebd4 0a3e
00000060: 20c0 12bd 760d c8bd 4ccc f33d 8b57 dbbd
00000070: dde1 9c3d f2c5 853b 09cd 96bd bbf7 d13d
00000080: bb9d 23bc 08fa e93d d6b0 2d3c 8117 593d
00000090: f304 023e 9b71 d23c fed7 e8bd e316 823d
000000a0: 3398 093e e751 8b3d 38d4 dcbd 86e7 1d3e
000000b0: b657 c3bc 0191 22be b2dc b4bd 9397 debd
000000c0: 9ae0 c2bd bb06 223d
-0.12114854 0.13247329 0.0333347 0.13087222 -0.060389157 -0.08594686 -0.009112237 -0.1315766
-0.051192805 0.11655314 0.14013644 0.06728823 0.016423821 0.0911121 -0.010032942 0.08860124
-0.11868461 0.08242859 -0.15222843 0.03714923 -0.046041276 -0.09943597 0.03818257 0.13557784
-0.035827756 -0.097681925 0.11904201 -0.10710057 0.076602675 0.004082435 -0.07363326 0.10252329
-0.009986336 0.11424643 0.010601243 0.05300093 0.126972 0.025688937 -0.11369322 0.063520215
0.13436966 0.06802731 -0.10782665 0.1542035 -0.023845535 -0.15875627 -0.08831157 -0.10868754
-0.095154956 0.0395572
